apps/api/fine_tuned_models/3c232feb-eafe-4260-8abb-522e056b24e8/adapter_model.safetensors (safetensors, 27024 bytes, 28 tensors)

base_model.model.model.layers.0.mlp.down_proj.lora_A.weight f4 [8, 64]
-0.05200542 0.023363736 0.09920468 -0.007903909 0.013224993 0.009605124 -0.0015842696 0.074716404
0.067962565 -0.067276336 0.11903583 0.07225309 -0.019288763 0.109142214 0.006398002 0.07866504
-0.1064603 0.112494804 0.11814324 -0.093710475 -0.11155375 -0.036707394 -0.07717499 0.03372736
0.055323213 -0.016257077 0.08801791 0.0050658295 -0.03641506 -0.10685113 0.04002602 -0.11809533
-0.00039693445 0.018585436 -0.06973859 0.037531517 0.024618683 0.08363266 0.07847948 -0.10148346
-0.09303315 -0.04554838 -0.0902517 0.038863372 -0.082221135 -0.09528417 0.036307544 0.07576102
-0.036035787 -0.124556296 0.01796952 0.06432683 0.09795845 0.012060971 0.08692964 -0.11209731
0.119257696 -0.08038892 -0.08499412 0.09002385 -0.028102865 0.07681163 -0.08784499 0.094899885
0.118875325 0.03816684 0.10051477 -0.08907062 -0.027926367 0.03834366 0.07096277 -0.067066334
0.0798681 -0.041451138 -0.0670386 0.02477326 -0.09988865 -0.11440051 0.04182539 0.042247996
0.048144303 -0.016079962 -0.091096915 -0.10073145 0.11993533 -0.108061805 0.037988458 0.10184469
0.09581967 -0.07913792 -0.040272087 -0.09962342 0.07872535 -0.117594235 -0.1147602 -0.08377705
0.10164212 0.081343934 0.08407286 0.095583975 -0.057974964 -0.06958373 -0.076935224 0.04146021
0.048376713 0.026258944 -0.095837794 0.010776907 -0.06665881 -0.024525495 -0.0191499 0.006539859
-0.109432854 0.10702493 -0.052865155 0.0393608 0.086366616 0.050292067 0.087242775 0.070277646
0.09183168 0.02670152 0.08015087 -0.054010537 -0.067681216 0.060018025 0.032604232 -0.0043591694
-0.1057664 0.04061735 0.081293285 -0.01424439 0.029043226 0.055583816 -0.12377623 -0.02024959
-0.04669819 -0.064213775 0.076726615 0.12361492 0.020275924 0.07747148 -0.093051516 0.02235148
-0.016401846 -0.077412955 0.02530386 0.040108148 -0.0057287617 0.05276129 0.059697952 0.11370725
0.006921694 0.0047755395 -0.0018740498 0.017576287 -0.081375875 -0.015706476 -0.10601144 -0.08735089
-0.106147625 0.092383735 -0.07215818 -0.009759818 0.013043152 0.110216245 0.056963317 -0.08929738
0.12258271 -0.11807302 0.015925633 0.11390678 0.108725466 -0.028674474 -0.08374368 0.054560315
0.09613913 -0.06696376 -0.020098269 -0.07631267 0.04741939 0.026930751 0.06227541 -0.043215483
-0.1209841 -0.05268314 -0.09743924 -0.030435493 0.045753423 -0.104318745 -0.006148023 -0.12197331
-0.088291794 -0.08784465 -0.04289218 -0.063663155 0.019568745 0.07673562 0.09458479 0.03970414
-0.0011497388 -0.021956896 0.08454513 -0.07190408 0.09066873 -0.12004913 -0.093615934 0.032829095
-0.051805153 0.023006607 0.10924192 0.057358246 0.12230679 -0.05303529 -0.060017668 -0.016068012
-0.02549663 -0.055310126 -0.008028346 0.11324306 -0.06857425 0.07047498 0.05806454 0.072060555
0.034049116 -0.045887694 0.05128536 -0.058562346 -0.07674855 0.11707875 0.10328893 -0.090666376
0.10120237 0.025905188 0.03171399 0.12079395 -0.006238603 -0.04006293 0.078770004 -0.031965837
-0.02979815 -0.050079636 0.12320488 0.05982089 -0.019934228 -0.002821701 0.008866891 -0.07441679
0.03518324 -0.096742995 -0.0055070715 -0.02315879 -0.051259555 0.11528224 0.03533107 0.06003239
00000000: a303 55bd 4e65 bf3c d32b cb3d 667f 01bc
00000010: a4ad 583c cf5e 1d3c 44a7 cfba ea04 993d
00000020: f52f 8b3d 2dc8 89bd 0fc9 f33d 6ef9 933d
00000030: 7803 9ebc f485 df3d 55a6 d13b 231b a13d
00000040: dc07 dabd ad63 e63d 15f5 f13d 47eb bfbd
00000050: 4b76 e4bd 7e5a 16bd ec0d 9ebd b325 0a3d
00000060: 989a 623d 902d 85bc bc42 b43d 42ff a53b
00000070: f527 15bd c4d4 dabd 53f2 233d f7db f1bd
00000080: a41b d0b9 7c40 983c 1bd3 8ebd a6ba 193d
00000090: 1fad c93c 9a47 ab3d dab9 a03d 8fd6 cfbd
000000a0: 2a88 bebd f090 3abd e2d5 b8bd 332f 1f3d
000000b0: 8e63 a8bd 5924 c3bd 38b7 143d 9828 9b3d
000000c0: 439a 13bd 5f17 ffbd d134 933c c9bd 833d
000000d0: 719e c83d 619b 453c 2b08 b23d 4693 e5bd
000000e0: 613d f43d f2a2 a4bd 6611 aebd 6d5e b83d
000000f0: fb37 e6bc 6a4f 9d3d 13e8 b3bd df5a c23d
00000100: e874 f33d d554 1c3d b0da cd3d a86a b6bd
00000110: d6c5 e4bc 3e0e 1d3d ee54 913d 135a 89bd
00000120: e391 a33d abc8 29bd 894b 89bd 4bf1 ca3c
00000130: 6c92 ccbd d14a eabd 1a51 2b3d 3c0c 2d3d
00000140: f632 453d 20ba 83bc 0591 babd 4a4c cebd
00000150: a7a0 f53d 824f ddbd c999 1b3d f393 d03d
00000160: 1a3d c43d 1013 a2bd 58f4 24bd 5d07 ccbd
00000170: c23a a13d 3fd5 f0bd 6507 ebbd 4d93 abbd
00000180: be29 d03d a697 a63d 642e ac3d 88c1 c33d
00000190: 2877 6dbd ea81 8ebd 3790 9dbd 2ed2 293d
000001a0: a926 463d ff1c d73c 9b46 c4bd a091 303c
000001b0: 6a84 88bd b1e9 c8bc 40e0 9cbc 504c d63b
000001c0: 551e e0bd e32f db3d 2289 58bd ca38 213d
000001d0: fbe0 b03d 0eff 4d3d 57ac b23d baed 8f3d
000001e0: 3f12 bc3d 25bd da3c 2426 a43d 273a 5dbd
000001f0: 739c 8abd 76d5 753d 048c 053d 5dd7 8ebb
00000200: 0e9c d8bd 615e 263d 187d a63d 4d61 69bc
00000210: 0fec ed3c dbab 633d 647e fdbd 78e2 a5bc
00000220: 9a46 3fbd 8382 83bd d822 9d3d d229 fd3d
00000230: b219 a63c 5ea9 9e3d cb91 bebd 731a b73c
00000240: 2a5d 86bc af8a 9ebd 0a4a cf3c 7148 243d
00000250: 56b8 bbbb 391c 583d d785 743d 59df e83d
00000260: 61cf e23b 217c 9c3b ada2 f5ba 25fc 8f3c
00000270: 65a8 a6bd deaa 80bc 871c d9bd 06e5 b2bd
00000280: ed63 d9bd af33 bd3d abc7 93bd a5e7 1fbc
00000290: f2b2 553c 0eb9 e13d 5e52 693d 8be1 b6bd
000002a0: a50c fb3d 44d0 f1bd 7976 823c f547 e93d
000002b0: 75ab de3d bbe6 eabc ce81 abbd a37a 5f3d
000002c0: 98e4 c43d 4c24 89bd 20a5 a4bc d149 9cbd
000002d0: d63a 423d e19d dc3c 8014 7f3d b802 31bd
000002e0: 83c6 f7bd 47ca 57bd 398e c7bd db53 f9bc
000002f0: f167 3b3d 11a5 d5bd 5b75 c9bb 25cd f9bd
00000300: 54d2 b4bd e5e7 b3bd b6af 2fbd d461 82bd
00000310: a24e a03c 9127 9d3d acb5 c13d cfa0 223d
00000320: d5b2 96ba f3de b3bc ff25 ad3d 7242 93bd
00000330: 87b0 b93d 51dc f5bd b6b9 bfbd cd77 063d
00000340: a431 54bd 5a78 bc3c 3aba df3d 7bf0 6a3d
00000350: fb7b fa3d 883b 59bd 16d5 75bd 10a1 83bc
00000360: 4fde d0bc df8c 62bd 5389 03bc faeb e73d
00000370: a870 8cbd 3055 903d 15d5 6d3d 7c94 933d
00000380: 1677 0b3d bcf4 3bbd 9910 523d 12df 6fbd
00000390: 582e 9dbd fcc6 ef3d 2689 d33d 4baf b9bd
000003a0: 3043 cf3d 1e37 d43c 87e6 013d d262 f73d
000003b0: 326d ccbb 0719 24bd 2b52 a13d 9cee 02bd
000003c0: 401b f4bc 4e20 4dbd d752 fc3d c006 753d
000003d0: 1b4d a3bc 4aec 38bb 7046 113c d467 98bd
000003e0: 4d1c 103d 3121 c6bd aa74 b4bb 81b7 bdbc
000003f0: 8af5 51bd 1819 ec3d 50b7 103d 86e4 753d

base_model.model.model.layers.0.mlp.down_proj.lora_B.weight f4 [16, 8]
0.0004931649 0.00059540744 -0.0005984806 -0.00020718049 0.0005968476 -0.0005320273 0.0005442247 -0.0005989661
0.00056828285 -0.00030753698 0.00049987977 0.0005947635 1.4467399e-05 0.0005985582 0.0005968279 -0.0005161331
-0.0005973299 -0.00046491448 0.00050525594 -0.0004388208 -0.00059877755 -1.9950601e-05 0.0005976334 0.00059897616
-0.0005371136 0.0005991782 -0.000591332 -0.0004962159 0.00049398956 0.0005986731 -0.0005754112 -0.0005948951
-0.00012486095 0.00059725577 -0.0005849282 -0.00059415953 -0.00059205364 0.0005899586 -0.0005983352 0.0005084498
0.0005898581 0.00059967214 -0.0005626494 -0.00052805216 -0.0005970364 0.00019789132 0.0005997778 0.00059915206
-0.0005907299 -0.0002808133 0.0005991765 -0.00054511346 -3.6669877e-05 0.0003200159 0.0005039769 0.0005881284
0.00059445517 0.000598778 -0.0005632432 0.0001715655 -0.00058469427 -1.38649775e-05 -0.00045454263 0.00059870887
0.0005793219 0.0005985909 -0.0005916277 -6.6900706e-05 0.00023305394 0.00058616826 -0.00059927703 0.00051421934
4.736921e-05 0.000594878 -0.00057364145 0.00035382947 -0.00056909386 0.0005960055 -0.0005978356 -0.0005930963
-0.00057186716 -0.00055952655 -0.0005748849 -0.00047732997 0.0005947541 -0.00049833435 -0.0005999895 -0.0005983221
-0.00058245735 -0.00054682855 0.0005541665 -0.00059631426 -0.0005696537 -0.00059872866 -0.0005810764 0.00059165765
-0.00059633417 -0.00059842394 0.0005789351 -0.0005071231 0.00039948197 -0.00059106393 0.0005889814 -0.00045689184
0.00045944887 0.0005785196 -0.00054022216 0.0005902701 -0.0005537736 0.0005936572 0.00042194506 -0.0005954251
0.00048389027 0.00059754495 -0.00049000484 -0.000593582 -0.00058486284 0.00057597656 0.0005819256 0.0005942198
0.0005264556 -0.000357286 -0.00045700572 -9.902609e-05 -0.0005846984 0.0005946088 -0.000599938 0.0005315371
00000000: bc47 013a 1e15 1c3a 5ae3 1cba 973e 59b9
00000010: c475 1c3a bf77 0bba 4daa 0e3a ef03 1dba
00000020: d1f8 143a ea3c a1b9 5d0a 033a e7e9 1b3a
00000030: 01b9 7237 90e8 1c3a 7174 1c3a 1b4d 07ba
00000040: 2296 1cba c4bf f3b9 2773 043a 8811 e6b9
00000050: 48f7 1cba 975b a7b7 80aa 1c3a 9c04 1d3a
00000060: 15cd 0cba 2b12 1d3a 9e03 1bba 7c14 02ba
00000070: 147f 013a 46f0 1c3a 31d7 16ba bcf2 1bba
00000080: 1bed 02b9 2891 1c3a de55 19ba 5fc1 1bba
00000090: 0c34 1bba 74a7 1a3a 98d9 1cba 7d49 053a
000000a0: b5a0 1a3a 5133 1d3a c37e 13ba fb6c 0aba
000000b0: 6f82 1cba 0c81 4f39 683a 1d3a 6a10 1d3a
000000c0: 36db 1aba 203a 93b9 0e12 1d3a f2e5 0eba
000000d0: fbcd 19b8 cfc7 a739 511d 043a a12c 1a3a
000000e0: 36d5 1b3a 50f7 1c3a 9ca6 13ba 43e6 3339
000000f0: 2b46 19ba a09d 68b7 ae4f eeb9 acf2 1c3a
00000100: a2dd 173a c1ea 1c3a 7617 1bba 0b4d 8cb8
00000110: f15f 7439 16a9 193a cd18 1dba adcc 063a
00000120: 4dae 4638 96f1 1b3a 6d60 16ba 3082 b939
00000130: 3e2f 15ba 413d 1c3a 11b8 1cba 057a 1bba
00000140: 5be9 15ba 31ad 12ba dfb3 16ba 2542 fab9
00000150: 46e9 1b3a a7a2 02ba 9d48 1dba b7d8 1cba
00000160: 0db0 18ba 0b59 0fba 7c45 113a f951 1cba
00000170: d054 15ba 00f4 1cba 6153 18ba 7919 1b3a
00000180: 4f53 1cba 8ddf 1cba adc3 173a 75f0 04ba
00000190: 9071 d139 a1f1 1aba df65 1a3a fc8a efb9
000001a0: 2fe2 f039 cba7 173a b29d 0dba 5bbc 1a3a
000001b0: 1e2b 11ba a99f 1b3a 8238 dd39 4d16 1cba
000001c0: a7b2 fd39 90a4 1c3a ab73 00ba 9d9a 1bba
000001d0: 7b51 19ba 22fd 163a 5e8c 183a 6ac5 1b3a
000001e0: d601 0a3a 1d52 bbb9 459a efb9 3aac cfb8
000001f0: 7246 19ba 85df 1b3a 2845 1dba da56 0b3a

base_model.model.model.layers.0.mlp.gate_proj.lora_A.weight f4 [8, 16]
0.119736455 0.06858494 -0.09569812 0.15259735 -0.080662586 -0.008482249 -0.094906166 -0.2374697
0.040535174 0.07227595 -0.1261724 0.15342161 -0.22459088 -0.2413141 -0.15408549 -0.08607922
-0.028081954 -0.048639018 0.11377966 -0.2191909 0.037128635 0.0040071043 0.0657051 0.24884827
0.15418963 -0.13875422 -0.20519142 -0.060201235 -0.12573281 0.08732904 0.002619635 0.20140032
0.09852234 -0.046293817 0.008281746 0.059549302 -0.030693108 0.20140906 -0.19578968 0.122175604
-0.15905221 -0.21934395 -0.051649954 0.12215686 0.17696726 0.0630642 -0.021936037 -0.014344771
-0.10103925 -0.02248463 -0.016983235 0.21243677 0.14663841 -0.20037967 0.0007158016 -0.1534535
-0.04001186 -0.19861327 0.06532035 -0.18031994 0.24713367 0.18912919 -0.17241615 -0.2356923
0.009435054 -0.07011594 0.0730686 -0.16894612 0.10263541 -0.21626079 -0.13227409 -0.13109559
0.1213004 -0.006874225 -0.24058563 -0.14245458 -0.11602088 -0.23227903 0.032339085 0.089404486
-0.046190392 -0.099816985 -0.0018366863 -0.19841626 -0.15189959 -0.005890456 0.22176498 -0.07654732
0.12424402 -0.09871762 -0.06687909 -0.2376862 0.20679538 0.24375081 -0.004923574 0.15916114
0.20480457 0.124498256 0.12908223 -0.23832609 -0.23524463 -0.19200182 0.078508765 -0.21657209
-0.19115238 -0.12085867 -0.230741 0.00036752736 0.036187623 -0.14661431 0.16401693 -0.09489246
-0.07010664 0.190788 0.21496485 -0.028629847 -0.17979231 -0.12574151 0.032096386 0.14622045
0.12415599 -0.11025772 -0.23622769 -0.21877347 -0.07950211 0.003467879 -0.11261612 -0.19800396
00000000: 6338 f53d 4376 8c3d 60fd c3bd 7b42 1c3e
00000010: 6d32 a5bd 22f9 0abc 2a5e c2bd 422b 73be
00000020: 3608 263d 6a05 943d 5633 01be 8e1a 1d3e
00000030: 27fb 65be 0b1b 77be 96c8 1dbe 4d4a b0bd
00000040: 200c e6bc b539 47bd 4f05 e93d 9473 60be
00000050: 3214 183d 074e 833b 6590 863d 15d2 7e3e
00000060: e3e3 1d3e 9615 0ebe b31d 52be 9295 76bd
00000070: 1ac0 00be 91d9 b23d 2fae 2b3b e33b 4e3e
00000080: 15c6 c93d 969e 3dbd 29b0 073c f8e9 733d
00000090: 1d70 fbbc 2d3e 4e3e 177d 48be 3437 fa3d
000000a0: 95de 22be b39b 60be e78e 53bd 602d fa3d
000000b0: e836 353e ce27 813d 34b3 b3bc 5506 6bbc
000000c0: abed cebd b031 b8bc 6d20 8bbc 0689 593e
000000d0: 6128 163e 5430 4dbe a2a4 3b3a ea22 1dbe
000000e0: 7ae3 23bd 4761 4bbe adc6 853d caa5 38be
000000f0: 9c10 7d3e 15ab 413e dc8d 30be 5359 71be
00000100: 7c95 1a3c f298 8fbd fda4 953d 3600 2dbe
00000110: 8432 d23d 7873 5dbe dc72 07be ec3d 06be
00000120: 586c f83d 2e41 e1bb 145c 76be 9ddf 11be
00000130: 5b9c edbd 8eda 6dbe fd75 043d b319 b73d
00000140: 2332 3dbd d96c ccbd f7bc f0ba a22d 4bbe
00000150: 918b 1bbe ba04 c1bb 5c16 633e d7c4 9cbd
00000160: a673 fe3d 772c cabd e8f7 88bd 0364 73be
00000170: 2bc2 533e d099 793e ef55 a1bb 23fb 223e
00000180: 4ab8 513e f1f8 fe3d 222e 043e c10b 74be
00000190: f8e3 70be 209c 44be 34c9 a03d 13c5 5dbe
000001a0: 73bd 43be c084 f7bd 5e47 6cbe b0b0 c039
000001b0: 7939 143d 1022 16be 0ef4 273e fa56 c2bd
000001c0: 1294 8fbd ee5d 433e bf1f 5c3e 2489 eabc
000001d0: 7a1b 38be 62c2 00be 8077 033d d0ba 153e
000001e0: 7f45 fe3d cdce e1bd ace5 71be 2706 60be
000001f0: 01d2 a2bd 5b45 633b 48a3 e6bd 8dc1 4abe

base_model.model.model.layers.0.mlp.gate_proj.lora_B.weight f4 [64, 8]
0.0005786952 -0.00059416966 -0.0005752578 0.0005866433 -0.00058949227 -0.00047711906 0.0005776521 0.0005926901
0.00055882154 0.0005951008 -0.00056762464 0.00024514965 0.0005964299 -8.9739035e-05 0.00054045056 -6.6836175e-05
0.0005491159 -0.0005996536 -0.000569753 -0.0005581922 0.0005688233 -0.00045100023 0.0005599128 -0.00059765414
-0.0005938139 0.000592171 0.00059201615 0.0005981837 0.00050843385 0.00054254004 -0.0006003364 -0.00054789626
0.0001838209 0.000551054 0.000575554 0.0005840246 0.0005965229 0.0004724426 0.0005871007 0.0005993182
-0.00041500814 -0.00059596106 0.0005440419 0.0005658247 -0.00059747347 -0.0005422559 -0.0004368732 0.0005817306
0.0005982018 0.0005976248 -0.000119726785 -0.0002650282 0.00057718926 0.0005533723 0.00051318144 -0.0004519637
0.00017614772 0.00059808197 0.00059991924 0.0005611599 0.00056606176 0.0005573366 0.00057104893 0.0005766206
-0.0005836005 0.0005981558 -1.8456318e-05 -0.0005930288 0.0005937117 0.0006010004 -0.0005988099 0.00025210614
2.32484e-05 -0.00060006196 -0.0005893672 -0.0004901105 -0.000587981 -0.00045304382 -0.0005796881 -0.0005905393
-0.0006003955 0.0005819942 0.0005998238 0.0005997732 -0.00055663777 0.00057913817 -0.0006004035 -0.0005798061
0.00057459093 -0.0005870644 -0.00059890724 -0.00056690775 -0.0005858785 -0.0005650666 -0.0005887005 -0.0005658161
0.0005826452 -0.000541718 -0.0005498453 -0.0005931397 -0.00025826172 -0.00044615322 0.0005997855 0.0005924619
-0.000595204 -0.00059988623 0.000599533 0.0005971107 -0.00059663836 0.00042305476 -0.0005890127 3.2313237e-05
-0.0005994685 0.00059851166 0.0005980908 0.00059753266 0.00047702342 0.0005060465 -0.00060084445 -0.0005926162
-0.0005928598 4.248418e-05 0.00059033534 0.0005979878 -0.00059929263 0.0004385242 -0.0005951047 0.0004974035
-0.0005715486 -2.6133634e-05 -0.00047460425 -0.0005972177 -0.0005527105 0.0004184125 -0.0005896792 -0.00059028587
-0.00045539078 -0.0005977655 0.0005772155 0.0005814143 -0.0005960703 -0.00059774565 -0.0005601915 -0.00048155614
0.00031609682 0.0005988125 -0.00039135298 -0.00059586664 0.00058834197 0.0005583427 0.0005937005 -7.6956545e-05
0.00044080807 7.00214e-05 0.00055470655 -0.00058479945 -0.0005721259 -0.0003533097 0.00035682722 -0.0005574175
-0.00057873985 0.0005986397 0.00058231555 -0.00037783984 0.0005959973 0.00058339426 -0.00057300343 -0.00058705045
-0.00043881423 -0.000595046 0.00051031966 0.0005843204 -0.00059727504 -0.00018310235 0.0005959648 0.00058830634
-0.0005983394 0.0005968335 0.000590037 -0.0004659871 0.000599646 0.0003926097 -0.0005974321 -0.00059183384
-0.000570078 0.00059633557 0.0005106387 -0.00054527173 0.00059711374 0.0005994517 -3.248592e-05 -0.0005994479
0.00059033895 -0.0005943001 -0.00055376894 -0.0004923751 0.00058978546 0.0001611537 0.00049157714 0.00055675587
0.00027398675 0.0005221309 -0.0001475648 -0.0005978388 0.0004775912 5.1014016e-05 0.0005954433 -0.0005529402
0.0005395044 -0.0005597816 -0.0005719472 -0.00059937424 -0.00048968854 -0.00057737186 -0.0005106847 -0.0005963208
0.00030527616 0.00059898634 0.0005381596 -0.0005750752 0.00059806544 0.00025162302 -0.00059384276 -0.000563694
0.0005321857 0.0005555955 -0.0004575927 -0.00059006846 0.00053192425 5.318471e-05 0.0005743939 -0.0005853958
0.00040591348 -0.0005701436 -0.0005721901 0.00022428407 0.000529365 0.00017856859 -0.0005963222 3.5074212e-05
0.00053981924 0.00040886743 7.596208e-05 0.0005911102 -0.00057706825 0.00014197847 -6.886445e-05 0.0005937009
-0.00017297434 0.00058633205 -0.0005523126 -0.0005625807 0.0005946051 0.00032819182 -0.00059684773 -0.00059561006
00000000: 94b3 173a 0dc2 1bba e6cc 16ba f7c8 193a
00000010: 2888 1aba d625 fab9 946d 173a c25e 1b3a
00000020: e17d 123a 8a00 1c3a a5cc 14ba 6e87 8039
00000030: bc59 1c3a 4732 bcb8 06ad 0d3a 662a 8cb8
00000040: 8bf2 0f3a 1232 1dba 7a5b 15ba a553 12ba
00000050: 161d 153a 3a74 ecb9 1dc7 123a e4ab 1cba
00000060: 2daa 1bba ec3b 1b3a 8831 1b3a 6ecf 1c3a
00000070: 6b48 053a 3f39 0e3a e55f 1dba b2a0 0fba
00000080: 0cc0 4039 9c74 103a c6e0 163a 3a19 193a
00000090: f95f 1c3a 2cb2 f739 a9e7 193a 901b 1d3a
000000a0: 7395 d9b9 453a 1cba 099e 0e3a da53 143a
000000b0: c49f 1cba 2d26 0eba 210c e5b9 487f 183a
000000c0: a5d0 1c3a eca9 1c3a d415 fbb8 7cf3 8ab9
000000d0: 844e 173a 3010 113a 0687 063a 8af5 ecb9
000000e0: 4bb4 3839 9ac8 1c3a e643 1d3a ce1a 133a
000000f0: c363 143a 3a1a 123a 72b2 153a 5a28 173a
00000100: c4fc 18ba 8ecd 1c3a a4d2 9ab7 7d75 1bba
00000110: 51a3 1b3a 748c 1d3a 74f9 1cba 1d2d 8439
00000120: 8f05 c337 7a4d 1dba c37f 1aba c27a 00ba
00000130: bd22 1aba 8386 edb9 36f6 17ba 6cce 1aba
00000140: dc63 1dba f890 183a 7e3d 1d3a 193a 1d3a
00000150: 54eb 11ba 4ed1 173a 6664 1dba 21fe 17ba
00000160: 25a0 163a 3ae5 19ba fcff 1cba 899c 14ba
00000170: a495 19ba fa20 14ba 0653 1aba 4753 14ba
00000180: a8bc 183a 1402 0eba 7e23 10ba ee7c 1bba
00000190: 4d67 87b9 ace9 e9b9 ec3a 1d3a 724f 1b3a
000001a0: 7707 1cba af41 1dba fb29 1d3a 6c87 1c3a
000001b0: b967 1cba 73cd dd39 f967 1aba 1388 0738
000001c0: a625 1dba 70e5 1c3a 32c9 1c3a bda3 1c3a
000001d0: 0019 fa39 35a8 043a fd81 1dba cd59 1bba
000001e0: 266a 1bba 0a31 3238 bcc0 1a3a 48c2 1c3a
000001f0: d919 1dba b9e9 e539 cd00 1cba 2f64 023a
00000200: fad3 15ba 8d39 dbb7 4ed4 f8b9 9a8e 1cba
00000210: c6e3 10ba 605e db39 b494 1aba 6abd 1aba
00000220: 84c1 eeb9 5db3 1cba 4750 173a 0e6a 183a
00000230: 9a41 1cba 08b2 1cba d1d9 12ba 5f79 fcb9
00000240: ccb9 a539 a0f9 1c3a 822e cdb9 ef33 1cba
00000250: f63a 1a3a bf5d 123a 91a2 1b3a bb63 a1b8
00000260: 421c e739 74d8 9238 ba69 113a 3a4d 19ba
00000270: b8fa 15ba 6d3c b9b9 8a14 bb39 a81f 12ba
00000280: 93b6 17ba 08ee 1c3a 89a6 183a ce18 c6b9
00000290: b43c 1c3a edee 183a 9c35 16ba 4ae4 19ba
000002a0: a610 e6b9 dcfc 1bba f9c6 053a 142d 193a
000002b0: 7392 1cba 2aff 3fb9 853a 1c3a 9238 1a3a
000002c0: e1d9 1cba d174 1c3a b6ac 1a3a bb4f f4b9
000002d0: 9031 1d3a 2fd7 cd39 fd9c 1cba 4c25 1bba
000002e0: 4971 15ba 6753 1c3a 62dc 053a 91f0 0eba
000002f0: a087 1c3a 8624 1d3a 7e41 08b8 4524 1dba
00000300: fac0 1a3a ceca 1bba ce2a 11ba bc12 01ba
00000310: d59b 1a3a 5efb 2839 2fdd 003a 41f3 113a
00000320: e1a5 8f39 9ddf 083a a0bb 1ab9 48b8 1cba
00000330: 3565 fa39 e2f7 5538 8617 1c3a 30f3 10ba
00000340: 876d 0d3a 4fbe 12ba baee 15ba 531f 1dba
00000350: 715e 00ba c55a 17ba 78df 05ba 6952 1cba
00000360: 790d a039 4b05 1d3a 4813 0d3a a5c0 16ba
00000370: 7ec7 1c3a 45ec 8339 1dac 1bba ddc4 13ba
00000380: 6182 0b3a 62a5 113a 0de9 efb9 d3ae 1aba
00000390: d570 0b3a a612 5f38 ec92 163a 3f75 19ba
000003a0: c9d0 d439 b075 15ba 07ff 15ba cc2d 6b39
000003b0: 15c5 0a3a 243e 3b39 8152 1cba a61c 1338
000003c0: a882 0d3a 425d d639 d54d 9f38 bcf4 1a3a
000003d0: 6546 17ba 0ee0 1439 526b 90b8 98a2 1b3a
000003e0: 7260 35b9 14b4 193a 12c9 10ba 277a 13ba
000003f0: 46df 1b3a 2911 ac39 c675 1cba b722 1cba

base_model.model.model.layers.0.mlp.up_proj.lora_A.weight f4 [8, 16]
0.20002009 0.01577953 -0.019710056 0.19475782 0.10991668 0.23667148 0.20228174 -0.16425359
0.15460953 0.12632497 -0.1778307 0.12039686 -0.13018243 -0.14926204 0.004992492 -0.030394841
-0.067016065 -0.16362567 0.13708779 0.24894133 -0.0550717 -0.1685224 -0.01257666 -0.21753219
-0.2033415 -0.08295429 0.1574039 -0.19185206 -0.03957677 -0.12995747 -0.23052256 -0.056598406
-0.014284502 -0.041711293 0.18311295 0.09981215 0.1559725 0.09824657 0.026536748 0.13536794
-0.15981229 0.12770845 0.119404405 -0.10642646 -0.008263093 -0.1894035 -0.21908902 -0.00059241237
0.0450919 -0.05360161 0.077566445 -0.1933281 -0.1377504 0.17287362 -0.24360168 0.038984295
0.19214666 0.18774606 0.085604094 -0.22804819 0.032500565 -0.08820663 -0.070602246 0.19186793
-0.085290566 -0.17871998 -0.20100641 0.15817419 0.0117336735 0.247244 0.051452953 -0.23328412
0.06187628 0.22907907 0.15474892 0.075320385 -0.1881543 -0.15023273 0.17007776 -0.1668372
0.05734589 -0.031704463 0.08409824 0.016677937 -0.19074401 -0.099970125 0.21831888 0.029103076
0.12683037 -0.12640011 0.1982349 -0.0531849 -0.08422309 0.05104266 -0.089893036 -0.10079118
-0.036103163 -0.014588085 -0.14249161 0.08577942 -0.24262285 0.15317015 0.23218969 0.040766235
-0.05808613 -0.22927773 0.117072634 0.20517138 0.21340568 0.02197208 0.083442524 0.23987952
0.037498627 -0.12086384 -0.23768479 0.10898487 0.097712554 0.2224961 -0.12760384 0.10770805
-0.08303982 -0.061847486 0.14619875 -0.22949629 0.18460952 0.116580844 -0.14890955 0.1272481
00000000: 11d2 4c3e 1344 813c fc76 a1bc 986e 473e
00000010: ff1b e13d 025a 723e f222 4f3e 1832 28be
00000020: f651 1e3e 555b 013e 4019 36be a192 f63d
00000030: 8b4e 05be 26d8 18be 0f98 a33b 9afe f8bc
00000040: b83f 89bd 7d8d 27be be60 0c3e 7aea 7e3e
00000050: dd92 61bd 2391 2cbe 560e 4ebc c2c0 5ebe
00000060: c138 50be f0e3 a9bd 7d2e 213e de74 44be
00000070: 401b 22bd 9213 05be 1b0e 6cbe bbd3 67bd
00000080: 8b09 6abc 76d9 2abd f681 3b3e 506a cc3d
00000090: 41b7 1f3e 7f35 c93d 9863 d93c e59d 0a3e
000000a0: d5a5 23be 01c6 023e 4c8a f43d 1ef6 d9bd
000000b0: ed61 07bc fef2 41be df58 60be 1f4c 1bba
000000c0: 49b2 383d 5d8d 5bbd 28db 9e3d cdf7 45be
000000d0: 710e 0dbe c805 313e b872 79be ffad 1f3d
000000e0: 18c2 443e 8140 403e 3351 af3d 7785 69be
000000f0: 501f 053d ada5 b4bd e997 90bd 0779 443e
00000100: d2ac aebd 5f02 37be a0d4 4dbe 6af8 213e
00000110: 983e 403c 882d 7d3e 55c0 523d 08e2 6ebe
00000120: fb71 7d3d b493 6a3e 8076 1e3e 9341 9a3d
00000130: 85ab 40be 9cd6 19be dd28 2e3e 5fd7 2abe
00000140: 86e3 6a3d 8adc 01bd b33b ac3d 2ba0 883c
00000150: 6652 43be 23bd ccbd fc8e 5f3e 9369 ee3c
00000160: d2df 013e 086f 01be 17fe 4a3e 69d8 59bd
00000170: 287d acbd 1c12 513d d719 b8bd 9b6b cebd
00000180: e9e0 13bd dd02 6fbc 52e9 11be 1fad af3d
00000190: 2072 78be a3d8 1c3e 22c3 6d3e 7ffa 263d
000001a0: b9eb 6dbd c8c7 6abe c7c3 ef3d 7218 523e
000001b0: 0587 5a3e cbfe b33c eae3 aa3d faa2 753e
000001c0: 2998 193d 7687 f7bd a463 73be 7633 df3d
000001d0: 851d c83d 05d6 633e 95aa 02be 0a96 dc3d
000001e0: c810 aabd ca53 7dbd 20b5 153e 1301 6bbe
000001f0: 470a 3d3e f0c1 ee3d bf7b 18be 534d 023e

base_model.model.model.layers.0.mlp.up_proj.lora_B.weight f4 [64, 8]
4.2574804e-05 0.00060036965 6.354058e-05 -0.00057884405 0.0004092172 0.0005994019 -0.00058231805 -0.0005944332
-0.0005979449 -0.00059764314 -0.0006009203 -0.0005238666 0.0005571374 0.0005134094 0.00059881277 0.00058702624
0.00059861783 -0.0005826276 -0.00059704843 -0.00059293536 -0.00011881758 -0.0005685775 0.0005876461 -0.0005879446
-0.00051623 0.0005942877 0.00046504656 2.6255348e-06 8.745385e-05 0.0005989621 -0.0005830281 -0.00059673516
-0.00052866095 0.0005718318 0.00059837924 0.00059561414 0.0005818642 -0.0006007242 -0.00046966004 0.00057001633
0.0004444487 -0.0005949806 -0.00059369253 8.851874e-05 -3.2997843e-05 -0.0005944193 0.00055620115 0.00059206574
0.0005954716 -0.0005581557 -0.00059553183 -0.0005979222 0.00059571606 0.0006003662 0.00059393037 -0.0005990236
-0.000588941 0.00056167593 0.0005837211 0.0005898406 0.0005514638 -0.0005997712 -0.0005862145 0.0006008233
0.00059834897 0.000596669 0.0005862286 -0.00059956993 0.0005918485 0.0005363624 0.0005770719 -0.00059763173
-0.00030506827 0.00059876736 0.0005982056 0.00057207263 -0.0005049671 0.0005919851 -0.00057958125 0.00059452414
0.0005956442 -6.224369e-05 -0.0005676779 -0.0005917531 0.00060030137 0.0005942944 0.00057113 -0.0005999319
-0.00027501988 -0.0005976703 -0.0005771445 0.00057307625 0.0005942249 -0.00060053595 0.0005896796 0.0005911179
0.0005915781 -0.0005688846 -0.0005903044 -0.00059318147 0.0005991654 -0.00058018515 0.000574374 -0.0006008838
-0.0005962726 0.00059142796 0.00045790774 -0.00057145994 -0.0004101622 -0.0005985385 -0.0005983805 0.0005952048
-0.00056045124 -0.0005987514 -0.00058615766 3.517582e-05 -0.00030130392 -0.0005982212 0.0005806405 -0.0005224766
0.0005998571 -0.0005942919 -0.0005952432 -0.00059119 0.000596565 -0.00059564406 0.00059626147 -0.000597476
0.0005944492 0.0005775728 0.0005987832 0.00058300036 0.00059059577 -0.0005820411 -0.00034239568 -0.00058888854
0.000436065 0.00059884356 0.00059992465 -0.00059568195 0.00057746295 0.00059625454 -0.00059622666 0.0005978854
0.00059718813 -0.00057951605 -0.00059085304 -0.0005206149 0.00059438194 0.0005739601 0.0005929209 -0.0005992339
0.0005905415 -0.00059047196 7.902441e-05 3.1506738e-06 0.0005813838 -0.0005679164 0.00058406516 -0.00056063745
0.0005885132 0.0005671119 0.00059066416 0.00051089656 0.00057987357 0.0005910528 -0.00052852125 0.0005913719
0.0005823056 0.00028298568 0.00057291024 -0.0005882275 -0.00056761276 0.0005836376 0.0005778115 -0.0006005322
0.00059634954 0.0005572933 0.0005815148 0.0005994842 0.0005981806 -0.0005992486 -0.00023008809 -0.0005231408
-0.0005570152 0.00060092314 0.00058726384 0.00057582854 0.0005404054 0.0004359536 -0.0005986958 0.00059968646
-0.0005487506 0.00059317995 0.0005796683 -0.00055648066 0.0005456709 0.0006000437 -0.000557057 0.0006004546
-0.00059775036 -0.00017156012 -0.0005847141 -0.0005926201 -0.00046189356 -0.0005973332 0.0005406433 -0.000116332885
0.00059626123 0.00059379474 0.0005907117 -0.0005708136 0.00057431695 0.000580847 -0.00052522455 -0.0005941647
0.00043936088 0.0006000498 0.0005969438 -0.00059580593 -0.00059897994 0.0005998085 -0.00058461906 -0.00053214416
0.00059731194 -0.00058435876 -0.00045665784 0.00059586286 0.0005876449 0.00057847355 0.0005985796 -0.00059852365
0.0005961787 -0.0005931344 -0.000594633 -0.0005993633 0.0005952995 -0.00058088166 0.00059673935 -0.0005972354
0.00059312535 -0.0005932062 -0.00060085976 -0.0005910304 -0.00034645616 -0.00018754383 0.000588273 -0.0005854864
0.0005982149 -0.00049384864 -0.0005971197 -0.0005761133 0.0005901941 0.0005857366 0.0005879409 -0.0005986979
00000000: 5992 3238 2062 1d3a 1741 8538 91bd 17ba
00000010: 348c d639 2e21 1d3a b4a6 18ba bdd3 1bba
00000020: 67bf 1cba 27ab 1cba 1487 1dba 1854 09ba
00000030: dc0c 123a 5296 063a a5f9 1c3a aae2 193a
00000040: 90ec 1c3a 7abb 18ba 3e83 1cba 386f 1bba
00000050: b42d f9b8 970c 15ba 430c 1a3a 4b20 1aba
00000060: 9c53 07ba f9c9 1b3a 7ed1 f339 5832 3036
00000070: 6e67 b738 ab03 1d3a 5ad6 18ba 386e 1cba
00000080: d695 0aba fce6 153a 8ddc 1c3a fd22 1c3a
00000090: 3f88 183a eb79 1dba b43c f6b9 266d 153a
000000a0: e504 e939 79f8 1bba 08a2 1bba 23a3 b938
000000b0: 2a67 0ab8 ced2 1bba 07ce 113a dc34 1b3a
000000c0: 6c19 1c3a 3251 12ba 771d 1cba e1bd 1cba
000000d0: d429 1c3a e561 1d3a feb1 1b3a cb07 1dba
000000e0: 2963 1aba 6f3d 133a dc04 193a 889f 1a3a
000000f0: 1c90 103a f739 1dba 30ac 19ba 9280 1d3a
00000100: 85da 1c3a c769 1c3a 23ad 193a 752c 1dba
00000110: 4826 1b3a ac9a 0c3a a446 173a 63aa 1cba
00000120: 92f1 9fb9 99f6 1c3a e6d0 1c3a 25f7 153a
00000130: c55f 04ba 732f 1b3a 0aef 17ba d7d9 1b3a
00000140: 0125 1c3a d488 82b8 38d0 14ba e11f 1bba
00000150: 8b5d 1d3a 6cca 1b3a e3b7 153a c044 1dba
00000160: 8b30 90b9 faac 1cba 834b 17ba 7f3a 163a
00000170: c2c5 1b3a 496d 1dba ba94 1a3a 40f5 1a3a
00000180: 2214 1b3a 3321 15ba a8be 1aba bc7f 1bba
00000190: 4f11 1d3a 9117 18ba 9691 163a a184 1dba
000001a0: 2d4f 1cba 0f0a 1b3a 5613 f039 07ce 15ba
000001b0: 0a0b d7b9 3de7 1cba a3dc 1cba 8507 1c3a
000001c0: 3feb 12ba 87f5 1cba 60a8 19ba c089 1338
000001d0: 54f8 9db9 f2d1 1cba 2036 183a d0f6 08ba
000001e0: bb3f 1d3a 41ca 1bba 180a 1cba 17fa 1aba
000001f0: cd62 1c3a ff24 1cba 6e4e 1c3a f09f 1cba
00000200: cfd4 1b3a 4168 173a a9f7 1c3a 7ed4 183a
00000210: 36d2 1a3a 1e94 18ba 9283 b3b9 a45f 1aba
00000220: a79f e439 b6fb 1c3a 4344 1d3a 8a27 1cba
00000230: e260 173a f74d 1c3a 184c 1cba 69bb 1c3a
00000240: 9e8c 1c3a aaea 17ba 7ae3 1aba e079 08ba
00000250: 4cd0 1b3a cf75 163a 3f6e 1b3a e815 1dba
00000260: 92ce 1a3a e7c9 1aba e8b9 a538 2a70 5336
00000270: 0268 183a 39e0 14ba f31b 193a bef7 12ba
00000280: 7446 1a3a 3caa 143a cdd6 1a3a b0ed 053a
00000290: a802 183a e2f0 1a3a 768c 0aba 4c06 1b3a
000002a0: dea5 183a b25d 9439 5b2f 163a 4833 1aba
000002b0: d9cb 14ba 42ff 183a 4678 173a 096d 1dba
000002c0: 5754 1c3a 5217 123a cc70 183a b426 1d3a
000002d0: 38cf 1c3a e516 1dba cd43 71b9 6323 09ba
000002e0: a804 12ba 4587 1d3a 9cf2 193a 33f3 163a
000002f0: fea9 0d3a b490 e439 ccf1 1cba 4734 1d3a
00000300: 08da 0fba a27f 1b3a e2f4 173a c9e0 11ba
00000310: 5b0b 0f3a 404c 1d3a 7607 12ba d367 1d3a
00000320: 59b2 1cba d2e4 33b9 8047 19ba 105a 1bba
00000330: 4e2a f2b9 5a96 1cba f5b9 0d3a bef7 f3b8
00000340: 6a4e 1c3a e4a8 1b3a fed9 1a3a a7a2 15ba
00000350: c28d 163a fb43 183a 39af 09ba b8c1 1bba
00000360: 055a e639 a94c 1d3a 387c 1c3a dc2f 1cba
00000370: dd04 1dba 783c 1d3a 1f41 19ba 977f 0bba
00000380: ed94 1c3a a72f 19ba 946b efb9 ae33 1c3a
00000390: 2f0c 1a3a b4a4 173a ffe9 1c3a 3ee6 1cba
000003a0: e048 1c3a 937c 1bba 25e1 1bba 971e 1dba
000003b0: e00d 1c3a 4f46 18ba 806e 1c3a ca8f 1cba
000003c0: f87b 1b3a 6581 1bba 0483 1dba 61ef 1aba
000003d0: 8fa4 b5b9 6aa7 44b9 5536 1a3a 547b 19ba
000003e0: 86d1 1c3a 9f75 01ba 0688 1cba 4f06 17ba
000003f0: 41b7 1a3a 1e8c 193a 0c20 1a3a f0f1 1cba

base_model.model.model.layers.0.self_attn.k_proj.lora_A.weight f4 [8, 16]
0.05074339 -0.2345362 0.21802299 0.15700625 -0.2445614 -0.119691536 0.08126761 -0.05166518
-0.026963744 -0.11319464 0.20055214 -0.14001845 0.20702861 0.016445555 0.050548512 0.194743
-0.040921774 -0.1420391 -0.04044783 0.2027701 -0.18567061 0.057043355 -0.24591886 0.13134345
0.09253795 0.010883203 0.10750653 0.0005033239 0.1386101 -0.19818436 -0.03685061 0.11118541
0.24910913 0.12704882 -0.18155532 0.19254847 -0.055491116 -0.053616356 -0.22745998 -0.039272577
0.17711489 0.03456486 -0.14565687 0.07722337 -0.08040633 0.22855823 -0.21727145 -0.07926853
-0.2411186 -0.09814558 0.079085924 0.24091752 0.04210161 0.2453727 0.04919814 0.1446708
0.20065507 0.20928822 -0.13968673 0.23014669 0.15168619 -0.11718881 -0.11959735 -0.2094318
0.06297995 -0.20290874 0.10579467 0.07921456 -0.21696492 0.06826283 -0.020580987 0.11427852
0.14374097 -0.2488248 0.22920987 0.20989394 0.099361576 -0.22818251 -0.08955405 -0.07273829
-0.06448506 0.14081106 0.09068524 0.19783245 -0.09385072 0.084323466 0.088738866 -0.2084341
-0.24264993 -0.12993659 0.17118886 -0.23565231 -0.21768938 0.14011219 0.1351699 0.20576485
-0.18900684 -0.1832901 0.12805706 0.2176517 0.14984085 0.038869392 0.08216058 0.2369864
-0.16101904 -0.11381621 0.17464055 -0.17124231 -0.13814549 0.18281336 0.079139955 0.080468334
-0.10624344 -0.0037664375 0.2285516 -0.1501454 0.002136338 0.118603386 -0.17284898 0.24249965
-0.124637164 -0.060345892 -0.06790534 -0.1631791 -0.24560551 0.14127374 0.06671213 -0.23443161
00000000: 4dd8 4f3d 422a 70be 6b41 5f3e 3fc6 203e
00000010: 4e6e 7abe d620 f5bd a26f a63d de9e 53bd
00000020: 12e3 dcbc 97d2 e7bd 8a5d 4d3e ff60 0fbe
00000030: 4fff 533e d4b8 863c f50b 4f3d b66a 473e
00000040: 979d 27bd b372 11be a0ac 25bd f7a2 4f3e
00000050: 7020 3ebe 4ba6 693d 27d2 7bbe e67e 063e
00000060: 8984 bd3d 764f 323c 622c dc3d 7ff1 033a
00000070: ceef 0d3e d7f0 4abe aaf0 16bd 2db5 e33d
00000080: 7716 7f3e 1619 023e a3e9 39be 6d2b 453e
00000090: a74a 63bd d39c 5bbd 45eb 68be 48dc 20bd
000000a0: 9b5d 353e e293 0d3d 1327 15be 4927 9e3d
000000b0: 13ac a4bd 2b0b 6a3e 687c 5ebe 8a57 a2bd
000000c0: cbe7 76be 8d00 c9bd cdf7 a13d 15b3 763e
000000d0: bd72 2c3d fb42 7b3e fd83 493d 9524 143e
000000e0: 8678 4d3e a74f 563e 0a0a 0fbe 93ab 6b3e
000000f0: a053 1b3e b000 f0bd 75ef f4bd 4a75 56be
00000100: a2fb 803d 4fc7 4fbe e0aa d83d 3e3b a23d
00000110: 0d2c 5ebe 62cd 8b3d 7599 a8bc db0a ea3d
00000120: d530 133e eecb 7ebe feb5 6a3e 70ee 563e
00000130: 157e cb3d ada8 69be 1d68 b7bd d0f7 94bd
00000140: be10 84bd c630 103e 2fb9 b93d 9794 4a3e
00000150: ce34 c0bd c8b1 ac3d b9bc b53d c06f 55be
00000160: 3979 78be 190e 05be 224c 2f3e d74e 71be
00000170: f7e9 5ebe 9279 0f3e fa69 0a3e 05b4 523e
00000180: 028b 41be 66b0 3bbe 6421 033e 16e0 5e3e
00000190: e16f 193e 8335 1f3d ce43 a83d 90ac 723e
000001a0: 2de2 24be 7918 e9bd f9d4 323e 255a 2fbe
000001b0: 0376 0dbe 6d33 3b3e 2114 a23d 95cc a43d
000001c0: 2996 d9bd 56d6 76bb 6e09 6a3e b7bf 19be
000001d0: ce01 0c3b 55e6 f23d 53ff 30be d451 783e
000001e0: c541 ffbd 412d 77bd f411 8bbd 6c18 27be
000001f0: 0380 7bbe 10aa 103e 5fa0 883d d70e 70be

base_model.model.model.layers.0.self_attn.k_proj.lora_B.weight f4 [16, 8]
-0.0005627794 1.9492938e-05 -0.00053916016 0.0005836094 -0.00049538625 9.799809e-05 -0.00059771334 -0.00059462513
0.0005980705 -0.00057238736 0.0005807024 -0.00057914836 0.0005863435 -0.00056791864 0.0005936034 0.000590311
0.00059546 -0.0006006274 -0.000502899 -0.000592439 0.00012812475 0.0005936965 0.00059860654 0.00059767097
-0.0005995183 0.0005683397 -7.709674e-05 0.00055967655 -9.41598e-05 0.00015779241 -0.000594203 -0.00058920746
-0.00053415284 0.0005845288 0.00020285511 0.000596832 0.00058051484 -0.00059669605 -0.00059371936 -0.0005935397
0.000467737 -0.00058319897 0.0005864993 -0.0005549671 0.0005420825 0.00058460026 0.0005951947 0.0005494908
3.2327982e-05 0.0005888179 -0.00059765944 -0.0005922413 -0.00056466524 0.0005893797 -0.0005271795 -0.0003050036
0.00055027945 -0.0005994325 0.00059647404 -0.0005871454 0.00044487973 0.0005246885 0.0005930966 0.0005996225
-0.00048244995 -0.00029447625 -0.0005943503 0.00058834377 -0.00045353002 9.57753e-05 -0.000596095 -0.00060025934
-0.0003145003 0.0005827407 0.00022438061 0.000598682 0.000582449 -0.000547048 -0.0005463016 -0.00033765627
0.00059805193 -0.00057010597 -0.0005991637 -0.00059580104 -0.00011311938 0.00059690414 0.0005996612 0.00057376514
-0.0005994926 -0.0002488072 -0.0005906473 -0.000389199 -0.0005738377 0.00046563378 -0.0005994331 -0.0005892435
-0.00052173936 -0.00026124401 -0.0005799829 -0.0005866425 -0.0005796557 -0.0005482884 -0.0005867013 0.00024085719
-0.0005374419 0.00054645544 0.0005854579 0.00055311224 0.00050381117 -0.00058380235 -0.00050257146 3.6282509e-06
0.00052754546 0.0005680202 -0.00040330307 -0.0005969473 0.0003546955 0.00054705533 -0.00055731996 -0.00045320656
-0.00052289997 -0.00053487485 0.0005875617 0.0005953231 0.0005440451 -0.00059924653 0.00040379123 -0.00056540605
00000000: 7c87 13ba c484 a337 6d56 0dba 5dfd 183a
00000010: cfdc 01ba 5384 cd38 ddaf 1cba 9ee0 1bba
00000020: d5c7 1c3a 440c 16ba 473a 183a fdd1 17ba
00000030: d9b4 193a 60e0 14ba 0d9c 1b3a 1abf 1a3a
00000040: a518 1c3a 6c73 1dba fbd4 03ba e94d 1bba
00000050: 3a59 0639 4ca2 1b3a ceeb 1c3a 05ad 1c3a
00000060: fe28 1dba a2fc 143a ffae a1b8 42b7 123a
00000070: a877 c5b8 1475 2539 4ac4 1bba 0b75 1aba
00000080: 6406 0cba 103b 193a 81b5 5439 b874 1c3a
00000090: b12d 183a 986b 1cba d5a3 1bba c697 1bba
000000a0: 993a f539 d2e1 18ba 4dbf 193a 367b 11ba
000000b0: 8a1a 0e3a dc3f 193a d706 1c3a b40b 103a
000000c0: e897 0738 e65a 1a3a 3fac 1cba a440 1bba
000000d0: 0b06 14ba 9a80 1a3a 6b32 0aba e4e8 9fb9
000000e0: a140 103a 3c23 1dba b25c 1c3a a9ea 19ba
000000f0: bf3e e939 408b 093a 0a7a 1b3a fc2f 1d3a
00000100: 56f1 fcb9 ef63 9ab9 2cce 1bba 153b 1a3a
00000110: c5c7 edb9 f9da c838 4243 1cba b95a 1dba
00000120: 84e3 a4b9 11c3 183a b647 6b39 def0 1c3a
00000130: 7eaf 183a c567 0fba ae35 0fba 7507 b1b9
00000140: 96c6 1c3a 2a73 15ba 3211 1dba 882f 1cba
00000150: 813a edb8 8f79 1c3a 9532 1d3a ba68 163a
00000160: 4427 1dba 5672 82b9 abd5 1aba 680d ccb9
00000170: 996d 16ba 4f20 f439 4623 1dba 7677 1aba
00000180: 56c5 08ba 94f7 88b9 fe09 18ba e9c8 19ba
00000190: 09f4 17ba 03bb 0fba dccc 19ba 9c8e 7c39
000001a0: 1ee3 0cba 0140 0f3a 6a79 193a bcfe 103a
000001b0: 3212 043a 500a 19ba 00bf 03ba e07c 7336
000001c0: fa4a 0a3a 31e7 143a 6c72 d3b9 757c 1cba
000001d0: 6df6 b939 4368 0f3a 1c19 12ba 5b9c edb9
000001e0: 3913 09ba d836 0cba 9906 1a3a 750f 1c3a
000001f0: 409e 0e3a c116 1dba f1b3 d339 c237 14ba

base_model.model.model.layers.0.self_attn.o_proj.lora_A.weight f4 [8, 16]
-0.13768394 0.012330106 -0.03540967 0.071830116 0.011619799 -0.12517089 -0.08595633 -0.0025850935
-0.15600203 0.019896995 -0.017323658 0.09666596 0.059494708 0.18742035 -0.008563314 -0.18505484
0.112065054 -0.1686299 -0.0346895 -0.080620155 -0.09454326 -0.09282786 0.22951674 0.143413
0.069318675 0.23506771 -0.22622524 0.04001405 0.16037272 0.16639899 -0.19929288 0.08864256
-0.14210114 -0.010086826 -0.052489378 -0.20841052 -0.23815227 -0.16447087 0.11369752 0.11465224
-0.21748815 -0.093556195 0.004412697 -0.21647464 0.14119145 0.22675253 0.04427879 -0.18608192
0.058362477 0.09044046 0.19828114 -0.13270463 -0.22367331 0.11014573 0.015723009 -0.08125907
-0.10478103 -0.1285791 0.20239358 -0.043427795 0.18063386 0.22341934 0.031539563 0.05292223
-0.01669726 0.17200044 -0.22560214 0.099750064 -0.04074893 0.11382799 -0.00078163005 -0.09223534
-0.027112545 0.13531911 -0.1733072 -0.15835668 -0.055675417 -0.09066849 0.09798141 0.16830619
-0.02683195 0.23671223 -0.104784705 -0.14061846 -0.112244844 -0.17256811 -0.17554303 -0.22300489
-0.22125615 0.06557108 0.15278873 0.23502399 0.21325779 -0.014073226 0.048182823 -0.14928792
0.09694994 -0.23949757 0.11758934 0.046183687 0.07714189 0.091261156 -0.11459954 0.21481586
0.11928719 0.16455568 0.03335144 0.15666808 0.16858003 0.1136372 0.1901309 -0.045673218
0.16470408 0.057928707 0.15009613 0.24382941 0.056908883 -0.09312301 -0.024716785 0.07068077
0.04213593 -0.06796176 0.19621032 0.14987288 -0.15495887 -0.020042527 -0.024327002 -0.15701127
00000000: 05fd 0cbe 3704 4a3c bb09 11bd ab1b 933d
00000010: f860 3e3c cc2c 00be df09 b0bd ac6a 29bb
00000020: ffbe 1fbe 06ff a23c 58ea 8dbc cef8 c53d
00000030: b9b0 733d 1feb 3f3e 244d 0cbc 047f 3dbe
00000040: 5d82 e53d 51ad 2cbe 9416 0ebd 2e1c a5bd
00000050: e69f c1bd 881c bebd 7006 6b3e dcda 123e
00000060: f3f6 8d3d 97b5 703e 97a7 67be c6e5 233d
00000070: bf38 243e 7f64 2a3e 6f13 4cbe 3b8a b53d
00000080: f682 11be 3743 25bc 1aff 56bd 9169 55be
00000090: 30de 73be 0d6b 28be 3fda e83d cbce ea3d
000000a0: 37b5 5ebe 649a bfbd 6398 903b 87ab 5dbe
000000b0: 7e94 103e d131 683e ad5d 353d 428c 3ebe
000000c0: 7e0d 6f3d d938 b93d 360a 4b3e b9e3 07be
000000d0: 9e0a 65be 1694 e13d 8acd 803c 286b a6bd
000000e0: 7097 d6bd 3daa 03be 4340 4f3e 58e1 31bd
000000f0: 15f8 383e 0ac8 643e a12f 013d fbc4 583d
00000100: b1c8 88bc e220 303e 3f04 67be c349 cc3d
00000110: 5ae8 26bd a61e e93d 4ee6 4cba e2e5 bcbd
00000120: 211b debc 1891 0a3e 7177 31be 4128 22be
00000130: e80b 64bd 67b0 b9bd 7aaa c83d 7558 2c3e
00000140: adce dbbc b164 723e 5d99 d6bd 49fe 0fbe
00000150: a0e0 e5bd b2b5 30be 8dc1 33be 655b 64be
00000160: f990 62be 214a 863d a674 1c3e 21aa 703e
00000170: 4060 5a3e 6393 66bc 5a5b 453d efde 18be
00000180: b18d c63d da3e 75be aed2 f03d 1b2b 3d3d
00000190: 91fc 9d3d 21e7 ba3d 2ab3 eabd b0f8 5b3e
000001a0: d84c f43d 4981 283e 859b 083d 996d 203e
000001b0: 3ea0 2c3e 9fba e83d adb1 423e d713 3bbd
000001c0: 30a8 283e a746 6d3d cdb2 193e 6bae 793e
000001d0: 4a19 693d 47b7 bebd db7a cabc 14c1 903d
000001e0: ba96 2c3d 892f 8bbd 5ceb 483e 4778 193e
000001f0: 8aad 1ebe 3a30 a4bc 6c49 c7bc 90c7 20be

base_model.model.model.layers.0.self_attn.o_proj.lora_B.weight f4 [16, 8]
0.00056121586 0.00052716176 0.000582949 0.0005390693 -0.0005360826 -0.0003282948 0.0005688812 0.00048440252
-0.0005546083 -0.0005120086 -0.0005245282 -0.00056250114 0.0004566113 0.00045266753 -0.0004960333 -9.646578e-05
-0.00052165927 -8.104586e-05 -0.00049754133 -0.00032825614 0.0005930248 0.0005765647 -0.00057944737 4.6265603e-05
0.0005573998 0.00053908635 0.0005861488 0.0004823037 0.00022297718 -0.00052329747 0.00055833685 0.0005696294
5.745876e-05 -0.00010087007 0.00052891014 7.727986e-06 0.00050893216 -0.000586348 0.0005424359 0.0004721073
0.000570567 0.00057004846 0.0005275976 -0.00052906026 0.00042737683 0.0005764525 0.0004958894 0.00038536682
-0.00056826277 -0.0005554502 -0.0005587848 -7.686706e-05 -0.0005553676 0.00043518873 -0.00057135505 -0.0005586723
-8.2150305e-05 -0.0004154959 -0.0005332873 -0.00055499206 0.0005952205 -0.00039890074 -0.0005718432 0.0005694059
-0.0006001497 -0.0005700042 -0.00058554264 -0.00039250808 -0.00040504042 -0.0005987945 -0.0003887366 -0.00057997316
-0.00059452635 -0.0005816525 0.00045967102 -0.00056129094 0.0005206709 -0.00059908815 5.8380043e-05 -0.00014111838
0.00053219346 0.0003882398 0.0005421703 0.00018951588 -0.0005784166 -0.00057218457 0.0005789756 0.00053475826
0.00059138716 0.0005716829 -0.00045577894 9.100487e-05 -0.00025135593 0.0005539186 0.0005079929 0.00056772935
0.0005966216 0.00058873114 0.00059344614 -0.00033927264 0.00028253783 0.00054145325 0.0005971798 0.00059662486
-0.00059203984 -0.00053075794 -0.00053566665 -0.00044099067 0.0005938575 -0.0005227604 -0.0005712017 -0.0005452054
-0.00054401445 -0.00031108665 -0.00053819374 0.0005248366 -0.00052506296 0.00057236606 -0.0005749005 -0.0005751832
-0.0005936551 -0.0005823744 -0.00059820904 0.00031610235 -0.0005810002 -0.000528077 -0.00050685706 -0.00059746887
00000000: 8f1e 133a 3a31 0a3a 0cd1 183a 5450 0d3a
00000010: e587 0cba fb1e acb9 f920 153a 68f7 fd39
00000020: 2263 11ba 5138 06ba 7e80 09ba d074 13ba
00000030: 5565 ef39 0254 ed39 3b08 02ba ac4d cab8
00000040: f6bf 08ba 2af7 a9b8 6f6d 02ba cb19 acb9
00000050: 3875 1b3a 9a24 173a 0ee6 17ba 500d 4238
00000060: 781e 123a 7951 0d3a c8a7 193a b5dd fc39
00000070: fbce 6939 e62d 09ba 5a5d 123a 2f53 153a
00000080: e0ff 7038 358a d3b8 8fa6 0a3a 72a7 0137
00000090: dc69 053a 26b5 19ba 4232 0e3a 2b85 f739
000000a0: 1a92 153a 4e6f 153a 7a4e 0a3a a2b0 0aba
000000b0: 8c11 e039 131d 173a 93fe 013a 0f0b ca39
000000c0: 78f7 14ba a29b 11ba 6a7b 12ba b033 a1b8
000000d0: 1796 11ba 0b2a e439 fdc6 15ba dd73 12ba
000000e0: 1c48 acb8 ead6 d9b9 4ecc 0bba e37c 11ba
000000f0: 9208 1c3a 8d23 d1b9 bfe7 15ba 2f44 153a
00000100: 5d53 1dba 566c 15ba 1a7f 19ba 8bc9 cdb9
00000110: 9b5b d4b9 6bf8 1cba 58cf cbb9 5709 18ba
00000120: fdd9 1bba 0a7a 18ba 0000 f139 9923 13ba
00000130: a27d 083a 200c 1dba 18dd 7438 2df9 13b9
00000140: e682 0b3a aa8c cb39 6f20 0e3a c8b8 4639
00000150: e2a0 17ba a8fe 15ba 65c6 173a 052f 0c3a
00000160: 5207 1b3a fddc 153a 9df5 eeb9 ded9 be38
00000170: 6cc8 83b9 d934 113a d42a 053a acd3 143a
00000180: 9966 1c3a 1455 1a3a 7f91 1b3a 67e0 b1b9
00000190: 9621 9439 50f0 0d3a 0f8c 1c3a d166 1c3a
000001a0: 1f33 1bba 9022 0bba fb6b 0cba c434 e7b9
000001b0: 1aad 1b3a db09 09ba b2bc 15ba 1dec 0eba
000001c0: 319c 0eba 5819 a3b9 9215 0dba 3095 093a
000001d0: 61a4 09ba d60a 163a ebb4 16ba e4c7 16ba
000001e0: 859f 1bba 7caa 18ba 21d1 1cba 8aba a539
000001f0: 434e 18ba a66e 0aba 9ade 04ba 759f 1cba

base_model.model.model.layers.0.self_attn.q_proj.lora_A.weight f4 [8, 16]
0.14017524 -0.17427912 0.12584819 0.11365296 0.17879961 -0.19202527 0.1801078 -0.11846585
0.092493124 0.23503017 -0.035540722 -0.0018144255 -0.057847362 -0.20905238 0.11989004 -0.24846561
0.15537593 0.18724254 0.23660003 -0.058733467 -0.20570892 0.055950105 0.13841109 -0.24911594
-0.05683685 -0.15005839 -0.022141594 -0.12291187 -0.10247878 -0.079676025 -0.23727031 0.20542465
0.20988533 -0.03897581 -0.02835047 -0.1017991 -0.22552365 -0.24347973 0.09321593 -0.13755967
-0.16100399 -0.01923113 -0.08340561 -0.081172004 0.007796335 -0.053255644 -0.086317025 -0.12001228
-0.20374028 0.20988989 -0.09986141 0.066461734 -0.086678654 0.0201132 0.23312734 0.11537616
-0.21692346 0.09951894 0.2375876 0.065631226 0.16785708 0.24671906 -0.038598325 0.051637437
-0.17398894 -0.05161521 0.18540286 0.12843935 -0.158495 -0.20076106 -0.17053242 -0.24693517
-0.19279014 -0.06182389 0.16843946 0.04212355 -0.19042736 -0.200867 0.1246411 -0.18566254
-0.030516762 0.12021624 -0.11594857 -0.027471293 -0.021997532 -0.058901772 -0.126777 -0.2231584
-0.20217066 -0.13408202 0.24138173 -0.12105345 -0.16808458 0.060454067 0.0691963 0.13684234
0.1902731 0.13934903 -0.24813366 0.02189377 0.15173578 -0.022816552 -0.14762841 0.23851442
-0.09364755 -0.14236946 -0.22510923 0.010886997 0.11105872 0.055651713 0.04917923 -0.18989372
-0.23377654 0.004633373 0.22799863 0.14442597 -0.14584929 -0.03252583 -0.18439625 -0.12053383
0.045515828 0.13608035 0.20716858 -0.2296956 0.16694763 -0.17659988 0.09390683 0.21186806
00000000: 198a 0f3e 3a76 32be 59de 003e e2c2 e83d
00000010: 3f17 373e 46a2 44be 2e6e 383e 399e f2bd
00000020: 096d bd3d c0ab 703e 2693 11bd 04d2 edba
00000030: 5bf1 6cbd d411 56be e988 f53d c56d 7ebe
00000040: de1a 1f3e 82bc 3f3e 4747 723e 8192 70bd
00000050: 5ca5 52be f02b 653d a3bb 0d3e 4018 7fbe
00000060: c2cd 68bd e8a8 19be 4a62 b5bc 38b9 fbbd
00000070: 65e0 d1bd 2f2d a3bd fdf6 72be d75a 523e
00000080: 2eec 563e 19a5 1fbd 3f3f e8bc 0c7c d0bd
00000090: acef 66be c052 79be fee7 be3d 71dc 0cbe
000000a0: 3bde 24be 9a8a 9dbc 8fd0 aabd 823d a6bd
000000b0: 6678 ff3b 9722 5abd fbc6 b0bd 00c9 f5bd
000000c0: 4ba1 50be 60ed 563e 2484 ccbd 171d 883d
000000d0: 9484 b1bd 70c4 a43c efb8 6e3e 564a ec3d
000000e0: 2f21 5ebe 96d0 cb3d 2a4a 733e aa69 863d
000000f0: bae2 2b3e eca3 7c3e 4719 1ebd c781 533d
00000100: 282a 32be 786a 53bd 3fda 3d3e 9b85 033e
00000110: 834c 22be 4f94 4dbe 0da0 2ebe 93dc 7cbe
00000120: c76a 45be 0c3b 7dbd 657b 2c3e be89 2c3d
00000130: 64ff 42be 14b0 4dbe d543 ff3d 521e 3ebe
00000140: 4afe f9bc ef33 f63d 7276 edbd 7a0b e1bc
00000150: 2b34 b4bc fc42 71bd d4d1 01be a383 64be
00000160: d305 4fbe cc4c 09be c62c 773e dfea f7bd
00000170: 5d1e 2cbe af9e 773d cab6 8d3d 6620 0c3e
00000180: f4d6 423e 83b1 0e3e c016 7ebe 905a b33c
00000190: a060 1b3e c7e9 babc e72b 17be 203d 743e
000001a0: 49ca bfbd 4dc9 11be 0983 66be 605f 323c
000001b0: c172 e33d 0df3 633d 2970 493d 8073 42be
000001c0: 1e63 6fbe 8dd3 973b 7978 693e 67e4 133e
000001d0: 8459 15be ce39 05bd 5fd2 3cbe 71da f6bd
000001e0: ce6e 3a3d a658 0b3e 0024 543e 5335 6bbe
000001f0: 52f4 2a3e 99d6 34be 3952 c03d f1f3 583e

base_model.model.model.layers.0.self_attn.q_proj.lora_B.weight f4 [16, 8]
0.00053424074 -0.0005874743 0.00030847103 -0.00023106122 -0.0005896144 -0.0004898685 0.0005903335 -0.00057987793
-0.0005990678 -0.00057566026 -0.0005800777 -0.00059553306 -0.00059290504 0.00044375675 0.0005937209 -0.00034658363
0.00058380194 -0.0005620103 -0.0005733 -0.0005824902 0.00039794476 -0.00060005917 -0.0005989917 -0.00051930913
-0.0005986394 -0.0005991291 -0.0005923783 -4.709695e-05 -0.0005858252 -0.0005858885 0.0005978041 -0.00031956562
-0.0005924049 -0.00059531536 -0.0005634074 0.000528886 -0.00058874185 -0.000577371 0.0005920065 -0.000588925
0.00059965556 0.00059777574 0.0005980293 -0.0005962246 0.0005922886 0.0005109924 -0.00040636258 -0.000576635
-0.00059929077 0.00041302154 -0.000598536 -0.00057459343 -0.00010779357 0.0005982304 0.0005012462 0.0005935414
0.0005547379 0.0005459702 -0.00056767074 0.0005985163 0.00056545815 0.0005860315 -0.00059286086 0.00059686246
-0.00060033303 -0.00058698043 -0.00059765286 -0.00049879146 -0.0005836967 0.00059935055 0.00058305886 0.00059864146
0.00059591635 0.000592592 0.00059883215 -8.97924e-05 0.0005908887 -2.7234168e-05 -0.00057525805 0.0005771301
0.0005872955 0.00059340947 0.0005954746 -0.0005973761 -0.00048340377 0.0005213251 0.0005862891 -0.0005788573
0.00059359445 0.0005051379 -0.0003486429 -0.00059925194 0.0005778416 -0.00057286595 -0.00057851337 0.0005218499
-0.00048974174 -2.683696e-05 0.00045624952 0.0004713729 0.00059374975 0.00057137583 -0.0003424841 0.00044815356
0.0005917553 -0.0005694797 0.0005721367 -0.00048091082 -0.0005638443 0.0003890755 0.0005949477 -0.00059254456
-0.0006007175 0.00055755954 -0.0005996133 -0.0005795846 0.0002616141 0.0005276276 -0.00059508 0.00059409026
-0.00059999665 -0.00038583291 -0.00059753156 0.0005991451 -0.00024401589 0.0006005686 0.00015931258 0.00059480395
00000000: 4a0c 0c3a bc00 1aba 48ba a139 0649 72b9
00000010: 5a90 1aba 856a 00ba 9cc0 1a3a f302 18ba
00000020: c20a 1dba e8e7 16ba 5b10 18ba 8c1d 1cba
00000030: 2f6d 1bba 06a8 e839 efa3 1b3a abb5 b5b9
00000040: 490a 193a df53 13ba 8349 16ba 41b2 18ba
00000050: 3ea3 d039 4a4d 1dba a705 1dba 3f22 08ba
00000060: 03ee 1cba e00e 1dba d649 1bba f789 45b8
00000070: 1092 19ba 5096 19ba f4b5 1c3a 5f8b a7b9
00000080: 9f4b 1bba f00e 1cba a1b1 13ba f0a4 0a3a
00000090: cc55 1aba b65a 17ba e230 1b3a 1662 1aba
000000a0: 3432 1d3a 0db4 1c3a 11c5 1c3a f54b 1cba
000000b0: d143 1b3a 1ff4 053a 100d d5b9 5229 17ba
000000c0: b919 1dba d08a d839 12e7 1cba 50a0 16ba
000000d0: 3b0f e2b8 90d2 1c3a 1066 033a e497 1b3a
000000e0: d56b 113a 711f 0f3a bdcf 14ba c0e5 1c3a
000000f0: 413b 143a e99f 193a 386a 1bba c376 1c3a
00000100: ab5f 1dba 97df 19ba ceab 1cba 54c1 02ba
00000110: 3903 19ba bc1d 1d3a 6bd8 183a 26ee 1c3a
00000120: 4537 1c3a 2d58 1b3a f2fa 1c3a ed4e bcb8
00000130: dfe5 1a3a ee74 e4b7 eacc 16ba 8c4a 173a
00000140: bcf4 193a 098f 1b3a a019 1c3a 3b99 1cba
00000150: 5b71 fdb9 89a9 083a 32b1 193a 75be 17ba
00000160: 739b 1b3a 3b6b 043a 0fca b6b9 1e17 1dba
00000170: 4b7a 173a 622c 16ba 60a7 17ba c1cc 083a
00000180: 0362 00ba ef1f e1b7 c634 ef39 9a22 f739
00000190: dfa5 1b3a 62c8 153a 708f b3b9 27f6 ea39
000001a0: 0720 1b3a 2349 15ba 72fb 153a c222 fcb9
000001b0: f3ce 13ba d4fc cb39 44f6 1b3a fe54 1bba
000001c0: 7879 1dba 3029 123a 5e2f 1dba 44ef 17ba
000001d0: 4029 8939 7d50 0a3a 25ff 1bba b9bc 1b3a
000001e0: 1849 1dba 9e49 cab9 aaa3 1cba f20f 1d3a
000001f0: 84de 7fb9 7a6f 1d3a 250d 2739 9eec 1b3a
