apps/api/fine_tuned_models/94d11309-fa3c-4a32-991a-c987dd12852f/checkpoint-10/adapter_model.safetensors (safetensors, 50624 bytes, 28 tensors)

base_model.model.model.layers.0.mlp.down_proj.lora_A.weight f4 [16, 64]
00000000: 8f92 973d 5abe 993d e650 b5bc 6f37 d73b
00000010: 9898 f0bb 7bfe ecbc f816 ad3d d8a1 97bd
00000020: dfb0 edbd 7fb9 afbc d3bb 96bd 1388 a7bd
00000030: 068a 15bd 6acd a0bb 3188 a63d 3b98 913d
00000040: 8cf5 d13d e73a c13d 5ceb 163d 635f d1ba
00000050: 8692 51bb b1d5 c0bd e750 373c 9f8e eabc
00000060: ccca 0fbd 1520 d83d 5416 6e3d ab41 a23d
00000070: b5ec a63d 9260 93bd 51e8 163d 34cd 74bc
00000080: 9669 2f3d abe9 943d cee9 02bd 8a4b c03d
00000090: 587b c43b df6a bcbc c11f a93d 6ef3 c73d
000000a0: eb3e 0dbd e7e1 943d c3c3 ddbc 2bfe 96bb
000000b0: e97e b7bd 982c 57bd e19f 893c 1e4a f2bc
000000c0: c561 40bc 2cb0 ef3c c48f 4ebd 3a07 863d
000000d0: 1d67 f93d fd65 cd3d 6170 e03d d72e 11bd
000000e0: 4003 553b 94af 28bd b3e1 76bd fbdd ebbc
000000f0: 4727 9b3d c6ea f0bd 6268 88bd 0c0d 853d
00000100: e1f9 853d ee0f 06bd 27e4 e8bc 25f3 90bc
00000110: b8f7 ba3d cbb5 b83d 96d6 6bbd 613c b03c
00000120: c956 f9bd a35a a7bd 93a1 3fbc 7781 2ebd
00000130: d795 74bd 15b7 d33d b456 803d 425e 133c
00000140: c49f 19bd 117f 943a d259 d33d 7b1b b9bc
00000150: 5bda 0e3c 16b7 213d d423 993d e1fc 9b3d
00000160: 8fa4 72bd d17b 4c3d 86c9 9c3c 5724 8d3c
00000170: fb2c debd 3885 ee3d 8b3a 613d 319e 7c3c
00000180: 8ba3 473d 14e5 f8bc dd56 b9bd 8dfb 03bd
00000190: 32be e6bd 49dd de3d cea6 5c3d b62b 033d
000001a0: 6ac0 aebd a760 a8bd 1471 903d 6bba cdbd
000001b0: 4e1f cd3c 94e3 bd3d 79a3 ddbd 663e b53d
000001c0: 4984 d4bd 498a c0bc 3a21 af3d d560 bf3d
000001d0: 6e17 ea3d c43d d23d 656b f8bd e626 b23c
000001e0: fe39 e3bd 7129 903d 4a5b 153d b3a3 c33d
000001f0: 7069 f63c 1b62 b03d e97e 9abb 223f cfbd
00000200: 3bc3 a6bd 95a7 26bb e768 e7bd 48db d73d
00000210: 4526 98bd fd6c c2bd 68dd fa3d 0d80 a2bd
00000220: 1b2f 67bd 38ac 3d3b 1608 203d a2ab 3abd
00000230: 9d71 873d b140 a2bd 55b5 cc3c ea7e fdbd
00000240: 347d e7bd 0335 363d 522a 793d 360b 66bd
00000250: 828c 303d 37a3 02bd 2e7e 8d3d 6df4 523c
00000260: 71a9 e7bc f093 bf3c 899a f1bd 7dc0 8d3d
00000270: 7803 ec3d 7af3 db3d fa3e 94bd cb52 51bd
00000280: f760 63bd fe10 a23c 19ac b1bd 8de5 bebd
00000290: e64a 4abd 36b2 e13d ea28 093d da83 e9bd
000002a0: ff1d 72bd 955d ccbd 6ac2 89bc 5e9f 9b3b
000002b0: e369 a9bd 6336 c9bd c4f9 c5bc e921 043c
000002c0: afa3 bd3d 02f9 3c3d 4c0e 96bd 52b5 eabd
000002d0: 7e13 ce3c f945 99bc fe96 943d d296 afbd
000002e0: df72 adbb be4d bcbd 02a6 7dbd 1ee7 96bd
000002f0: f86a dbbc a849 33bc f08b ef3d c549 e13d
00000300: 4df3 c83d 55ea fa3c 615c c63a 8d4a f53d
00000310: fb52 b2bd 9418 ecbd ecc4 8bbd 5343 be3d
00000320: d63c fc3d a196 55bd 0adc a5bd 79c6 e1bd
00000330: c348 6a3d be0f 4cbd 23c4 c03d d8db 31bd
00000340: 72de eb3d 6e95 a63d a957 a73d 2588 863d
00000350: dd2b ccbd 5221 863c f829 9abd 0235 1bbd
00000360: e015 a03d 40bc 83bd 9e19 a33d 677e ed3b
00000370: 8b91 6fbd 89b2 7bbd 214b f7bd baa8 2c3d
00000380: e117 843b 5898 e43d ffbc 3b3d 2de0 1b3d
00000390: 0937 c0bb d6a0 6d3d cdb5 9abc 0479 503d
000003a0: 0aa2 65bd 147d a33d e491 0f3d 90a3 853d
000003b0: a900 fb3b 992f 763d 2035 e73d 4c11 a43c
000003c0: 0399 b33d baf3 ebbd 86ea 2bbc 7af4 dcbd
000003d0: c096 053c 13c1 c63c 5bc0 0f3d 4925 5dbd
000003e0: a02f 6e3d c671 54bd 1cfb ffbc 3285 c13d
000003f0: 012a edbd 8395 c93c 71c1 ddbd 5930 5f3d
0.07401001 0.0750701 -0.022133302 0.0065678875 -0.0073424093 -0.02892994 0.084516466 -0.07403916
-0.11606001 -0.021450756 -0.073600434 -0.08180251 -0.036508583 -0.0049072998 0.08131445 0.07109114
0.102519125 0.09435063 0.03684555 -0.0015973862 -0.0031978204 -0.094157584 0.011188722 -0.02863246
-0.03510551 0.10552994 0.058126763 0.079226814 0.08150617 -0.07196154 0.036842648 -0.014941502
0.042825304 0.07271131 -0.031961255 0.09389408 0.005996149 -0.023000179 0.0825801 0.097632274
-0.03448383 0.0726965 -0.027070886 -0.004607936 -0.08959753 -0.052532762 0.016799869 -0.029576357
-0.01174206 0.02925881 -0.050430074 0.06544347 0.121778704 0.10029218 0.109589346 -0.03544506
0.0032503158 -0.04118307 -0.060273837 -0.028792372 0.07575851 -0.117635295 -0.066605344 0.06496629
0.06541801 -0.032730035 -0.028429104 -0.017694065 0.0912928 0.09019049 -0.057577692 0.021513166
-0.12174756 -0.081715845 -0.011696237 -0.042603936 -0.05971321 0.103376545 0.06266537 0.008994641
-0.03750588 0.0011329373 0.10319866 -0.022596112 0.008719052 0.039481245 0.07477537 0.07616592
-0.059238967 0.049922768 0.019139063 0.017229242 -0.10848423 0.11646503 0.05498747 0.015418575
0.04873995 -0.03038267 -0.09049771 -0.03222232 -0.112667456 0.108820505 0.053870015 0.032024108
-0.08532794 -0.0822156 0.07052818 -0.10045322 0.025039341 0.09271923 -0.108221956 0.08849792
-0.10376794 -0.02350344 0.08551259 0.09344641 0.1143025 0.10265687 -0.12129859 0.021747064
-0.110950455 0.07039154 0.036464013 0.095527075 0.030079573 0.08612462 -0.004714836 -0.101194635
-0.08142706 -0.0025429477 -0.112993054 0.105398715 -0.07429174 -0.09493444 0.12249261 -0.0793458
-0.056441408 0.0028941762 0.03907021 -0.045573838 0.06613467 -0.07922495 0.02498881 -0.123777226
-0.113031775 0.04448415 0.060831375 -0.056163035 0.04310275 -0.031893935 0.069088325 0.012875658
-0.028279038 0.023385972 -0.11797053 0.0692148 0.11524099 0.10739799 -0.07238574 -0.05110435
-0.055512395 0.019783493 -0.08675403 -0.09321127 -0.049387835 0.11020319 0.033486284 -0.11402102
-0.059110638 -0.09978787 -0.016816337 0.0047492227 -0.082721494 -0.098248266 -0.02416695 0.008064725
0.09259736 0.04613591 -0.07326946 -0.11460365 0.025155779 -0.018710123 0.07255362 -0.085736886
-0.0052932347 -0.09194516 -0.061925896 -0.07368301 -0.026784405 -0.010942854 0.11696613 0.110003985
0.09812031 0.030629316 0.0015133732 0.1197711 -0.087072335 -0.115281254 -0.06824669 0.09290185
0.12316291 -0.052145604 -0.0809861 -0.11024184 0.057198297 -0.0498197 0.0941241 -0.04342255
0.115170375 0.0813397 0.08171017 0.06568936 -0.09969304 0.01637331 -0.07527536 -0.03789235
0.07816672 -0.0643239 0.079638705 0.0072477343 -0.05848841 -0.06144956 -0.120748766 0.042153098
0.004031167 0.1116187 0.045834538 0.038055588 -0.0058659357 0.058014713 -0.018885517 0.05089666
-0.056062736 0.07982841 0.03505124 0.06525338 0.007659991 0.060103986 0.1128943 0.020027779
0.08769419 -0.115210965 -0.010492926 -0.10788818 0.008153617 0.024261987 0.035095554 -0.053990636
0.058150887 -0.051866315 -0.031247668 0.09449233 -0.11580277 0.024607426 -0.10827912 0.054489467

base_model.model.model.layers.0.mlp.down_proj.lora_B.weight f4 [16, 16]
00000000: e017 8bba 82b7 52ba f968 85ba a2db 483a
00000010: a949 8d3a ac09 90ba 3860 8bba 0977 9a39
00000020: 1b0d 90ba 0dca 8d3a 3944 363a 8015 90ba
00000030: e746 863a b984 89ba 47d0 8b3a 4fe5 863a
00000040: 1cb5 83ba 9019 543a bb29 093a 7f36 8aba
00000050: 63dc 2e3a a7dc 593a 73f1 67ba 0ec8 2e3a
00000060: 62dd 8fba 5c7c 8f3a 44dd 7cba 0b3f 90ba
00000070: 9fcd 8d3a 2793 8f3a 5403 89ba ef37 8dba
00000080: d0ee 8e3a 7123 43ba 8054 88ba 261f 7d3a
00000090: 1c90 1aba e735 833a b659 8c3a 8a13 8fba
000000a0: 01a8 8e3a 34c1 5c3a bd91 87ba 1797 8aba
000000b0: d6dc 8e3a 2757 8f3a a479 90ba 012e 8fba
000000c0: 5e6b 86ba afc4 8bba 8227 90ba edfc 8b3a
000000d0: 84fa 8f3a 7eb0 8dba 0c6b 7839 76f8 71ba
000000e0: 6daa 8fba f0a4 733a f14c 43b9 b630 88ba
000000f0: 43b1 89ba 4465 69ba b357 8e3a 8d07 65ba
00000100: 502e 883a 8c7d 02b9 2f06 743a 2374 8f3a
00000110: 2f36 dcb9 5376 8cba 3463 0f3a 1718 883a
00000120: 7580 8e3a 667d 8eba dd02 733a bb85 8f3a
00000130: 6228 8fba bec1 8dba b3b1 843a 6bfe 8d3a
00000140: 4348 8f3a 7dcf 0f3a 4559 8fba 5bf5 8f3a
00000150: 4640 7f3a 9409 703a 4694 8d3a b044 65ba
00000160: 75c6 7e3a 1120 8e3a 73b0 8dba 3e17 90ba
00000170: 64e6 8f3a 7b4a 903a bad4 85ba 895c 8eba
00000180: 0f44 96b9 47be 4d3a 7975 883a 8a8a 73ba
00000190: ff31 67ba ea87 8dba 713e 06ba 05c4 2eba
000001a0: 7e9a 7cba 88e0 4aba bc4a 2eba 5b8b 9a39
000001b0: e578 81ba 0f07 803a 4f64 5aba 9175 383a
000001c0: ccaf 8a3a a87a 62ba de50 8a3a d7f4 893a
000001d0: 3ca3 89ba fa5c 883a 9c7a a8b8 6555 38ba
000001e0: 447e 8e3a 2b3b c0b8 fc01 8aba 4e3b 6839
000001f0: 07aa 83ba c6a2 8b3a 3693 7c3a 6f76 8c3a
00000200: 9c13 89ba 3016 763a 03f7 8e3a c367 68ba
00000210: a533 adb9 adf3 8fba 446c 8cba 43c8 7939
00000220: 1378 8aba d822 89ba 68c8 7f39 ccc8 893a
00000230: 4aa5 8eba 7412 7c3a d89a 8e3a df8d 8f3a
00000240: 003f 8cba 06e0 863a 0024 8b3a 61e6 8aba
00000250: 2f38 0539 316f 86ba 114a 83ba 2573 883a
00000260: bec6 8eba ec4c 88ba 6fef 873a 3a50 8d3a
00000270: 41cb 8fba 04a7 8aba 2efc 8c3a a4b5 8e3a
00000280: e025 8dba d1fc f339 d74e 8e3a 24f4 8dba
00000290: 1f8c 823a 1c86 80ba dfb5 8aba 9e65 d039
000002a0: 4903 0439 875a a039 a0ad 8b3a 1872 8f3a
000002b0: 55b9 8fba b59e 8dba 7012 883a 3c6e 8e3a
000002c0: 2b54 8c3a f407 bab9 cf33 43b9 e057 893a
000002d0: 335d 7aba 6074 883a 30ef 813a fcfa 763a
000002e0: 1e42 8f3a 4165 8aba 67a7 643a 1d1e 8f3a
000002f0: b6f8 393a 1e9f 8dba 7eb5 3d3a 56ae 8e3a
00000300: bc5b 883a 0f3c 8e3a cf10 8fba a94c 90ba
00000310: f81f 803a 98b7 053a e4a9 8d3a 9afc 88ba
00000320: a1b1 883a 03dd 8e3a 0ca6 4d3a 24ab 853a
00000330: dacb 8e3a 19a5 82ba b504 8dba febb 8eba
00000340: e6b0 f9b7 c213 8aba 633a 8b3a c3f8 813a
00000350: 8a8e c539 cd82 14ba e24f 68ba 4499 7fba
00000360: ddeb 8cba 4bd6 0eba 7dfe 38ba 611f 87ba
00000370: 07e3 8fba 0ee9 763a 3ac0 b8b9 a98f 6aba
00000380: 77e6 7d3a c593 8cba 9012 86ba edbc 8e3a
00000390: 716f 64ba 1eed 3f3a f843 4d3a a4cd 8b3a
000003a0: 1ebd 813a 8529 8eba 011c 81ba b41e 88ba
000003b0: 25ec 8aba 14b9 d8b9 0e82 2dba ea17 8c3a
000003c0: 7ded 7f39 8a2b 9db9 3660 8a3a 66a6 8a3a
000003d0: 03ea 89ba 59d0 8fba 0ea5 7dba b54f 8a3a
000003e0: 4678 85b9 5f8e 90ba 4e51 513a 561c 903a
000003f0: 9f52 8eba a40a 8cba 6d41 50ba 6ab9 8f3a
-0.0010611974 -0.0008038209 -0.0010178379 0.00076621224 0.0010779399 -0.001098921 -0.0010633534 0.00029461857
-0.0010990234 0.0010817662 0.0006952915 -0.0010992736 0.0010244519 -0.0010491825 0.001066693 0.0010291728
-0.0010048482 0.00080909673 0.00052323536 -0.0010544806 0.00066704134 0.0008310773 -0.00088479294 0.0006667384
-0.0010976011 0.0010947096 -0.0009646008 -0.0011005116 0.0010818726 0.0010953889 -0.0010453262 -0.0010774116
0.0010904912 -0.0007443941 -0.001040116 0.00096558256 -0.0005896108 0.0010010571 0.0010707888 -0.0010915857
0.0010883809 0.00084211235 -0.0010343116 -0.0010573593 0.0010899554 0.0010936008 -0.001102258 -0.0010923744
-0.0010255387 -0.0010663475 -0.0010998102 0.0010680236 0.0010984694 -0.0010810045 0.00023691001 -0.0009230444
-0.0010960825 0.0009294292 -0.00018625312 -0.0010390494 -0.0010505099 -0.00089033344 0.0010859877 -0.0008736782
0.0010389779 -0.00012444536 0.0009308783 0.0010944646 -0.0004200204 -0.0010716416 0.00054697995 0.0010383156
0.0010872023 -0.0010871112 0.0009270141 0.0010949889 -0.0010922069 -0.0010815186 0.0010123759 0.0010833269
0.001093157 0.0005485935 -0.0010936639 0.0010983156 0.00097370555 0.00091567007 0.0010801635 -0.0008745892
0.00097189035 0.0010843297 -0.0010810032 -0.0010993255 0.0010978696 0.0011008525 -0.0010210492 -0.0010861318
-0.00028660937 0.0007848483 0.0010410986 -0.0009290358 -0.00088194007 -0.0010797952 -0.0005120999 -0.00066667824
-0.0009636058 -0.0007739146 -0.00066487095 0.00029476997 -0.0009877948 0.0009767729 -0.0008330987 0.0007036562
0.0010580956 -0.0008639493 0.0010552665 0.0010525238 -0.0010500918 0.0010403686 -8.033702e-05 -0.0007031768
0.001087137 -9.166294e-05 -0.0010529156 0.00022147337 -0.0010045179 0.0010653369 0.0009634973 0.0010716448
-0.0010458115 0.00093874615 0.0010907355 -0.00088655594 -0.0003303561 -0.0010982655 -0.0010713418 0.00023821094
-0.0010564349 -0.0010462655 0.00024393352 0.0010512113 -0.0010883 0.0009615787 0.0010879887 0.0010952315
-0.0010699928 0.0010290153 0.0010615587 -0.0010597223 0.00012704798 -0.0010256526 -0.001001658 0.0010410292
-0.001089297 -0.0010398901 0.0010371039 0.0010781356 -0.0010970609 -0.0010578339 0.0010756308 0.0010887873
-0.0010768734 0.00046536935 0.0010857236 -0.0010830206 0.0009959972 -0.0009805593 -0.0010582766 0.00039748562
0.00012589725 0.00030585026 0.0010656603 0.0010944037 -0.0010965267 -0.0010804745 0.0010381471 0.0010866593
0.0010706236 -0.0003548261 -0.0001861595 0.0010478459 -0.0009550631 0.0010410659 0.0009913202 0.0009421555
0.0010929739 -0.001055874 0.00087224547 0.0010919009 0.0007094251 -0.0010804867 0.0007236822 0.0010885696
0.0010403316 0.0010851639 -0.0010915044 -0.0011009175 0.0009775152 0.0005100905 0.0010808078 -0.0010451258
0.0010428914 0.0010899607 0.00078448723 0.0010198099 0.0010894493 -0.0009967416 -0.0010758849 -0.0010889766
-2.9765488e-05 -0.0010534453 0.0010622259 0.0009916056 0.00037680968 -0.0005665243 -0.0008862001 -0.00097503164
-0.0010751445 -0.0005448802 -0.00070569647 -0.0010309034 -0.0010977694 0.0009418883 -0.00035238435 -0.00089477986
0.0009685526 -0.0010725191 -0.0010228921 0.0010890045 -0.0008714116 0.0007321405 0.00078302575 0.0010666144
0.000989828 -0.0010846114 -0.0009850265 -0.0010385127 -0.0010598941 -0.00041336624 -0.0006618806 0.0010688279
0.00024407166 -0.00029977813 0.0010557238 0.0010578155 -0.0010522011 -0.0010972127 -0.0009675779 0.0010552319
-0.00025457348 -0.0011028758 0.00079848326 0.0010994773 -0.0010858363 -0.0010684323 -0.00079443195 0.0010965292

base_model.model.model.layers.0.mlp.gate_proj.lora_A.weight f4 [16, 16]
00000000: 4c41 f6ba 6e12 ef3d df38 223d f68d 3abe
00000010: adcd cd3d cfcc 173e 3c51 05be b2e3 26be
00000020: c52b 2fbe 8193 f7bd 31f9 fbbc 4b5d 983c
00000030: db04 82ba 42ec 88bd 3128 1f3e 6be7 643c
00000040: fc6e 15be a21e 89bd 5d4a 17be fd0e b3bd
00000050: 6fbb 70be 0bad 2f3d 232e 47be e89a c73d
00000060: c22d 303e 514c 3fbe 27e9 07be 3b99 49be
00000070: 32fd 863d 7717 493d ee50 03be 396d 1b3e
00000080: 14de d33d 4b0f 68be 77bf 6bbc 319f dbbd
00000090: 5b44 2ebd 17b2 0d3e fcb8 e2bc ecf2 30be
000000a0: b8ed 343e a3cd 6abe f971 b1bd 9bda c63d
000000b0: 8db1 613e 9c4e 793e fb4c 6dbd 5fda a93d
000000c0: 86ac 61be f442 44bd 54cd a0bd 87fd 923d
000000d0: 074a 28be 6d0a 603d e202 053e 96a7 473e
000000e0: cd56 2dbd 47af 6a3e 03b9 71be bab3 92bd
000000f0: 2972 c13d e2dc 813d d0b9 f23d be2d 29be
00000100: 2dd0 1c3e 720e 71be 874a 30be 7776 85bc
00000110: d2f6 77be 362c 74be 990f 64be 7bab 4e3e
00000120: f5d7 633d cdf8 a4bd 75d7 34bc 2256 5ebe
00000130: a08f 72be 7408 32be f2d0 76be 652c 293e
00000140: dcc0 b4bd 5cc3 8bbd b04c 5dbe a9cf 2c3d
00000150: 15e2 1cbd ed6f 2dbe 48e8 243e 8581 573e
00000160: 77b9 35be a273 113e a6c7 28bd adb2 45bb
00000170: aa4b d83d 5303 3ebd 3950 5a3e c34f 1e3e
00000180: 35ef 26be 6af2 1abe 40f8 7cbe a980 a53d
00000190: 8d52 41be 97d0 55be 614f 23be fbf1 7dbe
000001a0: f067 50be d131 653e 4d41 0f3e 9f57 633e
000001b0: a7f9 f9bd afa0 d3bd 6ffe b1bd f70f ba3b
000001c0: b78f 38be 93f2 123d f9ec 24be bc20 253d
000001d0: b345 6b3e b0ff 2f3d e289 3b3e 6930 37be
000001e0: 8c4c 0dbd 0d3b 1ebe 382f e8bc 912c cdbd
000001f0: f22d 12be f910 78be 063e bcbd d85c 0c3d
00000200: d322 37bd 029d 6ebe 380f 413e 3bae 3e3e
00000210: fa2b 1bbe 480e ca3c 48ce 2a3e 57f0 73be
00000220: 73cb 61be 0ee2 0d3e e4f6 b9bb f8df a33d
00000230: c87a d6bd 236e 363d 2e8c 2a3e de50 77bd
00000240: 7af8 a6bd 5f8e 74be d7d5 1abd 940d 233e
00000250: e3cd 72be 06bc a4bc f3c0 3a3e 1af7 92bd
00000260: 2c89 bbbd 3af9 9bbd d50f d1bd 7585 fb3c
00000270: 0a50 77be ac37 c43d 1c43 7fbd ef89 febc
00000280: 97a0 8fbc 3a2d 0e3e 8acb 1fbe abc8 69be
00000290: eeef 39be c684 3cbe 7fd7 fabd cb0e 4b3e
000002a0: d92e 45be ed4f 17be cc8c 51be d6ab ffbd
000002b0: 60d5 e2bb e4ed 1cbe 2659 613b 52a1 ae3d
000002c0: b75b 31bd c43e db3d 6025 6c3d ed0e 783e
000002d0: 1cce 5dbc 0a10 5d3e a120 403e 6193 f53d
000002e0: e3ab 113e 884d 2cbe 994c 2cbe ca3a dc3d
000002f0: 2247 b83d 1dc4 673e a51f 02bd 83ec 3cbd
00000300: d24f 303e 0c32 113c 7e2c 713e b76d 03be
00000310: 1a7c a9bd e327 3d3c 944c 093e eb2a 61be
00000320: 53fa 90bd 7eab 3a3e a763 583d 14ee 343e
00000330: 51c2 abbd b4d5 21be 3790 2fbe c2ad 10be
00000340: fc9e 3fbe f45a ff3d de0f 883d 3c43 24be
00000350: b06b 6b3e 855c 933d 89a5 bd3d 3b4d d9bd
00000360: 0674 303e 0bd4 33be 266b 3b3e d3eb 0bbe
00000370: 7905 db3d 49a3 b7bd fb91 253e 3290 57be
00000380: f3d9 4abd dedd 8bbd 62eb 19be a5e0 f9bd
00000390: af3e 91bd 28ba ce3c 43f7 343e e61a 27bd
000003a0: 8bab 7b3e 9c35 f5bd ec87 04be 2eeb 48bc
000003b0: 4a9b 3cbd a0cc a13d 454f 6d3e d7d9 b03d
000003c0: 7d0b 57be e37c b0bd ac0d 4bbd 5b89 68be
000003d0: afdb 9f3d b8af 5e3e f5a0 fc3d 6715 89bb
000003e0: ba6e 95bc c45c f1bd d3c2 e9bc 154e 613e
000003f0: ae5f 04be fa19 273d 3f38 3bbe f8a7 8bbd
-0.001878777 0.11673437 0.039605018 -0.18218216 0.10048995 0.14824222 -0.1301927 -0.16297796
-0.1710654 -0.12088681 -0.030758472 0.018599173 -0.000991966 -0.066856876 0.15542676 0.01397119
-0.14593118 -0.06695296 -0.14774461 -0.08743093 -0.23509 0.042889636 -0.19451194 0.09746343
0.17204955 -0.18681456 -0.13272534 -0.19687359 0.06591262 0.049094643 -0.12823841 0.15178384
0.103450924 -0.22662084 -0.0143889105 -0.10723723 -0.042545658 0.13837467 -0.027676098 -0.17280167
0.17668808 -0.22930007 -0.08664317 0.097096644 0.22040386 0.24346393 -0.057934742 0.08293604
-0.22038469 -0.047915414 -0.07851663 0.07177263 -0.16434489 0.054697443 0.12989381 0.19497523
-0.042319108 0.22918426 -0.23605733 -0.07163186 0.094456024 0.06340958 0.11851847 -0.16521356
0.15313788 -0.23540667 -0.1721593 -0.01629184 -0.24215248 -0.2384499 -0.22271575 0.20182602
0.055625875 -0.080552675 -0.011037697 -0.21712545 -0.23687601 -0.17386037 -0.24103144 0.16520841
-0.088258475 -0.06824371 -0.21611285 0.042190228 -0.038301546 -0.16937228 0.16104233 0.21045502
-0.1774653 0.14204267 -0.041206025 -0.0030166314 0.10561307 -0.04638989 0.21319665 0.15460114
-0.16302188 -0.15131536 -0.24704075 0.080811806 -0.18879147 -0.20880352 -0.1594825 -0.2479934
-0.20352149 0.22382285 0.13989754 0.22201394 -0.122058205 -0.10333382 -0.086911075 0.0056781727
-0.18023573 0.035875868 -0.16106023 0.04031442 0.22975807 0.042968452 0.18314317 -0.17889561
-0.03449683 -0.15452214 -0.028342828 -0.10018266 -0.14275339 -0.24225225 -0.091915175 0.03426823
-0.044710945 -0.23302081 0.18853462 0.18621151 -0.15153494 0.024665013 0.16680253 -0.23822151
-0.22050266 0.13855764 -0.0056751836 0.08001703 -0.104726374 0.04453863 0.16655037 -0.060379855
-0.08152862 -0.23882435 -0.03780159 0.15923148 -0.23711352 -0.020109188 0.18237667 -0.07176037
-0.09157023 -0.076158956 -0.10208098 0.030703286 -0.24151626 0.09580931 -0.06231986 -0.031071631
-0.01753263 0.1388444 -0.15604988 -0.22830455 -0.18157932 -0.18410024 -0.12248134 0.19829862
-0.19256152 -0.14776583 -0.20463866 -0.12483947 -0.006922409 -0.15325123 0.0034385412 0.08526863
-0.043300357 0.10705331 0.05765283 0.24224444 -0.01353791 0.2158815 0.18762447 0.11991001
0.14225726 -0.16826451 -0.16826095 0.107534006 0.089979425 0.22633405 -0.03176846 -0.046123993
0.17217949 0.00886203 0.23552129 -0.12834822 -0.082756236 0.011545154 0.13408118 -0.21989028
-0.070789956 0.18229482 0.05282941 0.17668945 -0.08386672 -0.15804178 -0.17144857 -0.14128783
-0.18712991 0.1246852 0.066436514 -0.16041273 0.22990298 0.07195381 0.09260089 -0.10610434
0.1723176 -0.17561357 0.18302593 -0.13664179 0.10694403 -0.08966691 0.16168968 -0.210511
-0.04952426 -0.06829427 -0.15031198 -0.12201051 -0.07092034 0.02523525 0.17672448 -0.040797137
0.24577157 -0.11973116 -0.12942475 -0.012263102 -0.046046533 0.07900357 0.2317477 0.086353
-0.21000476 -0.0861757 -0.049573585 -0.22708647 0.07805573 0.21746719 0.123353876 -0.0041834596
-0.018241275 -0.11785272 -0.028535282 0.22002442 -0.12927124 0.040796258 -0.18283175 -0.06819147

base_model.model.model.layers.0.mlp.gate_proj.lora_B.weight f4 [64, 16]
00000000: d02d 1dba 4fe5 8fba 2bba 8dba 9b5d f338
00000010: 8a59 8fba e0f5 85ba e93f 823a 6a4d 11ba
00000020: 740c 8f3a 941c 8b3a 6aa1 90ba dc82 863a
00000030: 7254 8f3a 6d40 733a 965d 8dba edde c0b9
00000040: 6bda 69ba 9d2b 8fba f65d 88ba c5ab 8cba
00000050: a832 8d3a 0a7b 5eba b87e 9eb9 32c2 8e3a
00000060: a91b 0d3a 7ea6 503a 2be6 02b9 5b63 8eba
00000070: fe60 8f3a 8e34 8aba 1d15 8eba 2aa9 843a
00000080: e3dd 903a d28c 8dba 5697 8fba 38e9 8dba
00000090: caea 89ba 407f 673a 2d48 8d3a 0dc5 8d3a
000000a0: e344 8bba baf4 8fba 22d3 8e3a a09d 90ba
000000b0: 97d5 8d3a 4bf9 8e3a 98ac 8cba ef24 66ba
000000c0: 6016 8dba 8d5e 8f3a 9a4e 903a bb8c 72ba
000000d0: 0281 8a3a b808 8bba 9675 8bba 5448 15ba
000000e0: 5769 8eba dd96 753a a2e7 8dba 124c 073a
000000f0: 5915 90ba 8081 833a 049f 8a3a 201e 893a
00000100: adb9 7c3a 467a 7bba d2f1 8e3a 2318 8eba
00000110: a8da aab9 431d 8dba 47e1 7aba 8582 86ba
00000120: 013a 8938 3205 443a e995 a039 7a5c 693a
00000130: dc2c 8e3a 263f ef38 d6dc 6dba 319b 513a
00000140: a2b8 8aba ebef 8bba c7c0 8eba 55a4 ae39
00000150: 1ec1 8eba 2e7a 8dba eb59 8bba 3354 8eba
00000160: 0e43 8cba 31ea 8eba d46d 82ba b078 ce39
00000170: 9225 8d3a 129c 313a f1de 8eba d9c3 42ba
00000180: 6807 893a 50d8 68ba 4bcd 8b3a 04dc 8dba
00000190: d471 813a 45ca 8fba 08cc 5d3a 7ca0 8d3a
000001a0: cd49 8c3a 3737 8d3a aeb4 8cba 74b8 78ba
000001b0: cbaa 323a 49a3 6c39 1af2 8f3a ead3 613a
000001c0: 4b42 853a 1a99 8a3a b157 8f3a d723 70ba
000001d0: 9ce0 543a ded4 8eba 90ec 89ba 34a7 76ba
000001e0: 337e 9e39 e008 8d3a 2482 023a 14b6 8d3a
000001f0: 1b93 8aba 4c69 7f3a e8f9 8e3a 7607 f339
00000200: 7432 8aba 59e8 8e3a 61d6 8f3a 5d01 803a
00000210: 8561 8e3a 8702 8b3a 344e 23b8 60ef 0c3a
00000220: 415c 9d39 d7cb 8e3a 219d 713a a37b 8c3a
00000230: 2384 8eba 59df 89ba 4e1e 8f3a eff8 373a
00000240: 90a1 693a 1ed3 89ba 9e81 8eba d423 87ba
00000250: 0c62 8dba bcf1 e4b9 1f3c 2c39 eb6a 663a
00000260: c031 10ba 4f35 8fba 073c 8cba 5d62 48ba
00000270: d2db 8c3a 490c 0b3a a26f 8aba a375 67ba
00000280: d96c dd39 88d4 8d3a 0135 8f3a c45f 20ba
00000290: 7604 883a efe8 5bba de55 86ba 20f7 8fba
000002a0: c347 8fba d59a 8aba db54 8c3a 6ece 9ab9
000002b0: 9a83 8fba ddee 243a 9df7 2aba c9b5 813a
000002c0: 1c91 6aba 9ffc 87ba bb81 8fba 24e3 643a
000002d0: 78a9 77ba cae8 703a 158b ab39 ef82 063a
000002e0: 33eb 5f3a 5613 11ba dff7 89ba 8e9f d639
000002f0: 3477 fc39 787f 90b8 52c1 82ba 7904 7cb9
00000300: 6136 0e3a 0d25 90ba a606 8fba bb23 d4b9
00000310: fe90 8dba 65e5 61ba c061 fb39 33ef 82ba
00000320: e1ea 8e3a 69ff 5c3a b080 b539 02a9 143a
00000330: 9bca 903a 2293 8cba bf3e 8bba 152a 7aba
00000340: ce06 6e3a a11b 053a 811e 823a ca62 c3b9
00000350: 4067 c0b9 bf64 84ba 32bc 68ba f22e 5dba
00000360: 6c00 8fba 4204 8bba 22af 9939 875d 8eba
00000370: f00b ebb9 9b50 893a d15b 8cba b21e 7ab9
00000380: a2d6 2838 7aa2 8e3a d376 8f3a 6d39 6bba
00000390: 395f 8d3a 5062 08ba d170 82ba bd7f 90ba
000003a0: c06e 8fba e84e 8eba 1df3 8e3a 5841 75ba
000003b0: a0f7 8dba c84f 88ba 714c 89ba 60e6 8b3a
000003c0: 1c7e 90ba 170e 513a 83b3 7c3a 35b7 4c3a
000003d0: 7e21 a837 6827 90ba b4e6 0f39 fba6 87ba
000003e0: 5407 25ba c9a6 053a 9e72 8eba 0537 8b3a
000003f0: 6d7c 49ba c529 58ba a67f 90ba 5525 513a
-0.00059959013 -0.0010978373 -0.0010812929 0.00011604578 -0.0010936719 -0.0010220371 0.000993726 -0.00055428466
0.0010913746 0.0010613375 -0.0011034433 0.0010262388 0.0010935201 0.00092793145 -0.0010785337 -0.00036787186
-0.00089207914 -0.0010923032 -0.0010403979 -0.0010732344 0.0010772543 -0.0008486962 -0.0003023052 0.0010891615
0.0005382845 0.00079593796 -0.0001248351 -0.001086335 0.001093894 -0.0010544227 -0.0010840032 0.0010121216
0.0011052456 -0.0010799414 -0.0010955136 -0.0010826951 -0.0010522243 0.00088309124 0.0010778956 0.0010816172
-0.0010625388 -0.0010982968 0.0010896663 -0.0011033304 0.0010821101 0.0010908035 -0.0010732589 -0.0008779307
-0.0010764115 0.0010938213 0.0011009753 -0.0009252538 0.0010567012 -0.0010607457 -0.0010639902 -0.00056946767
-0.0010865134 0.00093684887 -0.0010826478 0.00051611767 -0.001099269 0.0010033101 0.0010575955 0.0010461248
0.0009640705 -0.00095931103 0.0010905808 -0.0010840934 -0.00032587838 -0.0010766167 -0.0009570312 -0.0010262287
6.543473e-05 0.0007477581 0.0003062927 0.0008902025 0.0010847109 0.000114081704 -0.00090737396 0.00079958426
-0.0010583589 -0.001067636 -0.0010891192 0.00033310303 -0.0010891294 -0.0010793859 -0.0010631656 -0.0010858834
-0.0010701136 -0.0010903535 -0.0009950944 0.000393813 0.0010768643 0.00067752704 -0.0010900182 -0.0007429696
0.0010454478 -0.0008882331 0.001066604 -0.0010823016 0.0009875842 -0.0010970315 0.0008460884 0.0010805274
0.0010703147 0.0010773902 -0.0010734999 -0.0009487935 0.0006815611 0.00022567542 0.0010982186 0.00086146465
0.0010166852 0.0010574192 0.0010936168 -0.0009160614 0.00081206276 -0.001089718 -0.0010522772 -0.00094090705
0.00030230134 0.0010760091 0.0004978499 0.001081171 -0.0010572405 0.00097431685 0.0010908218 0.0004635413
-0.0010543601 0.0010902985 0.0010973924 0.0009766031 0.0010862803 0.0010605612 -3.893506e-05 0.0005376246
0.00030014108 0.0010894489 0.00092168344 0.0010717999 -0.001087312 -0.0010518833 0.0010919066 0.000701799
0.00089123193 -0.0010515188 -0.0010872369 -0.001031036 -0.0010786667 -0.00043667655 0.00016425595 0.0008789736
-0.00055005774 -0.0010925921 -0.0010699042 -0.0007644052 0.0010746664 0.000530426 -0.0010561834 -0.000882948
0.00042233503 0.0010820786 0.001092583 -0.0006117786 0.0010377306 -0.0008388897 -0.0010248979 -0.0010983683
-0.0010931421 -0.0010574708 0.0010706441 -0.0002952697 -0.0010949255 0.0006291697 -0.00065218826 0.0009896095
-0.00089480146 -0.001037497 -0.0010948697 0.00087313564 -0.0009447555 0.0009189962 0.00032719286 0.0005131205
0.00085418223 -0.00055341923 -0.0010526142 0.00040936138 0.00048154 -6.890198e-05 -0.0009975827 -0.00024034259
0.0005424973 -0.001099737 -0.0010912016 -0.00040462412 -0.0010800657 -0.00086172513 0.0004794728 -0.00099895
0.001090374 0.0008430393 0.0003461889 0.0005670936 0.0011046709 -0.0010725001 -0.0010623558 -0.0009543014
0.00090799935 0.00050776644 0.0009927304 -0.00037266902 -0.0003669802 -0.0010100825 -0.0008878141 -0.00084374764
-0.001091016 -0.0010606127 0.00029312918 -0.0010861614 -0.00044831587 0.0010476293 -0.0010708516 -0.00023853293
4.0254214e-05 0.0010882162 0.0010945447 -0.00089730957 0.0010785825 -0.0005202638 -0.0009951835 -0.0011024397
-0.001094304 -0.0010857256 0.0010906194 -0.0009355745 -0.0010831244 -0.0010399753 -0.0010475052 0.0010673515
-0.0011023912 0.0007974817 0.00096397864 0.00078092824 2.0042757e-05 -0.0010998072 0.00013723486 -0.0010349447
-0.00062953425 0.00050984 -0.0010867899 0.0010621255 -0.00076860824 -0.000824597 -0.001102437 0.000797828

base_model.model.model.layers.0.mlp.up_proj.lora_A.weight f4 [16, 16]
00000000: d815 c6bd c4c9 6bbd cd09 03be 9c86 3b3e
00000010: 015a c53c 202f 80bd 7dfd e6bd 437f 64be
00000020: ba84 8c3c a9c9 613e 772f 293e 4011 4a3e
00000030: b7a9 2f3e 331c d93d 31e9 02bc 9a2b 3ebe
00000040: 6d03 3d3e e6f0 34be 4121 1abe e214 cf3d
00000050: 6665 0d3e 1c11 06be fb46 213e aa6b 70be
00000060: 743b 773d 226d e03d bdf9 3a3d 05ca 10be
00000070: 05a9 2dbe 466a 4d3e df0b 603d bf72 ddbd
00000080: b060 773e cbf8 58bd 487b 40bd e156 853d
00000090: 0cf0 553e 4a79 e5bd e032 003a f35d e7bd
000000a0: 6745 e6bd 48dd 0ebd d3d6 88ba be09 0a3e
000000b0: 2709 40be 8e4b 153e 30cc 483e 2a19 eabc
000000c0: e35c bdbc daa1 793d 2922 6bbe dd29 3d3e
000000d0: 5bff 31bd 180c 183c 5f3a f43d 1362 d63d
000000e0: 415a ebbd 21c6 3cbe 8dcd 77be 9cbb 55be
000000f0: 5ffe 58bd 468e 47be 1a6c c8bc 4e7b 06be
00000100: 41c4 113e feed 2f3e 4f6d 593e 7dae 28be
00000110: 266f 35be 2a38 b33d 46a6 66bd 1c56 413e
00000120: 70ae 6bbe 1130 6e3e b8d1 30be 0e0c 4ebe
00000130: 60e0 d2bc 7d74 e4bd 912d 22be 7b73 113e
00000140: 9218 463e c44f 0f3e f0e0 fa3c b485 16bd
00000150: de67 0cbe 58ce 743e 0291 0abe ff42 61be
00000160: 237a 583e 6ab3 9ebc 76cc 2c3e 7a86 a8bd
00000170: f055 473e 6b4c 35be b3cc 1a3e 4efc 473e
00000180: 83c4 31bb 8788 2a3e 7b10 1e3c 7730 6bbe
00000190: 43fa e03d 34ad 47be 2243 0d3c 030e 67be
000001a0: 645d f5bd 7ded 96bd 6867 c5bd faec 7cbe
000001b0: 48ae fcbd 8e9a 6cbe 54cf 56be 4f15 80be
000001c0: 03b8 12be 045b 62bd 6c6f 673e b9ef 34be
000001d0: 5cef 41be 94fa 50be 534f 703e 3433 06bd
000001e0: cedd 89bd 2c2d 0d3e c071 16be 54f0 88bd
000001f0: 6260 6b3e fc27 093e a36e 47be 9c59 8ebd
00000200: 3054 c93c a465 b73d f7ac ebbd 830a 343e
00000210: 1ba9 993b f12f 5ebe 714b 893d e142 79be
00000220: 3c04 953c 900f 7ebe c79d 93bd 2ad8 6abd
00000230: bdc9 66be ee5a 8fbd 9727 163c 3254 10be
00000240: 2686 143d 28ea 073e 2635 f83c 340f 7cbe
00000250: 273a edb9 374c efbd c59a 933d ed2f 4ebe
00000260: 09ef 31be 1c30 f6bb f46d 143e e159 8abd
00000270: e09a 4bbc de15 cabc 790e 49be 9d6e a8bc
00000280: b394 cdbb 6ab2 2a3d b3b5 e53d 58e6 963d
00000290: 9d83 0f3e 24d7 40bd 4eb6 debd 601f 5a3e
000002a0: 2254 4b3e c034 0c3e 224e 3b3e 5626 f93d
000002b0: d406 633e 818e 5f3e 38ef 50be 8c08 72be
000002c0: 5d95 05be 3d2f 443e 58d9 673e 7e14 8c3c
000002d0: fcf4 3dbe 4d3c f2bd 73f4 f43d 2d31 6e3e
000002e0: a1a3 493d 6c03 29be 1b0f 723e e08f 613e
000002f0: 943f e2bd 3300 0bbe 2ff0 133e 043b 38be
00000300: f28e 563e 1fe7 4bbd 0692 2cbb 388c 09be
00000310: 33df 7dbe 6702 683d 4dfb b7bd 21ed 16be
00000320: c717 4c3e 0b3b 3b3d 47be 8abd e9ea 6cbe
00000330: 526e 10be c190 a5bd d049 d83d 7015 6abe
00000340: 163c 143e b2ac 693e 63a7 9e3d 4a94 7dbe
00000350: f3aa 023d 5903 cdbd 2198 a33d cf88 25bc
00000360: 5a1a fc3d fd42 a4bc 1d89 353d c599 cd3d
00000370: e267 3ebe 418e 273d 39ef 643e d687 333e
00000380: e4fb 823c 1eec 30bd e553 d53d bdeb 61be
00000390: 29dd 9bbd 9fcc 5e3e 4405 073d 2a33 83bb
000003a0: 2147 4abe 3813 25be 6e81 103d 7724 41be
000003b0: 8f0e 95bd c5db fdbd 7a14 9f3d 025d 1f3d
000003c0: a1b8 76be e1c3 a93d 8e1c b8bc e59b f9bd
000003d0: e901 3d3e 393e 29be 6345 6abe d1d1 e43c
000003e0: 83d0 0bbe eb3d cebd 5f0f 5fbe 92d9 80bd
000003f0: 1d27 4c3e 43b4 67be ebef 2dbe 9547 63bd
-0.09672135 -0.057565466 -0.12796707 0.18313068 0.024090769 -0.062589884 -0.11278818 -0.22314171
0.017153133 0.22049583 0.16522013 0.19733143 0.17154585 0.10601082 -0.0079901675 -0.1857132
0.18458338 -0.1767002 -0.15051748 0.10111405 0.13808212 -0.13092464 0.15749733 -0.2347857
0.060359433 0.109583154 0.045648325 -0.14139564 -0.16959007 0.20060071 0.05469882 -0.10812902
0.24157977 -0.052971642 -0.04699257 0.065107115 0.20892352 -0.11204775 0.00048903935 -0.11297216
-0.11243706 -0.034879 -0.0010439999 0.13480279 -0.18753491 0.14579603 0.19609141 -0.028576452
-0.02311558 0.06094537 -0.2296225 0.18473001 -0.043456417 0.009280227 0.11925196 0.10467925
-0.11491824 -0.18434955 -0.24199505 -0.20872349 -0.052976962 -0.19487867 -0.02446561 -0.13132975
0.14235021 0.1718063 0.21233104 -0.16472812 -0.17718181 0.08750947 -0.056310914 0.18880504
-0.23015761 0.23260523 -0.17267501 -0.20121786 -0.025741756 -0.11155031 -0.15837695 0.14204209
0.1934531 0.13995272 0.030624837 -0.036748603 -0.13711497 0.23906839 -0.13531879 -0.21998213
0.21140341 -0.01937266 0.1687487 -0.08228774 0.19466376 -0.17704932 0.15117149 0.1952984
-0.0027125187 0.16653644 0.009647484 -0.22967707 0.10985234 -0.19499665 0.008621963 -0.22563939
-0.119807035 -0.07369516 -0.09638864 -0.24699774 -0.12337929 -0.23105833 -0.20977527 -0.25016257
-0.14328007 -0.05526258 0.22601098 -0.17669572 -0.18938965 -0.20408088 0.2346776 -0.032763675
-0.06731759 0.13786763 -0.1469183 -0.06686464 0.22985986 0.13394159 -0.19475798 -0.069506854
0.024576277 0.08954933 -0.115076 0.17582135 0.0046893484 -0.21697976 0.067038424 -0.24341919
0.018190496 -0.24810624 -0.07207828 -0.057335056 -0.22537895 -0.06999765 0.009164712 -0.14094618
0.036260746 0.13272917 0.03029878 -0.24615175 -0.0004524749 -0.11684459 0.07207254 -0.2013547
-0.17376341 -0.0075130593 0.14495069 -0.06755424 -0.012427062 -0.02466863 -0.19634427 -0.020560557
-0.00627383 0.041674055 0.11216297 0.07368153 0.1401505 -0.047080174 -0.108746156 0.21301031
0.19856313 0.13691998 0.18291524 0.12165515 0.22170573 0.21831705 -0.20403755 -0.23636073
-0.13045259 0.19158645 0.22641504 0.017099615 -0.18550485 -0.11827908 0.119606875 0.23260947
0.049228314 -0.16505212 0.23638575 0.2202754 -0.11047283 -0.13574295 0.14447092 -0.17991263
0.20952967 -0.04978096 -0.0026332154 -0.13432395 -0.24792175 0.056642916 -0.08983479 -0.14738895
0.19930945 0.045710605 -0.06774574 -0.23136486 -0.14104584 -0.0808425 0.105609536 -0.2285974
0.14476046 0.22819784 0.0774677 -0.24763599 0.03190131 -0.10010404 0.07988001 -0.0101034185
0.12309714 -0.020051474 0.044320215 0.10039095 -0.18594316 0.04090715 0.22356881 0.17532286
0.015989251 -0.04319393 0.10416392 -0.22062583 -0.07610542 0.21757744 0.032964006 -0.004003902
-0.19753696 -0.16120613 0.035279684 -0.18861566 -0.072781675 -0.12395433 0.077675775 0.03890706
-0.24093868 0.08289314 -0.022474553 -0.12187938 0.1845776 -0.16527642 -0.22878031 0.02793208
-0.1365376 -0.10070404 -0.21783207 -0.06291498 0.19936796 -0.22627358 -0.16986053 -0.055488188

base_model.model.model.layers.0.mlp.up_proj.lora_B.weight f4 [64, 16]
00000000: 13ce 8c3a 5a3d 8f3a 9e25 8a3a 104c 8dba
00000010: 756e 7aba fb16 87ba 8b70 8c3a 319c 853a
00000020: c330 8c3a f0dd 8f3a 6aec 8a3a 9acf 6e3a
00000030: 8d4c 813a c383 18ba be04 8bba 949e 80ba
00000040: f6ce 8f3a dd33 76ba fe87 85ba 0600 f0b9
00000050: e188 87ba 2eb3 5e3a 01b7 8eba 15d4 61ba
00000060: 5430 60ba 1573 8fba a166 8f3a 0ef1 8c3a
00000070: 9fdb 85ba f8f7 8dba 142e 8fba 0fc3 84ba
00000080: 641b 8eba 15a8 833a 13f2 8f3a 20c2 8c3a
00000090: fdef 8fba 2e01 8dba de2d 90ba 7b96 8fba
000000a0: eb58 8f3a 1502 90ba 985c 8fba 3584 4bba
000000b0: 6af9 8bba c395 443a 4902 8aba 5a50 42ba
000000c0: f0c0 20ba 59fb 8d3a 3f0d 8b3a 094e 70ba
000000d0: 13b5 833a ada6 55ba 6af4 8e3a 7619 8c3a
000000e0: 4f5f 883a cee0 8e3a cce1 5bba 38ec 88ba
000000f0: 54a6 8e3a 7171 823a 4b68 8c3a b565 fb38
00000100: 5e5d 853a 02a6 86ba 00da 8cba 54de 8bba
00000110: 3e6b 8d3a 8e4b 883a b493 863a 2b9a 893a
00000120: 7ddd 8bba 2c90 8e3a f6e3 2039 4595 fe37
00000130: a061 76ba b1ab 9f39 38b2 803a 028f 2a3a
00000140: 051b 8eba 843c 76ba 002e 85ba 4ec7 8d3a
00000150: 6bca 85ba 53ee 5a3a 3f2b 89ba bd93 89ba
00000160: 2d1e f2b9 534b 8dba 1535 8eba e466 8cba
00000170: db00 84ba c6f1 71ba 4ca7 5d39 f415 eb39
00000180: 993e 353a 16f3 8c3a 2e75 8e3a 1dbf 533a
00000190: dd10 8eba e95f 86ba f852 86ba 2c78 8fba
000001a0: c127 8d3a 807f 8cba 6d88 86ba c969 5f3a
000001b0: 72dd 343a 858f 8e3a b07b 8eba a4bf 8dba
000001c0: c6a1 793a 652e 8dba 718d 8fba 073a 6d3a
000001d0: 1e15 3b3a be66 b6b9 6692 89ba 7890 8b38
000001e0: 5718 8bba e2b5 90ba d1f9 703a 605a 33ba
000001f0: 3859 82ba 2692 90ba 9697 4e3a 79a6 8e3a
00000200: 70ba 843a 33e5 3fba eef5 6bba 98ce 833a
00000210: 7b7a 873a 0718 87ba c5e0 833a 948c 8e3a
00000220: 9e64 883a b738 8a3a 8b30 66ba ec3f 8e3a
00000230: 47a4 7cba 8bf3 003a 19e8 86ba 93e9 85ba
00000240: 9239 883a 3605 9fb9 a480 8cba 9ea0 77ba
00000250: 2e1c 8d3a 3af0 f338 9485 8d3a dd18 8f3a
00000260: 7796 8aba b400 903a f632 8f3a 569c 68ba
00000270: a48a 83ba 312a 8cba 1d5e 7cb9 8a8b 793a
00000280: 3fb6 b4b9 9652 8c3a c31a 903a e44d 6f3a
00000290: 48b6 483a b876 8a3a 3fc9 8a3a 10b4 e736
000002a0: 3b7f 8f3a a1c0 8f3a db88 8cba fffe 8c3a
000002b0: 2cd1 8c3a 0a9f 903a efc5 62b8 27ae 8fba
000002c0: fdde 633a b7e8 8aba 8e2d d938 36a4 5fb9
000002d0: 1718 8eba 0e60 8d3a 6bc2 86ba 3925 8fba
000002e0: 06b3 5eba 4a2e 8bba 75b6 8eba 2553 77ba
000002f0: d358 653a ab79 8e3a 8241 8b3a a9de 14ba
00000300: 16a3 8eba afe9 3c39 932f 8d3a 12a3 8e3a
00000310: 2484 033a 621b 8a3a e76c 8d3a ed02 87ba
00000320: 8c07 8e3a 5ad7 8bba 7c02 8fba 7918 8f3a
00000330: b5e4 8d3a 0369 8f3a 9b03 8a3a 8bbb 6fba
00000340: 4859 7d3a 4921 6c3a 9a6f 4839 d99a 803a
00000350: 3983 36ba 178a 89ba ba92 8c3a 92b6 e039
00000360: a29c cc38 5d1d 883a 9015 783a 4e1e 8cba
00000370: 7b7a ef38 7eb1 8eba b8b8 5bb9 9f8a 8d3a
00000380: 675f 82ba 7b0f 87ba fe63 8c3a ce15 2dba
00000390: e7e4 8bba d8d3 6f3a 39d4 86ba aaca 8bba
000003a0: c0d3 46ba fcbd 8cba c628 89ba 09cb 50ba
000003b0: db14 e037 209e 8c3a 7c3d 703a 7939 5f3a
000003c0: 6cb3 89ba 395c 113a 6f5f 8d3a 3332 8f3a
000003d0: fb59 8fba ec34 ff39 e2de 8eba 6db7 8eba
000003e0: c4e3 8c3a 11af 8fba 1fbf 8fba 05aa 823a
000003f0: e1f9 86ba 8168 853a c370 8dba 5027 87ba
0.0010742567 0.0010928318 0.0010539775 -0.0010780115 -0.00095532025 -0.0010306531 0.0010714693 0.0010193643
0.0010695684 0.0010976177 0.0010599021 0.00091099145 0.0009864733 -0.0005817974 -0.0010606272 -0.0009812885
0.0010971713 -0.00093918835 -0.0010187624 -0.00045776385 -0.0010340476 0.0008495328 -0.001088828 -0.00086146715
-0.00085521233 -0.0010944331 0.001094062 0.0010752992 -0.0010212547 -0.0010831347 -0.0010923767 -0.0010128933
-0.0010841903 0.0010044599 0.0010982178 0.0010739006 -0.0010981556 -0.0010757798 -0.0010999998 -0.0010954881
0.0010936534 -0.0010986949 -0.0010937629 -0.0007763536 -0.001067919 0.0007499123 -0.0010529245 -0.0007412486
-0.00061322656 0.0010832354 0.0010608806 -0.00091669016 0.0010048471 -0.0008150142 0.0010906581 0.001068874
0.0010404381 0.0010900737 -0.00083878334 -0.0010446375 0.001088331 0.0009952021 0.0010712234 0.00011987557
0.001017492 -0.0010272863 -0.0010746121 -0.0010671117 0.0010789407 0.0010398494 0.0010267408 0.0010498216
-0.0010670867 0.0010876707 0.00015343711 3.0348669e-05 -0.00093987025 0.00030454763 0.0009818738 0.0006506295
-0.0010841793 -0.0009393173 -0.0010160804 0.0010816844 -0.001020742 0.0008351553 -0.0010465159 -0.00104963
-0.0004618032 -0.0010779895 -0.001084956 -0.0010711816 -0.0010071056 -0.00092294475 0.00021138525 0.0004483905
0.000691393 0.0010753598 0.0010868663 0.00080774893 -0.0010838766 -0.0010251972 -0.0010248115 -0.0010945848
0.0010769294 -0.001071915 -0.0010264047 0.0008522538 0.0006899453 0.0010876512 -0.0010870602 -0.001081456
0.00095227023 -0.0010771273 -0.0010952187 0.0009049479 0.00071366306 -0.00034790294 -0.0010495901 6.654946e-05
-0.0010612112 -0.0011040533 0.0009192499 -0.0006841775 -0.0009944802 -0.0011029884 0.00078808644 0.0010883353
0.0010126363 -0.0007320225 -0.0009001185 0.0010056077 0.0010336185 -0.0010306843 0.0010061493 0.0010875636
0.0010405963 0.0010545467 -0.0008781037 0.001085279 -0.00096375163 0.0004919103 -0.0010292559 -0.0010216705
0.0010393134 -0.00030330726 -0.001071949 -0.0009446236 0.0010765844 0.000116318886 0.0010797256 0.0010917444
-0.0010573406 0.0010986538 0.0010925222 -0.00088733935 -0.0010035825 -0.0010693726 -0.00024067653 0.0009519389
-0.0003446806 0.0010705765 0.0010994304 0.0009128733 0.00076565566 0.0010563945 0.001058854 6.9052985e-06
0.0010947952 0.0010967442 -0.0010721938 0.0010757147 0.001074349 0.0011033725 -5.406694e-05 -0.0010961936
0.00086925906 -0.0010597919 0.000103558516 -0.0002132811 -0.001084092 0.0010786073 -0.001028133 -0.0010921127
-0.00084953045 -0.0010618654 -0.0010888117 -0.0009434692 0.00087488926 0.001087 0.0010624381 -0.0005678931
-0.0010882344 0.00018016131 0.0010771625 0.0010882339 0.0005016944 0.0010536725 0.0010789902 -0.0010300555
0.0010835989 -0.0010669038 -0.0010910775 0.0010917328 0.0010825606 0.001094133 0.0010529639 -0.00091450725
0.0009664488 0.00090076454 0.00019115061 0.0009811773 -0.0006962303 -0.0010493424 0.001072488 0.00042860635
9.756653e-05 0.0010384728 0.0009463662 -0.0010690184 0.00011419222 -0.0010886637 -0.0002095428 0.0010798759
-0.0009946645 -0.0010304296 0.0010710952 -0.00066026754 -0.0010673077 0.00091486936 -0.0010286636 -0.0010665257
-0.0007584654 -0.0010737772 -0.0010464422 -0.0007964825 2.6712592e-05 0.0010728277 0.00091644353 0.0008515339
-0.0010505742 0.0005545053 0.0010785888 0.0010924995 -0.001093685 0.0004867682 -0.0010900164 -0.0010888405
0.0010749032 -0.0010962208 -0.0010966993 0.0009968883 -0.0010297858 0.0010178239 -0.0010791052 -0.0010311399

base_model.model.model.layers.0.self_attn.k_proj.lora_A.weight f4 [16, 16]
00000000: 30b7 38be 1dbe 7cbd 19a4 c0bc 921f 0fbe
00000010: 27cc 3dbe cef4 2c3e 176e 2e3e 79d2 67be
00000020: a763 a13d 02b9 d13d 4bf5 733e 79cc 133e
00000030: 4117 6c3e f930 a9bd ee04 333e 2403 513e
00000040: 4d64 72be cdba 4cbe 37a6 4c3d 2820 0b3e
00000050: 3bb7 ffbd 7fc0 e63c e98c 5d38 4e85 803d
00000060: 4f3a 0abe 9314 113e aadc 2a3e c454 32be
00000070: 9ad4 453b 1e78 6db8 97bd a53d 1a44 6f3e
00000080: 3010 953d 39c1 65bd e962 653e af22 c4bd
00000090: 6ded 95bd 7d8f 903c 9f5d 42be 7f56 df3c
000000a0: 1557 2ebe 9c42 d83c c703 c73c f681 0c3d
000000b0: 88e8 57be 02df 73be 01f7 ec3d 0943 5c3e
000000c0: ea78 62be 2826 bf3d df29 3dbe 9314 763c
000000d0: 166c 6d3e 2400 433e 31ca 3bbe aa11 1f3e
000000e0: 9e19 053e 7ced a239 18b3 783e 53bf ccbd
000000f0: a34a 6bbd ce1e 02be 96ce 143d 041e 893d
00000100: 3da7 9d3c 22c9 10be 90df e6bd 3f19 af3d
00000110: 2f05 60be d256 22bd 6bb8 ccbb 1cee d0bd
00000120: 15e0 bb3d 686c 7c3c be0c 333e e9aa b4bc
00000130: 0b5b 22be 57a9 353e d393 113d 4a1f 94bd
00000140: e168 29be e045 723d e764 74be 1ad3 853d
00000150: 7415 fc3d d9db 60be 0efb 26be ff6e 38be
00000160: 6faa 563e fa4a 5a3e 2514 7e3c 4979 703e
00000170: e56f acbd 843d 79be 373a b43d 1ce5 b63d
00000180: dd9c 7a3e a293 48ba 32f2 443e 1c7b 1d3e
00000190: 2ef0 393e e9be 7ebe c07e 533e cdde 59be
000001a0: ad40 653e b25a 32bc 5f95 63be 2fe3 8f3d
000001b0: 9c3f 53bd b6b7 66be d8aa babd 6af7 d43c
000001c0: f3ac 463e 90f2 9ebd c875 173e e2f5 013d
000001d0: a882 133c 61ec 403d 1db1 28be 7281 55be
000001e0: f76a 9fbd 6b3b 6fbe 0935 f0bd caae 323c
000001f0: d55c 29be cace d2bd 1f39 35bd e9e6 f1bc
00000200: 11f6 0dbe bec3 383c 0f96 0dbd 729e 933d
00000210: b939 443c 0c8a 00be fc6e b1bd c192 64bb
00000220: b534 1fbe 01d7 9a3c 3df9 94bc 379e c73d
00000230: 5fd8 6f3d a162 403e ac7b 11bc 37e2 3dbe
00000240: ad57 e63d a843 2cbe 193a 0abd 1608 a5bd
00000250: 750a c1bd 1630 bdbd 96fc 6b3e dc41 133e
00000260: 71a3 8d3d 4e02 713e 689b 67be cd41 283d
00000270: ac83 243e 6d3e 293e a574 4cbe a844 b73d
00000280: dd55 12be 50a3 2bbc 7961 58bd 0d6c 56be
00000290: 20d6 73be ac03 29be 12e4 e63d 4e03 e93d
000002a0: b02a 5fbe 73a2 c1bd 26c3 653b a31b 5ebe
000002b0: ec68 103e c49e 683e 48bc 363d 46f9 3ebe
000002c0: 6433 713d 3a6e bb3d 521d 4b3e f643 08be
000002d0: c3fb 65be 117a e23d 2de4 743c 058b a5bd
000002e0: f4f2 d6bd 5e48 03be 2001 503e 8aeb 32bd
000002f0: 1f5f 393e 46f0 633e 5c41 fe3c 0e55 583d
00000300: a274 86bc bea7 303e 574d 67be 1e4b ca3d
00000310: 899a 29bd 7e31 eb3d d123 fcb9 ec56 bdbd
00000320: 39f5 e2bc f6f6 0a3e 8827 31be f897 22be
00000330: 967d 62bd 0b4d bbbd 215f ca3d 9d00 2d3e
00000340: 9f18 d6bc 2cea 723e 669b d4bd 8b01 10be
00000350: 3f69 e6bd 98af 2fbe 16c5 32be 0664 63be
00000360: 439d 63be 171d 873d c6d8 1c3e 2005 713e
00000370: 1eb7 5a3e 7e72 78bc 3825 443d 9a61 18be
00000380: 3953 c73d 5167 75be 9da3 f23d e995 3e3d
00000390: 8969 9d3d 7fed bc3d 687b eabd 5f57 5c3e
000003a0: 58cb f53d f1cb 273e f58f 093d 8c7c 213e
000003b0: eead 2c3e 7327 e93d 2954 423e 7bd4 3bbd
000003c0: 260a 293e dabc 6d3d 7dbc 1a3e e80e 7a3e
000003d0: b87a 6a3d d910 bfbd 7ee1 c5bc 4b84 913d
000003e0: c61a 2f3d d6f5 8abd 0024 493e 2a83 1a3e
000003f0: bcd9 1ebe 95d4 abbc 885e cabc 9d29 21be
-0.1803863 -0.061704744 -0.023515748 -0.13976887 -0.18534909 0.1689026 0.17034183 -0.22638883
0.07880335 0.102403656 0.2382404 0.14433469 0.23055746 -0.08261294 0.1748235 0.20411354
-0.23671074 -0.19993134 0.049963202 0.13586485 -0.1248612 0.028167961 5.282174e-05 0.06275426
-0.13498805 0.14168005 0.16685739 -0.17415148 0.0030186535 -5.661707e-05 0.08092802 0.23365822
0.07278478 -0.056092475 0.22401012 -0.09576928 -0.07320676 0.017646546 -0.18981026 0.027262924
-0.17025407 0.02639895 0.024293793 0.034303628 -0.21084797 -0.2381554 0.1157055 0.21509947
-0.22116438 0.093334496 -0.18473004 0.015019554 0.23185763 0.19043022 -0.18338849 0.15534082
0.12998053 0.00031075987 0.24287069 -0.0999743 -0.057444226 -0.12707064 0.03632983 0.06695178
0.019244784 -0.14139226 -0.1127311 0.08549737 -0.21876977 -0.03963358 -0.0062475703 -0.10201666
0.091736 0.015406705 0.1748533 -0.022054153 -0.15855043 0.1774038 0.035541367 -0.072325304
-0.16543914 0.05914867 -0.23866616 0.06534405 0.12308779 -0.21958865 -0.16306707 -0.18011092
0.20963453 0.21317664 0.0155077325 0.23483767 -0.0841978 -0.24339873 0.08800166 0.08930418
0.24473901 -0.00076513935 0.19233015 0.15378994 0.18158028 -0.24877514 0.2065382 -0.21276398
0.22387953 -0.010885881 -0.2222495 0.07025754 -0.051574335 -0.22531018 -0.09114617 0.025996882
0.19401912 -0.07761109 0.14791024 0.031728633 0.009003319 0.04710043 -0.16473813 -0.2085016
-0.07784074 -0.2336251 -0.11728866 0.010905931 -0.16539319 -0.10293348 -0.044243928 -0.029529052
-0.13863398 0.011277137 -0.034566935 0.072079554 0.011976653 -0.1255266 -0.08663747 -0.0034877511
-0.1554745 0.01890135 -0.018185252 0.09746974 0.058555957 0.18787624 -0.008879583 -0.18543325
0.112471916 -0.16822684 -0.033746812 -0.08058183 -0.09425823 -0.09237687 0.23045573 0.14380592
0.069159396 0.23536035 -0.22617877 0.041078378 0.16065854 0.1652772 -0.19966371 0.08948642
-0.14290567 -0.010475948 -0.052827332 -0.20939656 -0.23812151 -0.16505307 0.1127397 0.113775834
-0.21793628 -0.09454813 0.0035058944 -0.2169023 0.14102525 0.22716814 0.044613153 -0.18649778
0.0588869 0.091518834 0.19835404 -0.13307175 -0.2245932 0.110584386 0.0149469795 -0.080831565
-0.104955584 -0.12820575 0.20312929 -0.04368166 0.18102692 0.22259626 0.031037025 0.05281549
-0.016413037 0.17251489 -0.22588097 0.09877609 -0.04140714 0.11484049 -0.0004809187 -0.09245095
-0.027704822 0.1357077 -0.17300236 -0.15878284 -0.05529555 -0.09145554 0.09881426 0.16894765
-0.026134787 0.23722142 -0.103812024 -0.14063089 -0.11250543 -0.17156827 -0.17457995 -0.22206125
-0.2222796 0.06597345 0.15317068 0.23537111 0.21358916 -0.015164016 0.047887057 -0.14880982
0.0973267 -0.23965193 0.11847613 0.046529684 0.07686145 0.09224986 -0.11449319 0.21517704
0.12001675 0.16386391 0.033584554 0.15770167 0.16863224 0.113844775 0.18977417 -0.045856934
0.16507778 0.05804143 0.15110965 0.24419749 0.05724594 -0.09329385 -0.024155375 0.07105311
0.042750143 -0.06785171 0.19642639 0.15089098 -0.15512747 -0.02097539 -0.02470328 -0.1573853
