apps/api/fine_tuned_models/f6cd1253-b42f-47c6-8db1-9ba246f6a7d4/checkpoint-10/adapter_model.safetensors (safetensors, 27024 bytes, 28 tensors)

base_model.model.model.layers.0.mlp.down_proj.lora_A.weight f4 [8, 64]
000000 be 34 53 bd 98 65 c2 3c c0 3b ca 3d cf 32 09 bc
       -0.05156397 0.023730084 0.09874678 -0.00837393
000010 ea d0 5f 3c 25 90 24 3c f4 1f 9f ba a6 12 98 3d
       0.013660649 0.010044132 -0.001214026 0.07425432
000020 31 18 8c 3d c0 ba 8a bd 02 dd f2 3d 91 ea 94 3d
       0.06840552 -0.06773901 0.1185856 0.072713025
000030 c7 00 9b bc 0a 6a e0 3d 81 9a c2 3b ea 29 a0 3d
       -0.01892127 0.10957725 0.0059388285 0.078204945
000040 34 f3 da bd 3a 1c e7 3d aa de f2 3d 3f d2 c0 bd
       -0.106909186 0.11284681 0.11858876 -0.09415101
000050 cd 82 e3 bd 19 20 18 bd 60 fc 9e bd 8c 0d 0c 3d
       -0.11108933 -0.037139986 -0.077629805 0.034192607
000060 2a d1 60 3d be fe 88 bc 24 16 b5 3d cb 68 b5 3b
       0.054886974 -0.016723033 0.088421136 0.005536174
000070 ad 4b 13 bd 29 96 da bd a2 a9 25 3d 51 c8 f2 bd
       -0.035960842 -0.10673172 0.040444978 -0.118546136
000080 f8 c2 0a ba a4 d8 9b 3c de 13 8e bd 6f d6 18 3d
       -0.0005293335 0.0190242 -0.06937383 0.037313875
000090 13 6f cd 3c 78 ed ab 3d 3a 85 a1 3d 39 c3 d0 bd
       0.025077378 0.08394903 0.07886739 -0.10193486
0000a0 e5 6c bf bd d1 a9 38 bd 57 ba b9 bd e6 45 1d 3d
       -0.09346942 -0.045083825 -0.09068745 0.03839674
0000b0 bb 54 a9 bd 0c 8a c3 bd db ee 14 3d 10 11 9c 3d
       -0.08268114 -0.09547815 0.036360603 0.07620442
0000c0 a9 e3 11 bd 29 7d fe bd e0 96 96 3c dc 83 84 3d
       -0.035617504 -0.12426216 0.01838249 0.06470463
0000d0 36 89 c9 3d dd 57 42 3c c8 8b b1 3d ec 89 e6 bd
       0.09840624 0.011861769 0.08669239 -0.11256775
0000e0 66 5e f3 3d 7a b1 a3 bd 7a 1d ad bd 09 43 b9 3d
       0.118832394 -0.07992835 -0.08452888 0.09045989
0000f0 d1 01 ea bc 39 58 9c 3d c8 58 b4 bd 19 4f c3 3d
       -0.02856532 0.07634015 -0.08805996 0.09536571
000100 a7 65 f4 3d 51 1c 1e 3d 7e eb cc 3d 17 0a b6 bd
       0.11933451 0.038601223 0.10005854 -0.08888643
000110 80 88 e8 bc f5 99 1e 3d 00 46 92 3d 38 48 8a bd
       -0.0283854 0.038721044 0.07142258 -0.06752056
000120 33 82 a4 3d d9 6f 2b bd 86 33 8a bd 78 9e ce 3c
       0.08032646 -0.041854713 -0.067481086 0.025222048
000130 ea 6d cd bd cf 5a e9 bd f0 a6 2c 3d 34 25 2b 3d
       -0.1003073 -0.113942735 0.04215139 0.041783527
000140 1d a2 45 3d ef 5d 80 bc c3 a2 b9 bd cd 2c cf bd
       0.048250306 -0.015669791 -0.090642475 -0.10115967
000150 c2 84 f6 3d b4 69 dc bd 18 0b 1d 3d e7 81 d1 3d
       0.1203704 -0.10762349 0.038340658 0.10229855
000160 0c 2e c5 3d 68 04 a3 bd 3c cd 24 bd 73 20 cb bd
       0.09627923 -0.07959825 -0.04023479 -0.099182986
000170 a5 26 a2 3d 91 9e f1 bd b8 20 ea bd 20 7d ac bd
       0.07917527 -0.11797822 -0.11432022 -0.08422303
000180 c6 52 cf 3d bf 81 a7 3d e8 13 ad 3d 5d d4 c2 3d
       0.1012321 0.08179044 0.084510624 0.09513161
000190 2c 96 6b bd 4d af 8e bd d3 1e 9e bd 61 76 2a 3d
       -0.057516262 -0.0696703 -0.07720723 0.0416168
0001a0 72 0c 45 3d e2 6e da 3c 35 5a c3 bd e6 07 29 3c
       0.048107572 0.026664201 -0.0953869 0.010316825
0001b0 3c 77 89 bd 70 96 cb bc cd 31 9d bc 22 52 e5 3b
       -0.06712195 -0.024852008 -0.019188786 0.0069983164
0001c0 f1 f0 df bd 13 22 dc 3d 5c b1 56 bd d8 eb 22 3d
       -0.10934628 0.10748687 -0.052415237 0.0397757
0001d0 4a b0 b1 3d 52 0e 4d 3d bd c5 b1 3d 9a 0e 8f 3d
       0.086762026 0.050062485 0.08680294 0.06985207
0001e0 42 d3 bc 3d 00 74 de 3c 70 03 a5 3d 5a 60 5b bd
       0.09219982 0.027154922 0.08057296 -0.053558685
0001f0 b3 8c 8b bd ec c0 77 3d ad ae 04 3d ed 06 80 bb
       -0.068139456 0.06048672 0.032393146 -0.0039070756
000200 4f 8e d9 bd 88 e1 24 3d 47 6e a7 3d 2e ec 66 bc
       -0.10622846 0.040254146 0.081753306 -0.014094396
000210 ec a6 f1 3c 62 55 63 3d 37 73 fe bd df 39 a2 bc
       0.02949854 0.05550135 -0.12424319 -0.019802986
000220 10 2a 41 bd c1 72 84 bd c3 09 9e 3d f0 3b fc 3d
       -0.047159255 -0.064672 0.07716706 0.1231612
000230 bc eb a9 3c 7b b7 9d 3d 00 76 bf bd dd f0 ba 3c
       0.02074229 0.07701012 -0.093486786 0.02281993
000240 72 3a 89 bc f5 6b 9f bd d9 7f cb 3c 74 07 26 3d
       -0.016751502 -0.07784263 0.024841236 0.04053445
000250 3c 17 ad bb 3a 51 56 3d ae 06 73 3d 69 cb e9 3d
       -0.005282311 0.052323557 0.059332542 0.114157505
000260 1b b9 d3 3b 35 a6 ab 3b 92 2c 00 bb 39 be 93 3c
       0.0064612753 0.0052383193 -0.0019557816 0.018035041
000270 51 97 a7 bd 93 4e 84 bc d3 00 da bd b7 fa b1 bd
       -0.08183158 -0.016150748 -0.106446885 -0.08690398
000280 ce 77 d8 bd 57 4a bc 3d 63 b1 94 bd a8 72 18 bc
       -0.10569726 0.09193867 -0.07260396 -0.00930468
000290 31 b5 4f 3c 48 e5 e1 3d c1 de 6a 3d 6e 6e b7 bd
       0.012677477 0.1103006 0.05734134 -0.0895661
0002a0 e3 fc fb 3d 0a e0 f0 bd 7c b7 7d 3c 48 6a e8 3d
       0.12304094 -0.11761482 0.015485641 0.113483965
0002b0 c2 93 df 3d 99 4f e7 bc 3c 51 ac bd 7c 98 5d 3d
       0.109168544 -0.028236197 -0.08413932 0.0541005
0002c0 27 75 c4 3d 4a 17 8a bd 39 45 a8 bc 33 15 9d bd
       0.095926575 -0.06742723 -0.02054082 -0.07670059
0002d0 e2 59 40 3d 1d 39 e0 3c bc 77 80 3d a5 d0 32 bd
       0.04696072 0.027370984 0.062728375 -0.04365601
0002e0 3e b0 f8 bd ce 7d 58 bd 47 3a c7 bd 78 01 fd bc
       -0.121429905 -0.05285435 -0.097279124 -0.03088449
0002f0 fe 48 3d 3d 78 97 d6 bd 49 ef d7 bb 2a e1 f8 bd
       0.04621219 -0.10478109 -0.0065898043 -0.12152322
000300 93 d8 b4 bd d5 c7 b4 bd c5 9c 31 bd 06 56 83 bd
       -0.08830371 -0.088271774 -0.043362398 -0.06412892
000310 cc 14 a4 3c 0a 14 9e 3d ab 5a c2 3d 8c 6b 24 3d
       0.020029448 0.07718666 0.0948995 0.040141627
000320 1f 15 d2 ba b5 88 b0 bc 82 3b ac 3d 28 2a 94 bd
       -0.0016028023 -0.021549562 0.08409788 -0.07234603
000330 c8 99 ba 3d e7 10 f5 bd 80 a5 c0 bd bc 8c 04 3d
       0.09111363 -0.119661145 -0.094065666 0.032360777
000340 c7 09 56 bd ec dc b8 3c f3 b0 e0 3d 8d 9c 6c 3d
       -0.05225542 0.022566281 0.109712504 0.057766486
000350 0e 31 fb 3d 97 de 5a bd 71 b7 77 bd 2a 3e 82 bc
       0.12265216 -0.053434934 -0.060477678 -0.015898783
000360 81 9e d4 bc fe 70 64 bd b9 d9 09 bc a6 d5 e8 3d
       -0.025954487 -0.05577182 -0.0084137255 0.11368875
000370 11 42 8d bd 5f 74 90 3d 68 6f 6c 3d 66 a7 92 3d
       -0.06897367 0.07053446 0.057723433 0.07160835
000380 6b 4f 0d 3d 06 2e 3a bd 7a 55 50 3d d0 0a 6e bd
       0.034499567 -0.045454048 0.050862767 -0.05811578
000390 14 b2 9c bd a6 a1 ef 3d ba 9d d2 3d ef a3 ba bd
       -0.07651153 0.11700754 0.1028399 -0.09113299
0003a0 e5 4d ce 3d 8a 3c d7 3c 6f 02 00 3d 8b 23 f8 3d
       0.10073451 0.026273984 0.03125232 0.12116154
0003b0 cf dc bd bb fd d9 25 bd 57 50 a1 3d b5 dd 01 bd
       -0.0057941447 -0.040491093 0.07876652 -0.031705577
0003c0 45 e3 f5 bc 22 50 4b bd e7 f6 fc 3d 39 e8 75 3d
       -0.030015597 -0.049636967 0.123517804 0.060035918
0003d0 f6 70 9f bc 54 e6 55 bb 44 db 17 3c e8 54 99 bd
       -0.019463044 -0.0032638507 0.009268586 -0.07486898
0003e0 73 4a 0e 3d c5 48 c5 bd c0 ec a7 bb 31 5a bb bc
       0.03473897 -0.0963302 -0.0051246583 -0.022870155
0003f0 69 0e 51 bd 55 27 eb 3d bc 69 12 3d 30 b5 76 3d
       -0.051039133 0.11482111 0.035745367 0.060231388

base_model.model.model.layers.0.mlp.down_proj.lora_B.weight f4 [16, 8]
000000 2d 36 76 3a f2 63 8f 3a 83 c6 8f ba a5 a1 f7 b8
       0.0009392228 0.001093982 -0.0010969195 -0.000118079864
000010 ef 61 8f 3a 71 b0 67 ba 54 10 7b 3a 74 25 90 ba
       0.0010939221 -0.00088382425 0.0009577323 -0.001099749
000020 e1 71 86 3a 6a 65 d8 b9 c6 e2 68 3a 02 ce 8c 3a
       0.0010257327 -0.0004127429 0.00088838895 0.0010742547
000030 b8 c1 32 b8 d6 7c 8e 3a 23 4b 8f 3a 53 19 75 ba
       -4.261892e-05 0.0010870944 0.0010932427 -0.0009349782
000040 e2 c9 8e ba 58 cf 62 ba 95 32 73 3a e6 75 59 ba
       -0.0010893906 -0.00086521124 0.00092772517 -0.00082954613
000050 b7 78 8e ba a4 77 b6 b9 63 40 8f 3a ad fb 8e 3a
       -0.0010869716 -0.00034802884 0.0010929223 0.0010908745
000060 b3 ba 6a ba ea a6 8f 3a 2a bd 8d ba eb 23 10 ba
       -0.0008954212 0.0010959778 -0.0010813822 -0.0005498516
000070 18 4b 75 3a 46 90 90 3a a4 7f 84 ba d7 51 8e ba
       0.0009357198 0.0011029325 -0.0010108841 -0.001085813
000080 2e 86 3a b9 7d c9 8c 3a c6 a8 8c ba b1 63 8d ba
       -0.00017788328 0.00107412 -0.0010731451 -0.0010787157
000090 8a e3 8d ba d3 f5 8c 3a c0 1c 90 ba e3 18 6f 3a
       -0.0010825258 0.0010754414 -0.0010994896 0.0009120835
0000a0 e2 13 8b 3a 43 b3 8f 3a 05 5c 7f ba f8 74 7f ba
       0.0010610784 0.0010963458 -0.000974119 -0.0009744908
0000b0 72 de 8d ba 05 39 b4 39 e9 e3 8f 3a 7c 37 8f 3a
       -0.001082374 0.00034374758 0.0010977957 0.001092657
0000c0 b2 dd 8c ba ef a9 06 ba eb bf 8e 3a 8b 49 7f ba
       -0.0010747223 -0.00051370164 0.0010890936 -0.0009738437
0000d0 62 34 80 39 04 4f c7 39 97 f9 30 3a 6e 30 8b 3a
       0.0002445309 0.0003801511 0.0006751059 0.0010619292
0000e0 ee 97 8e 3a 7f 3e 8f 3a f2 27 7b ba 28 ef 5f b8
       0.0010879019 0.001092866 -0.00095808425 -5.3390075e-05
0000f0 ef 8c 8c ba c6 5b 56 b9 6b 9a 33 ba e8 52 8f 3a
       -0.0010723154 -0.00020442819 -0.0006851318 0.0010934742
000100 dd 6d 87 3a 79 ab 8f 3a fc 53 8d ba de 0c c2 b9
       0.0010332424 0.0010961137 -0.0010782476 -0.0003701215
000110 5a 4f 12 3a e6 33 8b 3a 96 15 90 ba 06 d6 66 3a
       0.00055812823 0.0010620325 -0.0010992761 0.00088056957
000120 a8 91 95 39 f3 5f 8d 3a 57 31 89 ba d3 4c 29 3a
       0.00028528017 0.0010786041 -0.0010466975 0.0006458286
000130 e9 f7 85 ba c5 bf 8d 3a 4f ca 8f ba a5 1a 88 ba
       -0.0010220978 0.0010814598 -0.0010970327 -0.0010383917
000140 90 9d 81 ba 1a 3d 7e ba ca 43 89 ba 16 e6 44 ba
       -0.0009888876 -0.0009698436 -0.0010472473 -0.0007511092
000150 b6 a1 8c 3a 24 a5 68 ba 26 24 90 ba 13 0e 8e ba
       0.0010729346 -0.00088747055 -0.0010997101 -0.0010837935
000160 dd 44 89 ba d3 91 77 ba 96 5c 41 3a 42 9c 8e ba
       -0.0010472793 -0.0009444032 0.0007376162 -0.0010880309
000170 ee 0f 89 ba ea 93 8f ba 74 f4 8a ba 1c f8 8d 3a
       -0.0010457018 -0.0010954116 -0.0010601417 0.0010831389
000180 b0 38 8e ba 3e 2c 8f ba 00 b3 87 3a 62 c8 60 ba
       -0.0010850634 -0.0010923219 0.0010353029 -0.0008574781
000190 72 35 7e 39 4c 16 8d ba e4 68 8a 3a 8d 84 19 ba
       0.00024243238 -0.0010764091 0.0010559824 -0.00058562384
0001a0 8a 8b 4b 3a e9 4c 84 3a e4 8f 60 ba 6b df 8d 3a
       0.00077646284 0.0010093722 -0.0008566363 0.001082403
0001b0 8a 2b 65 ba 9e 7c 8e 3a aa ce 38 3a 3f cd 8f ba
       -0.00087421446 0.0010870879 0.00070498383 -0.0010971202
0001c0 f7 b1 3f 3a 86 62 8d 3a 3f c2 49 ba 79 50 88 ba
       0.00073125906 0.0010786809 -0.00076964864 -0.0010399959
0001d0 b8 6e 86 ba d5 a5 88 3a 92 da 86 3a b6 fa 8b 3a
       -0.0010256385 0.0010425398 0.0010288528 0.0010679576
0001e0 dd 9d 55 3a 9b b3 16 ba ac c6 47 ba f4 f7 f7 b9
       0.00081488286 -0.0005748809 -0.0007620852 -0.0004729625
0001f0 a3 63 87 ba 33 36 8e 3a 32 a0 90 ba 0e 3d 75 3a
       -0.0010329377 0.0010849893 -0.001103407 0.0009355106

base_model.model.model.layers.0.mlp.gate_proj.lora_A.weight f4 [8, 16]
000000 a9 df f5 3d 8b 61 8d 3d 5c 12 c3 bd a8 bb 1c 3e
       0.120055504 0.069033705 -0.09524986 0.1530596
000010 62 25 a6 bd c9 a9 07 bc 6d 6f c1 bd 45 a4 73 be
       -0.08112599 -0.008280226 -0.09445081 -0.23793133
000020 a6 2a 25 3d c1 cf 94 3d a9 39 01 be 1f 82 1d 3e
       0.040323876 0.072661884 -0.12619652 0.15381669
000030 73 74 66 be db 8e 77 be 1c 50 1d be 52 58 af bd
       -0.2250536 -0.24175589 -0.1536259 -0.08561768
000040 cd bd e9 bc f8 1d 49 bd ef 2d e8 3d 35 2c 60 be
       -0.028532887 -0.049100846 0.11336886 -0.21891864
000050 34 e4 19 3d bb 0e 69 3b fa 9e 85 3d 08 4b 7f 3e
       0.037571147 0.0035561759 0.06524463 0.24930966
000060 93 5c 1e 3e 98 8e 0e be d1 95 52 be 50 b9 74 bd
       0.15465002 -0.13921583 -0.20564963 -0.05974704
000070 e4 2e 01 be 4f 78 b3 3d 74 13 49 3b fc b1 4e 3e
       -0.12615544 0.087631814 0.003068176 0.20185083
000080 db ad ca 3d 69 7f 3f bd 3e 60 00 3c 80 15 72 3d
       0.098964415 -0.046752367 0.007835446 0.059102535
000090 9f 9e f7 bc a6 c7 4d 3e 33 f2 48 be 41 26 fb 3d
       -0.030227004 0.20095691 -0.19623642 0.12263156
0000a0 00 6e 22 be 50 13 61 be 55 69 55 bd a6 1f fb 3d
       -0.15862274 -0.21980023 -0.052102406 0.12261896
0000b0 53 ac 35 3e ea 1a 82 3d ad 5c b7 bc c0 8d 72 bc
       0.17741518 0.0635279 -0.022383058 -0.014804304
0000c0 55 08 ce bd 84 ff b7 bc bf f2 8a bc 26 1d 59 3e
       -0.10060183 -0.022460707 -0.016961453 0.21202525
0000d0 c2 a0 16 3e 89 a4 4d be f7 c7 8c 39 c3 b0 1c be
       0.14709762 -0.20082296 0.00026851866 -0.15301804
0000e0 85 ba 25 bd b9 a9 4b be 26 b7 86 3d 5b 0b 39 be
       -0.040461082 -0.19888963 0.065779015 -0.18070738
0000f0 a1 88 7d 3e 26 24 42 3e ab 06 31 be e0 d2 71 be
       0.24759151 0.18959102 -0.172877 -0.23615599
000100 5f 1f 13 3c cd 8b 90 bd 5e c2 94 3d 96 a2 2c be
       0.008979647 -0.07057915 0.07263635 -0.16858897
000110 8c a6 d2 3d d3 e9 5d be 27 ee 07 be 00 c4 05 be
       0.102856725 -0.21671228 -0.13274442 -0.1306305
000120 ef 5d f9 3d 29 6b f0 bb 4c d4 76 be 87 69 11 be
       0.121761195 -0.0073369932 -0.24104422 -0.14200412
000130 6e 84 ee bd 4b 50 6e be 85 4f 06 3d fe 07 b8 3d
       -0.11646353 -0.23272817 0.03279068 0.089858994
000140 d1 10 3f bd b0 61 cd bd 8f 05 15 bb 15 1a 4b be
       -0.046646897 -0.10028398 -0.002273891 -0.19834168
000150 60 18 1b be b8 42 c6 bb 56 9d 62 3e cd ce 9b bd
       -0.15146017 -0.006050434 0.22130331 -0.076078035
000160 52 66 ff 3d bf 20 cb bd f8 e8 89 bd 0f 46 73 be
       0.12470688 -0.09918355 -0.067338884 -0.23757194
000170 4b 54 53 3e 10 0c 7a 3e b2 c9 92 bb 0b 6e 23 3e
       0.20637624 0.24418664 -0.0044796104 0.15959947
000180 2f 2d 52 3e 42 e6 ff 3d b9 a5 04 3e 43 83 74 be
       0.20525049 0.1249509 0.12953843 -0.23878197
000190 84 5c 71 be 7c 89 44 be f9 a3 a1 3d 9c 3d 5e be
       -0.23570448 -0.19193071 0.078926034 -0.2170319
0001a0 19 2f 44 be 6e 9c f6 bd e2 b4 6c be 42 51 46 3a
       -0.19158591 -0.12041555 -0.23115876 0.0007565209
0001b0 4f 7e 15 3d f1 8b 16 be d0 6a 28 3e 06 ff c2 bd
       0.03649741 -0.14701821 0.16446996 -0.09521298
0001c0 0f b6 8e bd 22 d2 43 3e 5a 98 5c 3e 5a 48 e8 bc
       -0.06968319 0.19123128 0.21542493 -0.028354812
0001d0 2d 93 38 be 93 38 01 be b4 17 05 3d 29 42 15 3e
       -0.18024893 -0.12619238 0.03249331 0.1457602
0001e0 f0 76 fd 3d c2 1e e2 bd 75 08 72 be 2d ad 5f be
       0.12376201 -0.11041023 -0.23636039 -0.21843405
0001f0 1e 01 a3 bd b8 c6 80 3b 34 94 e7 bd 9e 3b 4b be
       -0.079591975 0.003929939 -0.113075644 -0.19846961

base_model.model.model.layers.0.mlp.gate_proj.lora_B.weight f4 [64, 8]
000000 76 20 86 3a d6 01 8f ba d4 83 83 ba 36 41 8a 3a
       0.0010233063 -0.0010910581 -0.0010033795 0.0010547999
000010 a1 92 8d ba f0 1b 6e ba 33 bd 84 3a d5 6e 85 3a
       -0.0010801145 -0.00090831425 0.0010127187 0.0010180125
000020 83 a1 82 3a c3 47 8f 3a c1 a0 89 ba a2 8e a0 39
       0.0009966347 0.0010931421 -0.0010500179 0.00030623848
000030 af 4b 8f 3a bf 0c e3 b9 6c 8b 84 3a 58 e8 7b 39
       0.001093259 -0.0004330631 0.0010112352 0.0002402378
000040 a6 ac 72 3a d5 38 90 ba 8e 0b 87 ba 90 43 80 ba
       0.0009257294 -0.0011003265 -0.0010303126 -0.000978576
000050 90 69 80 3a 71 82 30 ba a9 0a 82 3a 3e b0 8f ba
       0.0009797085 -0.00067333045 0.000992139 -0.0010962558
000060 cc 9a 8e ba 4d 96 8e 3a 9c 74 8d 3a f8 ba 8f 3a
       -0.0010879873 0.0010878533 0.0010792199 0.0010965755
000070 c4 91 1b 3a 4b 19 83 3a 9b 9f 90 ba 65 4e 80 ba
       0.00059345015 0.0010002045 -0.0011033894 -0.0009788988
000080 f0 af b7 39 ea bb 79 3a 03 f5 89 3a 09 5f 87 3a
       0.00035035564 0.00095265976 0.001052529 0.0010328005
000090 6b 8b 87 3a 03 f1 3c 3a 28 8a 8b 3a 79 cf 8a 3a
       0.0010341232 0.00072075444 0.0010646032 0.0010590396
0000a0 eb 0d 2f ba c7 2a 8e ba d7 92 53 3a 3f b0 83 3a
       -0.0006677794 -0.0010846489 0.0008070892 0.0010047032
0000b0 90 f6 8e ba 80 fb 6b ba 05 5f 37 ba 0a 64 89 3a
       -0.0010907222 -0.0009002015 -0.0006995055 0.0010482084
0000c0 6d dd 8b 3a 12 08 8e 3a 89 c1 10 ba 1c d0 1a b9
       0.0010670848 0.0010836145 -0.0005522003 -0.00014764111
0000d0 62 73 8a 3a 51 4a 64 3a 48 be 5f 3a 3d 2d 55 ba
       0.0010562951 0.0008708584 0.0008535129 -0.0008132046
0000e0 39 f7 9c 39 7e 23 8d 3a 2a 55 90 3a 8d 8a 82 3a
       0.00029938834 0.0010768024 0.0011011709 0.0009959504
0000f0 6d 69 82 3a d5 df 83 3a 16 4e 87 3a 4c 67 68 3a
       0.0009949632 0.0010061214 0.0010322954 0.000886549
000100 d3 22 8b ba 80 8a 8f 3a aa cb a7 39 77 2e 8c ba
       -0.0010615237 0.001095131 0.00032004464 -0.0010695
000110 32 0d 8e 3a 57 2b 90 3a 47 9c 8e ba b5 5d 64 39
       0.0010837673 0.0010999244 -0.0010880315 0.00021778683
000120 41 15 7d 39 08 10 90 ba f8 ae 8c ba 38 27 3b ba
       0.00024135878 -0.0010991106 -0.0010733297 -0.0007139328
000130 80 2c 8d ba 56 5d 43 ba 10 63 8b ba 8e c3 8c ba
       -0.0010770708 -0.0007452568 -0.0010634381 -0.0010739432
000140 24 2f 90 ba b8 96 8c 3a a3 ab 8f 3a 0e 25 90 3a
       -0.0011000377 0.001072607 0.0010961186 0.0010997371
000150 6e f2 81 ba 67 e5 89 3a 97 5a 90 ba 8a 27 87 ba
       -0.0009914169 0.0010520638 -0.0011013326 -0.0010311466
000160 de 1c 7c 3a f0 61 8c ba 1a 05 8f ba c4 49 80 ba
       0.00096173387 -0.001071034 -0.0010911555 -0.0009787609
000170 a9 35 84 ba 25 86 7a ba 59 c3 8d ba 84 e2 80 ba
       -0.0010086793 -0.0009556732 -0.0010815664 -0.0009833132
000180 44 1a 8c 3a da d1 83 ba ba 40 82 ba a1 21 8e ba
       0.001068898 -0.0010057047 -0.0009937503 -0.0010843762
000190 18 bb ae b8 69 a5 5f ba 1f 96 90 3a c0 21 8d 3a
       -8.3318155e-05 -0.0008531423 0.0011031068 0.0010767505
0001a0 66 38 8e ba ed 89 8f ba be 42 8f 3a 96 63 8f 3a
       -0.0010850548 -0.0010951139 0.0010929925 0.0010939713
0001b0 68 8a 8e ba 81 01 48 3a 27 ce 8a ba c5 2f 26 b9
       -0.0010874989 0.00076296186 -0.0010590003 -0.00015848789
0001c0 18 af 8f ba 32 4a 90 3a 1b 64 8f 3a 56 5e 8f 3a
       -0.0010962216 0.001100844 0.0010939868 0.0010938148
0001d0 95 0e 62 3a b5 51 4a 3a ba 04 90 ba 0c fb 81 ba
       0.0008623389 0.0007717864 -0.0010987737 -0.0009916737
0001e0 bd 85 8d ba 9f 18 20 b9 28 70 88 3a 71 e5 8f 3a
       -0.0010797303 -0.00015267961 0.0010409402 0.0010978413
0001f0 75 7b 8f ba 1b a9 42 3a 19 e3 8e ba 62 19 69 3a
       -0.0010946827 0.00074257114 -0.0010901421 0.0008892027
000200 c8 43 87 ba 6b 4e bf b9 01 35 6b ba 4f 69 8e ba
       -0.0010319883 -0.00036488785 -0.0008972437 -0.0010865125
000210 8f c8 81 ba dd df 48 3a 49 9c 8d ba 15 a0 8d ba
       -0.000990169 0.0007662753 -0.0010804023 -0.0010805154
000220 5b 4a 35 ba 37 f4 8e ba fa 79 7e 3a c3 08 89 3a
       -0.0006915682 -0.0010906522 0.0009707507 0.0010454882
000230 2f a7 8e ba c4 26 8d ba 42 be 7e ba f1 af 49 ba
       -0.0010883565 -0.0010768999 -0.00097176817 -0.0007693759
000240 a0 7b 18 3a b8 b8 8e 3a ca 3c 87 b9 c3 0c 8f ba
       0.00058167614 0.0010888791 -0.00025794498 -0.0010913837
000250 09 c8 8a 3a 6a 6b 7b 3a 13 51 8d 3a b6 83 17 b9
       0.001058818 0.0009590896 0.0010781608 -0.00014449548
000260 9b 38 5c 3a d4 2e cb 39 ba 8d 86 3a ad e0 8c ba
       0.0008400769 0.00038754067 0.0010265626 -0.0010748111
000270 72 10 8a ba be 53 40 ba cb 30 bb 39 a8 52 87 ba
       -0.0010533466 -0.00073366973 0.00035703773 -0.0010324316
000280 f5 44 88 ba 17 77 8f 3a 56 d2 8a 3a 7d eb 0d ba
       -0.0010396527 0.0010945526 0.001059125 -0.00054138136
000290 a1 88 8e 3a 03 e8 8b 3a 38 db 85 ba ba 4a 87 ba
       0.0010874459 0.0010674003 -0.0010212427 -0.0010321953
0002a0 6b 86 34 ba 89 3c 8f ba 80 35 79 3a 9f 23 8b 3a
       -0.0006886485 -0.0010928075 0.00095065683 0.0010615474
0002b0 56 75 8e ba 21 c4 b8 b9 7b 88 8e 3a c9 97 8a 3a
       -0.0010868709 -0.00035241342 0.0010874415 0.00105738
0002c0 db a7 8f ba 22 e9 8f 3a da 81 8d 3a a0 bf 48 ba
       -0.0010960059 0.0010979513 0.0010796145 -0.0007657949
0002d0 17 d6 8d 3a 5c f2 20 3a 6c 3d 86 ba 1b d0 78 ba
       0.001082125 0.000613963 -0.0010241694 -0.00094914594
0002e0 8b 07 82 ba c6 ed 8e 3a a4 bd 5d 3a 7e 39 74 ba
       -0.0009920461 0.0010904602 0.00084587396 -0.00093164283
0002f0 a0 69 8f 3a f8 8c 8e 3a b2 68 b8 b9 e2 74 8e ba
       0.0010941513 0.0010875752 -0.0003517322 -0.0010868574
000300 cc d5 8b 3a be 38 8c ba 43 66 87 ba b7 c8 68 ba
       0.0010668575 -0.0010698063 -0.0010330159 -0.00088800065
000310 dd 2d 87 3a b6 17 bf 39 45 fc 45 3a 58 20 65 3a
       0.0010313351 0.00036448025 0.00075525447 0.00087404763
000320 9e 33 f5 39 fa 2a 59 3a 21 92 37 b8 e0 b9 8f ba
       0.000467685 0.0008284297 -4.3766693e-05 -0.0010965429
000330 0f 86 33 3a ae 75 96 39 69 02 8e 3a 2d 97 7f ba
       0.00068482844 0.00028697908 0.0010834459 -0.0009750005
000340 09 b2 75 3a 40 69 36 ba 20 78 8a ba c6 41 90 ba
       0.00093725376 -0.00069584325 -0.0010564364 -0.001100593
000350 a4 24 56 ba 88 f8 85 ba bc f0 69 ba f9 5a 8d ba
       -0.0008168912 -0.0010221163 -0.0008924117 -0.0010784558
000360 ea f3 ac 39 bb de 8f 3a 22 b1 76 3a 56 6b 86 ba
       0.00032988127 0.0010976413 0.000941055 -0.0010255377
000370 06 61 8f 3a 14 6c c9 39 53 58 8e ba d6 1c 85 ba
       0.0010938949 0.00038418232 -0.0010860063 -0.0010155689
000380 3d 92 78 3a a4 d9 43 3a 01 30 12 ba 79 cf 8d ba
       0.00094822404 0.00074710906 -0.0005576611 -0.0010819278
000390 d0 76 5b 3a a0 97 5b 39 c3 47 85 3a f2 a1 8d ba
       0.00083718915 0.00020941952 0.0010168481 -0.001080571
0003a0 6e c3 de 39 59 30 85 ba 8a c6 8a ba 4a 16 0e 3a
       0.00042488746 -0.0010161503 -0.0010587734 0.00054201914
0003b0 b3 68 71 3a 98 52 d2 39 f4 75 8f ba 86 12 c2 b6
       0.0009209022 0.00040115858 -0.0010945187 -5.783807e-06
0003c0 e1 28 75 3a e7 6f 1c 3a c5 52 06 b8 13 9d 8c 3a
       0.00093521 0.00059676025 -3.2025175e-05 0.0010727964
0003d0 d0 b5 82 ba 66 3b 11 b9 10 df 96 39 02 ba 8e 3a
       -0.0009972397 -0.00013850405 0.00028776424 0.0010889175
0003e0 a9 2d cd b9 38 e5 8b 3a 21 41 84 ba a4 da 63 ba
       -0.00039134666 0.0010673171 -0.0010090211 -0.0008691943
0003f0 09 84 8c 3a 2b fc 2e 3a 95 53 8f ba 04 2a 8a ba
       0.0010720502 0.0006675149 -0.0010934944 -0.0010541086

base_model.model.model.layers.0.mlp.up_proj.lora_A.weight f4 [8, 16]
000000 e4 28 4d 3e eb ba 84 3c 41 53 9e bc f2 e4 47 3e
       0.2003513 0.01620241 -0.019326808 0.1952093
000010 1d 2a e0 3d 57 a0 72 3e 1d 9c 4f 3e f6 a5 28 be
       0.109455325 0.23693977 0.20274396 -0.16469559
000020 4a cc 1e 3e 13 66 01 3e 85 91 36 be 81 84 f7 3d
       0.15507618 0.12636594 -0.17828949 0.1208582
000030 47 c8 05 be e7 4d 19 be f7 cc b2 3b ee 3a f5 bc
       -0.13064681 -0.14971124 0.0054565626 -0.029935326
000040 2e 88 88 bd b6 16 27 be 87 d2 0c 3e e3 74 7e 3e
       -0.06666599 -0.16317257 0.13752185 0.24849276
000050 1a b1 5f bd de e1 2c be e6 86 47 bc 50 38 5f be
       -0.054612257 -0.16883036 -0.012178158 -0.21798825
000060 9f b2 50 be c1 f4 a8 bd ac a7 21 3e 2b ed 44 be
       -0.20380639 -0.08249808 0.15786618 -0.19231097
000070 a0 45 20 bd d6 c9 04 be 3d 87 6c be 2d af 69 bd
       -0.0391289 -0.1296762 -0.23098464 -0.057051826
000080 1a 95 63 bc 4f ff 28 bd 79 ed 3b 3e bc 7b cb 3d
       -0.013890529 -0.041259106 0.18352307 0.0993571
000090 65 2f 20 3e 57 25 ca 3d e0 ac dc 3c 03 2c 0a 3e
       0.1564308 0.09870403 0.026937902 0.13493352
0000a0 97 1e 24 be 0b 3d 03 3e c2 7a f5 3d 70 e7 da bd
       -0.16027294 0.12816255 0.11986305 -0.106886744
0000b0 f2 07 00 bc bc 49 42 be 51 d2 60 be 13 19 85 ba
       -0.007814394 -0.1897344 -0.2195523 -0.0010154567
0000c0 91 29 3a 3d 5f ae 59 bd 15 c7 9f 3d 94 6f 46 be
       0.045449797 -0.05314481 0.07801644 -0.19378501
0000d0 39 85 0d be 16 7e 31 3e 34 d5 79 be 5e ee 1e 3d
       -0.13820352 0.17333254 -0.24397737 0.038801543
0000e0 11 4a 44 3e 53 b6 40 3e f1 40 b0 3d 6d fd 69 be
       0.19168879 0.18819551 0.086061366 -0.2285058
0000f0 7d f8 06 3d 99 5f b5 bd 2a 7a 91 bd ac eb 44 3e
       0.03295182 -0.088561244 -0.07103379 0.19230527
000100 ba 9c af bd 47 9c 36 be 1f 4b 4e be 49 6f 22 3e
       -0.08574815 -0.17833053 -0.20145844 0.15862764
000110 fa a1 38 3c aa a6 7d 3e 3a a5 54 3d d9 54 6f be
       0.011269087 0.24770609 0.051915385 -0.2337221
000120 8c 0e 7d 3d bf 04 6b 3e 8b 07 1e 3e e9 10 9b 3d
       0.06178145 0.22951029 0.15432565 0.07571585
000130 be 24 41 be dd 4e 1a be 54 a1 2e 3e 5f 5f 2a be
       -0.18861672 -0.15069146 0.1705373 -0.16637944
000140 62 b8 6c 3d ee 0e 00 bd 91 2b ad 3d 47 4c 8c 3c
       0.05779303 -0.031264238 0.08455575 0.017126216
000150 4c cb 43 be be 8e cd bd 24 fa 5f 3e 21 a5 ea 3c
       -0.1912052 -0.100369915 0.21872765 0.028643193
000160 8d 48 02 3e 43 7b 01 be df 74 4b 3e b8 ef 57 bd
       0.12722988 -0.12644677 0.19868802 -0.052718848
000170 ef fd ac bd 7a f5 52 3d ad 00 b9 bd 48 5d cf bd
       -0.084468715 0.051503636 -0.09033332 -0.10125214
000180 d3 bd 15 bd ea f5 75 bc cb 39 12 be 1c 99 b0 3d
       -0.036557984 -0.015012244 -0.14279859 0.08622953
000190 3c eb 78 be 4d a1 1c 3e 47 38 6e 3e cb ca 28 3d
       -0.24308485 0.15295906 0.23263656 0.041209023
0001a0 e7 03 6c bd 4f 35 6b be c7 d1 ee 3d 66 91 52 3e
       -0.05762091 -0.22969554 0.116611056 0.20563278
0001b0 d3 0e 5a 3e 7b 46 b0 3c 81 d7 ab 3d 1c 1c 76 3e
       0.21294717 0.021517983 0.083907135 0.2403416
0001c0 ad c9 1a 3d 68 0a f7 bd 61 d6 73 be bb 4b de 3d
       0.03778999 -0.12062532 -0.23812248 0.10854288
0001d0 db 0e c9 3d 6f 4e 64 3e fb 21 03 be 48 86 dd 3d
       0.098172866 0.22295545 -0.12805931 0.10816628
0001e0 84 03 ab bd ae a6 7b bd f9 2c 16 3e e2 79 6b be
       -0.0835028 -0.061438255 0.14665593 -0.22995713
0001f0 fc 82 3d 3e 52 a8 ef 3d 03 f6 18 be c0 d4 01 3e
       0.18506998 0.117020264 -0.14937596 0.12678814

base_model.model.model.layers.0.mlp.up_proj.lora_B.weight f4 [64, 8]
000000 4a 92 2e 39 08 1c 8f 3a cb 7e 1d 39 ec ed 87 ba
       0.0001664843 0.0010918388 0.00015019921 -0.0010370589
000010 f6 6c 4c 3a 3e 26 8f 3a 72 42 8c ba 62 71 8e ba
       0.0007798219 0.0010921431 -0.0010700955 -0.0010867531
000020 c9 0e 8f ba c8 1a 8e ba 2b be 8f ba 10 ff 5a ba
       -0.001091444 -0.0010841722 -0.0010966709 -0.00083540473
000030 66 db 7d 3a e5 a0 31 3a 84 21 8d 3a 5d f3 88 3a
       0.0009683877 0.00067759893 0.0010767435 0.0010448504
000040 f5 b5 8f 3a a1 ad 85 ba c6 df 8e ba 65 fb 8e ba
       0.0010964262 -0.001019884 -0.001090043 -0.0010908662
000050 d1 6d ae 36 91 74 6f ba 30 7c 8d 3a 67 a0 89 ba
       5.1983884e-06 -0.0009134496 0.0010794457 -0.0010500074
000060 11 af 53 ba 94 0f 8e 3a 50 72 55 3a fe f1 df 37
       -0.0008075098 0.0010838383 0.0008142339 2.6696358e-05
000070 81 e8 48 39 20 55 8e 3a b1 ea 8c ba 7e b7 8e ba
       0.00019160101 0.001085911 -0.0010751096 -0.0010888425
000080 ab 8a 75 ba d7 8c 7e 3a 2b 16 8f 3a 3d 88 8f 3a
       -0.00093666714 0.0009710318 0.0010916641 0.0010950636
000090 cd 4a 89 3a 9e e6 90 ba e6 e0 4d ba 11 bd 7d 3a
       0.0010474563 -0.0011055057 -0.0007853642 0.0009679357
0000a0 b1 a1 13 3a 69 a2 8a ba bb db 8b ba 17 91 c9 39
       0.0005631699 -0.0010576966 -0.0010670343 0.00038445808
0000b0 6b 05 a8 b7 18 ed 8b ba 9c 98 85 3a 47 64 8e 3a
       -2.0029684e-05 -0.0010675518 0.0010192576 0.0010863625
0000c0 d3 66 8e 3a be 1a 61 ba c6 6e 8d ba b8 77 8f ba
       0.0010864384 -0.0008587054 -0.0010790459 -0.0010945713
0000d0 9f 87 8e 3a af 82 8f 3a 11 06 8b 3a 70 b9 8f ba
       0.0010874158 0.0010948981 0.0010606666 -0.0010965299
0000e0 8c 45 8e ba b1 f4 6b 3a f9 d2 89 3a 19 35 8d 3a
       -0.0010854467 0.00090010004 0.0010515145 0.0010773271
0000f0 0c 2d 6e 3a 2e f8 8f ba 26 ac 88 ba d9 d1 8f 3a
       0.0009085692 -0.0010983997 -0.0010427281 0.0010972574
000100 03 02 90 3a a7 e4 8e 3a 74 a2 8b 3a b2 01 90 ba
       0.0010986928 0.0010901884 0.0010653273 -0.0010986833
000110 2b 23 8e 3a 6b 79 83 3a 7b ea 86 3a a2 78 8f ba
       0.0010844221 0.0010030692 0.0010293269 -0.0010945986
000120 96 e8 10 ba 57 7b 8e 3a c2 77 8f 3a fc 0b 88 3a
       -0.0005527822 0.0010870498 0.0010945725 0.0010379548
000130 ae 2a 74 ba 82 ce 8c 3a bd 31 8b ba 74 15 8e 3a
       -0.0009314221 0.0010742696 -0.0010619682 0.0010840134
000140 e5 95 8f 3a 43 08 9a b9 b3 55 86 ba 26 8b 8d ba
       0.0010954706 -0.00029379324 -0.0010248929 -0.0010798916
000150 3b ae 90 3a 28 c5 8e 3a e3 e9 88 3a 0f a2 8f ba
       0.0011038253 0.0010892497 0.001044568 -0.0010958331
000160 10 f5 d1 b9 ed 34 8f ba 5b bc 8a ba 4c fc 88 3a
       -0.00040046172 -0.0010925807 -0.0010584699 0.0010451167
000170 ff 44 8e 3a e0 40 90 ba 32 4f 8b 3a 64 4d 88 3a
       0.0010854303 -0.0011005662 0.001062846 0.0010399041
000180 0e d6 8e 3a 60 51 86 ba c2 9c 8b ba f3 8b 8e ba
       0.0010897534 -0.001024764 -0.0010651576 -0.0010875448
000190 5f 16 8f 3a 66 11 83 ba c5 20 8a 3a a8 44 90 ba
       0.0010916701 -0.0009999692 0.001053833 -0.0011006789
0001a0 28 e8 8e ba 22 2f 8a 3a 0e d3 26 3a e6 a8 84 ba
       -0.0010902928 0.0010542611 0.0006363847 -0.0010121136
0001b0 f8 e9 23 ba 56 25 8f ba 6d 13 90 ba 49 90 8d 3a
       -0.00062528206 -0.0010921161 -0.0010992117 0.0010800447
0001c0 97 fd 7b ba f7 8b 8e ba 65 12 8b ba 1c b9 c4 39
       -0.0009612678 -0.0010875453 -0.001061034 0.0003752195
0001d0 05 8c 8b b9 8c ae 8e ba fa fa 85 3a 58 45 78 ba
       -0.0002661647 -0.0010885759 0.0010221892 -0.0009470782
0001e0 58 0c 90 3a 58 80 8c ba db b5 8e ba e8 6a 8e ba
       0.0010990007 -0.0010719402 -0.0010887937 -0.0010865601
0001f0 af a7 8e 3a e3 04 8c ba dc 72 8f 3a 85 cb 8e ba
       0.0010883714 -0.0010682609 0.0010944265 -0.0010894394
000200 10 67 8b 3a c7 37 88 3a 88 9c 8f 3a 03 b1 8b 3a
       0.0010635573 0.00103926 0.0010956684 0.0010657612
000210 65 af 8a 3a c6 2c 88 ba 50 c0 d4 b9 ed 64 8c ba
       0.0010580836 -0.001038932 -0.00040579075 -0.001071123
000220 02 b2 36 3a c3 4a 90 3a c8 39 8f 3a 59 db 8c ba
       0.0006969274 0.0011008609 0.0010927254 -0.0010746523
000230 80 c3 8a 3a 27 35 8e 3a de 13 8e ba 59 9c 8e 3a
       0.0010586828 0.0010849581 -0.0010839661 0.0010880335
000240 a5 c0 8f 3a 7d 74 84 ba 7f 83 8c ba 04 01 76 ba
       0.0010967447 -0.0010105517 -0.0010720341 -0.00093843066
000250 d2 2c 8e 3a 38 7e 87 3a 8c 86 8e 3a ef 50 8f ba
       0.0010847098 0.0010337299 0.0010873838 -0.0010934154
000260 87 fd 8b 3a bc 5a 87 ba 4e 07 cf 39 8c ea 10 39
       0.0010680415 -0.0010326724 0.0003948756 0.00013820286
000270 b6 04 88 3a 33 1e 80 ba f6 fc 8c 3a 6a 79 72 ba
       0.001037738 -0.0009774625 0.001075654 -0.00092496595
000280 79 be 89 3a 16 40 6c 3a 37 f7 8b 3a 44 93 73 3a
       0.0010509036 0.0009012235 0.0010678534 0.00092916586
000290 19 33 82 3a 37 73 87 3a 30 f0 6e ba 27 3d 8c 3a
       0.0009933441 0.0010334019 -0.000911477 0.0010699377
0002a0 91 43 8c 3a e5 18 a6 39 23 30 89 3a bc 39 8d ba
       0.0010701289 0.00031680535 0.0010466616 -0.0010774652
0002b0 80 38 86 ba 7d c4 8a 3a 92 17 8b 3a cb 82 8f ba
       -0.0010240227 0.0010587123 0.0010611883 -0.0010949014
0002c0 21 04 8e 3a d2 d5 83 3a 2a 0f 89 3a 3e f2 8f 3a
       0.0010834971 0.001005823 0.001045679 0.0010982228
0002d0 0b 61 8f 3a 99 ce 8f ba 20 41 b5 b9 8f 2e 7c ba
       0.0010938955 -0.0010971605 -0.00034571532 -0.0009619975
0002e0 0d 58 7c ba de 35 90 3a 2f fa 88 3a 26 22 8a 3a
       -0.00096261577 0.0011002382 0.0010450537 0.0010538741
0002f0 e7 9d 74 3a ea fb 27 3a 37 bd 8f ba 22 4d 8f 3a
       0.00093313906 0.00064080826 -0.0010966425 0.0010933022
000300 31 52 84 ba 83 0e 8d 3a 4b e5 89 3a 32 0c 84 ba
       -0.0010095296 0.0010761771 0.0010520605 -0.0010074435
000310 06 0a 6b 3a 79 35 8e 3a 22 c7 73 ba fb 6a 8f 3a
       0.0008966032 0.0010849676 -0.00092993875 0.0010941917
000320 4d 4c 8e ba e0 e6 fe 37 9e f8 8b ba af 7f 8e ba
       -0.001085648 3.038667e-05 -0.0010678952 -0.0010871793
000330 8a 8c d5 b9 43 9c 8e ba 2d c1 7a 3a 4a 11 ea 38
       -0.00040731236 -0.001088031 0.00095655286 0.0001116121
000340 cf 8b 8f 3a 65 0e 8d 3a 6e 53 8d 3a 5c ef 83 ba
       0.00109517 0.0010761736 0.001078231 -0.0010065841
000350 25 80 89 3a de 9a 8b 3a ab 4f 41 ba 06 ec 8d ba
       0.001049046 0.0010651012 -0.0007374237 -0.0010827787
000360 7c 49 47 3a 78 8f 8f 3a c7 39 8f 3a 1a b4 8c ba
       0.00076021976 0.0010952791 0.0010927253 -0.0010734827
000370 a7 47 8c ba 98 55 8f 3a 3b 1b 8a ba 0c 62 61 ba
       -0.0010702506 0.0010935543 -0.001053668 -0.0008597679
000380 00 e0 8e 3a 41 ee 8b ba eb 7f 43 ba 71 6b 8e 3a
       0.0010900497 -0.0010675864 -0.0007457721 0.001086576
000390 1f 24 8a 3a b2 c5 83 3a 03 ef 8f 3a 47 61 8f ba
       0.0010539329 0.0010053425 0.0010981265 -0.0010939025
0003a0 58 9d 8f 3a 2d e6 8c ba 29 a6 8e ba f4 4a 90 ba
       0.0010956926 -0.001074975 -0.001088326 -0.0011008666
0003b0 ff 2d 8f 3a d3 df 88 ba 0a 8b 8f 3a 75 6c 8f ba
       0.0010923742 -0.0010442681 0.0010951471 -0.0010942357
0003c0 1d 07 8e 3a 41 c5 8d ba 76 a4 90 ba e2 9b 8e ba
       0.001083586 -0.0010816233 -0.0011035341 -0.0010880197
0003d0 6c c1 df b9 71 f6 44 b9 1e c9 8c 3a 85 30 87 ba
       -0.00042677985 -0.00018783823 0.001074109 -0.0010314143
0003e0 3b ef 8f 3a e7 f7 57 ba 79 a7 8e ba 45 1f 8b ba
       0.001098133 -0.00082385394 -0.0010883651 -0.0010614177
0003f0 d1 ad 87 3a 79 cd 8d 3a ff 8b 88 3a e1 b8 8e ba
       0.0010351484 0.0010818682 0.0010417699 -0.0010888838

base_model.model.model.layers.0.self_attn.k_proj.lora_A.weight f4 [8, 16]
000000 1c 1f 4e 3d 26 a0 70 be b7 d7 5e 3e 59 f4 20 3e
       0.050322637 -0.23498592 0.21761976 0.15718211
000010 8f 16 7a be bd 03 f6 bd d8 93 a5 3d d0 69 55 bd
       -0.24422668 -0.12012432 0.080848396 -0.052102864
000020 b3 94 d9 bc 44 c1 e8 bd b0 f3 4c 3e c3 cd 0f be
       -0.026560163 -0.113649875 0.20014834 -0.14043336
000030 b6 91 53 3e 24 6c 8a 3c 82 d7 50 3d a6 fa 46 3e
       0.20661053 0.016897269 0.050986774 0.19431552
000040 17 f7 25 bd 4b 01 11 be c9 51 26 bd 7a 87 4f 3e
       -0.040518846 -0.1416065 -0.04060534 0.20266524
000050 1f 80 3e be eb 76 6b 3d a6 17 7c be 66 ec 06 3e
       -0.18603562 0.057486456 -0.24618396 0.13176116
000060 3b 79 bd 3d 2d 6c 39 3c b5 f0 dc 3d ff c1 65 3a
       0.092516385 0.011317295 0.10788099 0.00087645644
000070 f4 57 0e 3e 18 60 4b be 67 43 18 bd 4a 96 e4 3d
       0.13900739 -0.19860876 -0.037173655 0.11161478
000080 c5 5b 7f 3e f5 a4 01 3e 7a 9c 39 be b3 95 45 3e
       0.24937351 0.12660582 -0.18126097 0.19295387
000090 b8 e4 61 bd 82 9a 5c bd a9 46 69 be a0 81 1f bd
       -0.055149764 -0.053858288 -0.22780861 -0.03894198
0000a0 3e cc 35 3e b2 c8 0b 3d 40 73 15 be 03 f6 9e 3d
       0.17753693 0.034126945 -0.14594746 0.07761767
0000b0 76 70 a5 bd 35 7f 6a 3e 95 eb 5e be af 3c a3 bd
       -0.08078091 0.22900088 -0.21769555 -0.07970559
0000c0 d1 78 76 be 69 1b c8 bd a0 d4 a2 3d e8 1c 77 3e
       -0.24069525 -0.09770853 0.07950711 0.2413212
0000d0 22 e9 2b 3d 08 b4 7b 3e 13 47 4b 3d 13 95 14 3e
       0.04197038 0.24580395 0.04962833 0.14509992
0000e0 1a d5 4d 3e 7d c5 56 3e b9 9f 0e be eb 1d 6c 3e
       0.20100823 0.20973773 -0.13928117 0.23058288
0000f0 15 af 1b 3e 65 e6 f0 bd 03 d5 f5 bd ad 0c 56 be
       0.15203507 -0.11762694 -0.120035194 -0.20903273
000100 71 41 81 3d c1 37 50 be 2d 54 d9 3d ab 13 a3 3d
       0.0631131 -0.20333768 0.106117584 0.07962736
000110 92 c8 5d be 26 5f 8b 3d 6d 3b ab bc 12 b8 ea 3d
       -0.21658543 0.068052575 -0.02090236 0.1146089
000120 c9 a0 13 3e dd 3d 7f be 79 64 6a 3e 73 51 57 3e
       0.14416803 -0.24925943 0.2288989 0.21027164
000130 b4 cb ca 3d fd 33 69 be 8e 37 b8 bd 79 d3 95 bd
       0.099021345 -0.22773738 -0.08994971 -0.07315726
000140 2a e7 84 bd e2 d8 0f 3e 8a f3 b8 3d 39 3c 4a 3e
       -0.064894035 0.14047578 0.090308264 0.19749536
000150 24 d3 c0 bd 4a 48 ad 3d d9 f6 b4 3d 7a e1 55 be
       -0.09415272 0.08461054 0.08836145 -0.20886794
000160 ca bd 78 be fd 76 05 be f9 14 2f 3e e7 bd 71 be
       -0.24291149 -0.13033672 0.17097844 -0.23607598
000170 1c 44 5f be e4 d7 0f 3e 69 db 0a 3e cc cd 52 3e
       -0.21803325 0.140472 0.13560261 0.20586318
000180 09 f7 41 be 46 26 3c be 5b d2 02 3e 79 41 5f 3e
       -0.18941893 -0.18373975 0.12775557 0.2180232
000190 53 da 19 3e 2e 67 1d 3d a0 7b a7 3d a7 3b 72 3e
       0.1502469 0.038428478 0.081778765 0.23655568
0001a0 6d 74 24 be dd 05 ea bd e1 6e 32 3e e0 b6 2f be
       -0.16060038 -0.114268996 0.1742511 -0.17159605
0001b0 71 e4 0d be 6a a9 3b 3e 6e ec a2 3d 7b e6 a3 3d
       -0.13856675 0.18326345 0.07955252 0.08002945
0001c0 6b 73 da bd 5d 23 8a bb 69 a0 69 3e 43 f2 19 be
       -0.106665455 -0.0042156414 0.22815098 -0.15033822
0001d0 0f 67 22 3b 54 fe f1 3d 71 6c 31 be a1 e1 77 3e
       0.0024780666 0.11816087 -0.17326523 0.24207164
0001e0 1a 6b fe bd 3e 07 79 bd 5a e7 8b bd 73 85 27 be
       -0.12422772 -0.060797922 -0.06831236 -0.163595
0001f0 fb eb 7b be 12 1f 11 3e 2d 86 89 3d a5 7e 70 be
       -0.24601738 0.14172009 0.06715045 -0.23485811

base_model.model.model.layers.0.self_attn.k_proj.lora_B.weight f4 [16, 8]
000000 57 c3 82 ba 3c cb 80 39 2b 76 81 ba 11 24 89 3a
       -0.0009976429 0.00024565484 -0.0009877136 0.0010463019
000010 59 8c 22 ba 9a 04 bf 38 79 9e 8f ba 83 72 8d ba
       -0.0006200723 9.108447e-05 -0.0010957263 -0.0010791573
000020 50 1b 8a 3a 25 f5 87 ba 5f e5 88 3a 07 38 89 ba
       0.0010536704 -0.0010372741 0.0010444334 -0.0010468968
000030 d4 58 85 3a ab 97 81 ba 81 fc 8c 3a 8d 42 8c 3a
       0.0010173568 -0.000988712 0.0010756404 0.0010700986
000040 63 3c 8b 3a 2f 86 90 ba a3 94 35 ba 31 ab 8d ba
       0.0010622855 -0.0011026318 -0.00069267506 -0.0010808465
000050 26 2b 17 b9 29 b3 8c 3a 99 14 8f 3a ae 95 8f 3a
       -0.00014416556 0.0010734546 0.0010916173 0.0010954642
000060 c4 fe 8b ba 5b be 86 3a 25 9c 26 38 70 68 84 3a
       -0.0010680784 0.0010280119 3.9722905e-05 0.0010101926
000070 45 bc e8 b9 83 ed c4 39 9d b7 8c ba 35 98 8b ba
       -0.0004439076 0.00037560993 -0.0010735873 -0.001065022
000080 7e 3a 6c ba 30 f2 8c 3a 71 d6 97 b8 da ee 8e 3a
       -0.00090114016 0.001075333 -7.240184e-05 0.0010904924
000090 e8 df 8b 3a a2 c4 8e ba 28 a3 8e ba 2b d3 8e ba
       0.0010671588 -0.0010892341 -0.0010882365 -0.0010896673
0000a0 a8 85 3e 3a 53 7a 8a ba 98 2c 8c 3a 5e d8 6c ba
       0.0007267841 -0.001056502 0.0010694442 -0.0009034927
0000b0 16 bf 83 3a 81 f0 84 3a 2f 47 8d 3a 7a ac 7f 3a
       0.0010051455 0.0010142477 0.0010778661 0.0009753179
0000c0 de 08 93 39 9a 46 8b 3a 5b 03 8f ba 3a 04 8b ba
       0.00028044631 0.0010625899 -0.0010911034 -0.0010606118
0000d0 78 17 84 ba ce a0 8c 3a ab 52 75 ba 02 fa 11 ba
       -0.0010077795 0.0010729076 -0.0009358327 -0.0005568565
0000e0 10 28 80 3a 37 b2 8f ba a8 9b 8e 3a 6b d7 8c ba
       0.0009777565 -0.0010963146 0.0010880129 -0.0010745352
0000f0 cd f8 05 3a 1e 0d 6c 3a de 06 8e 3a a4 ff 8f 3a
       0.00051106216 0.000900464 0.0010835787 0.0010986221
000100 9f ad 53 ba c0 d5 41 b9 9f 43 8f ba cc 06 8c 3a
       -0.0008074883 -0.00018485542 -0.0010930187 0.0010683178
000110 04 17 1f ba 14 d9 eb 37 4b da 8f ba 79 cb 90 ba
       -0.0006068798 2.8115268e-05 -0.001097509 -0.0011046968
000120 f8 49 04 ba c8 2d 8b 3a 8d d2 7b 39 35 54 8f 3a
       -0.00050464226 0.0010618502 0.00024015662 0.001093513
000130 7f 0c 8c 3a 7e 53 83 ba 20 0d 70 ba 0b 6f ba b9
       0.0010684876 -0.001001939 -0.0009157229 -0.00035559418
000140 a7 42 8d 3a 84 de 86 ba 8b 97 8c ba 9b 30 8f ba
       0.001077731 -0.0010289703 -0.0010726316 -0.001092452
000150 19 1f ab b9 40 4d 8f 3a 3a 0f 90 3a 18 05 87 3a
       -0.0003263883 0.0010933056 0.0010990866 0.0010301201
000160 32 d0 8c ba e9 24 54 b9 31 5f 8d ba b5 ec 15 ba
       -0.0010743199 -0.00020231646 -0.0010785816 -0.0005719171
000170 5d 4e 87 ba 42 0d 4c 3a 5b bf 8f ba 07 1c 8e ba
       -0.0010323037 0.0007783958 -0.0010967063 -0.0010842093
000180 8b 17 6f ba 94 35 a1 b8 0a 95 8a ba 45 56 8c ba
       -0.00091206346 -7.687058e-05 -0.0010572982 -0.0010706863
000190 ad ff 86 ba da 2d 85 ba 6f 27 8d ba 0c 7b 07 b8
       -0.0010299586 -0.001016076 -0.0010769198 -3.2301105e-05
0001a0 a6 7b 70 ba 93 43 81 3a 74 5e 8c 3a 16 3b 84 3a
       -0.00091736985 0.0009862058 0.0010709302 0.001008841
0001b0 8e f7 6b 3a 22 51 8b ba a9 07 2b ba 7e 33 c6 39
       0.0009001427 -0.0010629038 -0.0006524274 0.00037803868
0001c0 0d 24 4e 3a d8 53 86 3a 9b f3 1a ba f3 ca 8d ba
       0.00078636484 0.0010248376 -0.0005910934 -0.001081793
0001d0 da f5 3d 39 ee 90 7b 3a 7d e4 5d ba 46 53 42 ba
       0.00018116031 0.00095964863 -0.00084645284 -0.00074129214
0001e0 00 bf 68 ba bf 07 6f ba 02 13 8d 3a fa 71 8f 3a
       -0.0008878559 -0.0009118281 0.0010763111 0.0010944002
0001f0 4e ff 7f 3a 0e 64 90 ba 89 6f 3b 3a 41 81 83 ba
       0.00097655214 -0.0011016147 0.0007150104 -0.0010033028

base_model.model.model.layers.0.self_attn.o_proj.lora_A.weight f4 [8, 16]
000000 f2 87 0c be f8 3d 51 3c d3 e0 12 bd 5e 10 94 3d
       -0.13723734 0.012771122 -0.03585894 0.07229684
000010 d7 d5 45 3c 8b a6 00 be c5 ca af bd c5 0e 0d bb
       0.012074909 -0.12563531 -0.08583597 -0.0021523696
000020 5a 12 20 be 8c c3 a6 3c 78 26 8a bc b2 0d c5 3d
       -0.15632 0.020356916 -0.016864046 0.09621753
000030 d8 94 75 3d b9 61 40 3e c1 d2 13 bc 9f f7 3d be
       0.0599564 0.18787278 -0.009022416 -0.18551491
000040 f6 6c e6 3d 2e 35 2c be 82 f5 0f bd 6b 27 a4 bd
       0.112512514 -0.16817161 -0.035146244 -0.08015331
000050 98 02 c1 bd 52 12 bf bd 4a ee 6a 3e f6 4b 13 3e
       -0.09424323 -0.09329666 0.22942463 0.14384446
000060 00 94 8d 3d 2c 2f 71 3e f1 2d 67 be d4 0d 22 3d
       0.069129944 0.23553151 -0.22576119 0.03956397
000070 61 b2 24 3e e3 db 2a 3e 02 8e 4c be b3 96 b4 3d
       0.16083671 0.16685443 -0.19976047 0.08817806
000080 80 11 11 be d9 14 2b bc 02 d4 58 bd 7a ef 54 be
       -0.14166832 -0.010441982 -0.05293656 -0.20794478
000090 db 64 73 be 12 0c 28 be e6 99 e9 3d 7a af eb 3d
       -0.23768942 -0.16410854 0.11406307 0.11508079
0000a0 f8 1b 5f be 02 ab be bd fd b9 9f 3b 46 1e 5e be
       -0.21788013 -0.09309961 0.0048744665 -0.21691236
0000b0 d9 0c 11 3e 53 a7 68 3e e0 e6 35 3d 3e 04 3f be
       0.14165057 0.22720079 0.044409633 -0.18653962
0000c0 94 05 6e 3d ae ce b8 3d 8b 7c 4b 3e 65 77 07 be
       0.05811079 0.09023796 0.19871728 -0.13229139
0000d0 e5 35 65 be 35 f9 e1 3d 50 56 81 3c 6b bf a5 bd
       -0.2238384 0.110338606 0.015788227 -0.08093151
0000e0 46 23 d7 bd c8 33 03 be 52 51 4f 3e 83 f5 32 bd
       -0.10504775 -0.12812722 0.20245865 -0.04369117
0000f0 2f 72 39 3e 23 29 65 3e 69 34 ff 3c 3e ea 56 3d
       0.18109964 0.22378974 0.03115292 0.052469485
000100 7c fe 84 bc 82 92 30 3e 45 7f 67 be 44 3c cd 3d
       -0.016234629 0.17243388 -0.22607143 0.100212604
000110 b1 6c 28 bd 35 35 e8 3d 7c 37 a3 b9 32 ef bb bd
       -0.04111928 0.113382734 -0.00031131122 -0.09176482
000120 d3 fa df bc 39 00 0b 3e 35 00 31 be 38 a3 22 be
       -0.027341282 0.13574304 -0.17285235 -0.15882576
000130 b7 32 62 bd 03 81 b9 bd 49 3b c8 3d 1e b6 2c 3e
       -0.055224147 -0.0905781 0.09776933 0.16866347
000140 b6 99 d9 bc 38 dc 72 3e 40 8b d7 bd a0 77 10 be
       -0.026562553 0.2371682 -0.10524607 -0.14108133
000150 09 ce e6 bd 70 2e 31 be f4 32 34 be 7f c4 64 be
       -0.11269767 -0.17302871 -0.17597562 -0.22340582
000160 63 1c 62 be c2 38 87 3d c1 ea 1c 3e 26 e7 70 3e
       -0.22081141 0.066026226 0.15323927 0.23525676
000170 83 bb 5a 3e ac 8a 5f bc a0 79 43 3d fd 95 18 be
       0.21360593 -0.013643902 0.047723413 -0.14900966
000180 f7 6e c7 3d 40 5e 75 be 99 de ef 3d ed 12 3f 3d
       0.09737962 -0.23961735 0.11712379 0.04664891
000190 37 e9 9e 3d 2d f2 ba 3d 3a 12 ea bd f8 67 5c 3e
       0.07759326 0.091282226 -0.11429258 0.21524036
0001a0 e7 86 f3 3d f0 fc 28 3e 77 87 0a 3d 67 fc 1f 3e
       0.11890965 0.16502738 0.033820596 0.15623628
0001b0 f0 19 2d 3e d1 ab e9 3d 1a 5c 42 3e e8 f5 3c bd
       0.16904426 0.114097245 0.18980446 -0.046132952
0001c0 d1 1b 29 3e 1e 19 6f 3d c5 3a 19 3e 91 28 7a 3e
       0.16514517 0.058373563 0.14963825 0.24429537
0001d0 ed e5 6a 3d 5a af bf bd ed 45 c8 bc 64 a3 91 3d
       0.05734818 -0.093596175 -0.024447406 0.071112424
0001e0 06 18 2b 3d 64 39 8a bd 68 65 49 3e 0e 02 19 3e
       0.041770957 -0.06749228 0.1966759 0.1494219
0001f0 87 33 1e be 7e 69 a0 bc 1a 22 cb bc 52 40 21 be
       -0.15449344 -0.019581553 -0.024796534 -0.15747193

base_model.model.model.layers.0.self_attn.o_proj.lora_B.weight f4 [16, 8]
000000 ee d8 86 3a a2 c6 76 3a 87 4a 8c 3a cb 4c 81 3a
       0.0010288039 0.0009413754 0.0010703363 0.0009864805
000010 6c d1 7b ba 03 20 b6 b9 b8 d4 87 3a 92 9c 4d 3a
       -0.00096060964 -0.00034737596 0.0010363078 0.000784346
000020 79 46 7d ba 16 14 6e ba bf e7 71 ba 5e 96 84 ba
       -0.00096616853 -0.00090819725 -0.0009227953 -0.0010115614
000030 53 52 4d 3a cb c2 36 3a 52 75 5e ba 1d 1a 8b 39
       0.00078323967 0.00069717754 -0.000848611 0.00026531602
000040 c9 c3 7e ba ee 7d 85 38 e7 0b 75 ba 32 a5 d7 b9
       -0.00097185053 6.3653904e-05 -0.0009347782 -0.00041131076
000050 80 e9 8b 3a 45 ec 87 3a 7c c7 8a ba c1 1f 1b b9
       0.0010674447 0.0010370096 -0.0010588015 -0.00014793781
000060 4f 70 86 3a ad bd 7b 3a 24 3c 8c 3a d9 86 67 3a
       0.0010256859 0.0009603154 0.0010699076 0.00088320446
000070 d0 e5 cf 39 2d 79 70 ba 72 2a 84 3a ca 87 83 3a
       0.0003965334 -0.000917333 0.001008345 0.0010034975
000080 15 37 35 39 b1 61 c5 b8 48 8d 7a 3a 14 79 97 b9
       0.00017282025 -9.4118885e-05 0.0009557796 -0.00028891175
000090 84 c9 52 3a 22 50 8b ba 0d a2 80 3a 16 6e 55 3a
       0.00080408924 -0.001062874 0.000981392 0.0008141709
0000a0 59 49 80 3a a7 5c 84 3a b9 8a 6e 3a 64 3f 09 ba
       0.0009787484 0.0010098413 0.0009099651 -0.0005235581
0000b0 28 e0 3d 3a fe 4e 88 3a 6f 26 5c 3a b8 72 37 3a
       0.000724318 0.0010399518 0.0008398061 0.00069979904
0000c0 ba d6 89 ba ad 59 84 ba cc 5a 88 ba 2c 8e 92 b8
       -0.0010516264 -0.0010097526 -0.0010403036 -6.988304e-05
0000d0 92 5a 6e ba 5e 16 05 3a c4 26 88 ba cd 30 87 ba
       -0.00090924755 0.00050768803 -0.001038753 -0.0010314226
0000e0 2e 69 e5 37 1a 04 1d ba c9 a9 70 ba 50 c6 83 ba
       2.7347905e-05 -0.0005989686 -0.00091805734 -0.0010053609
0000f0 6c 56 8d 3a 6e 32 1d ba 7d 34 88 ba 13 98 7c 3a
       0.0010783202 -0.00059965893 -0.0010391619 0.0009635698
000100 bc 08 90 ba 96 2b 88 ba dd 73 89 ba 96 3c 46 ba
       -0.0010988931 -0.0010388966 -0.00104868 -0.00075621286
000110 6c 8e 3e ba ed 6f 8f ba 51 9f 05 ba fa c0 8a ba
       -0.00072691473 -0.0010943391 -0.00050972874 -0.0010586076
000120 98 ec 89 ba b1 d8 87 ba 07 8e 5b 3a 14 13 86 ba
       -0.0010522781 -0.0010364262 0.0008375351 -0.0010229074
000130 5e 85 4c 3a 6a 5d 8f ba f4 63 db 39 bf ca 06 b8
       0.00078018557 -0.0010937874 0.00041845406 -3.213691e-05
000140 e8 14 82 3a ea db 23 3a 0b 87 83 3a b8 63 03 39
       0.0009924443 0.00062507263 0.0010034753 0.00012530282
000150 88 63 7f ba c4 75 86 ba a6 f8 8a 3a b8 66 7a 3a
       -0.00097423093 -0.0010258486 0.0010602667 0.00095520495
000160 17 40 8e 3a 29 cd 80 3a d7 54 ac b9 41 22 99 b8
       0.001085284 0.0009826767 -0.00032869607 -7.301989e-05
000170 c7 f8 01 b9 c5 ee 83 3a 8b 41 5d 3a 0e 12 82 3a
       -0.00012395075 0.0010065666 0.00084402476 0.0009923594
000180 b7 23 8f 3a 2e 90 8e 3a ae 12 8e 3a 92 10 81 b9
       0.0010920678 0.0010876709 0.0010839307 -0.00024617143
000190 a4 61 90 39 66 be 77 3a a7 c2 8e 3a 28 80 8d 3a
       0.00027538568 0.0009450674 0.0010891751 0.001079564
0001a0 a7 3f 8e ba 83 a1 7c ba 72 70 80 ba 5b 6e 36 ba
       -0.001085271 -0.0009637104 -0.0009799136 -0.0006959193
0001b0 16 a7 8a 3a 25 58 6a ba 89 35 88 ba 47 d6 7d ba
       0.001057836 -0.0008939526 -0.0010391931 -0.0009683114
0001c0 69 1b 84 ba 86 b4 1b ba b9 cf 83 ba 1e e9 75 3a
       -0.001007897 -0.0005939681 -0.0010056413 0.00093807455
0001d0 6f 7f 4d ba 43 10 86 3a 11 76 89 ba f0 4d 88 ba
       -0.00078391185 0.0010228235 -0.0010487457 -0.0010399204
0001e0 fc 01 8e ba 47 8d 8b ba 91 0d 90 ba f8 80 d0 38
       -0.0010834332 -0.0010646962 -0.0010990371 9.942235e-05
0001f0 06 de 88 ba 65 d8 7d ba 6c 92 50 ba 13 98 8d ba
       -0.0010442145 -0.00096834294 -0.0007956389 -0.0010802768
