apps/api/fine_tuned_models/1aafd7b6-3b85-4b40-928e-b58b6ebe18da/adapter_model.safetensors (safetensors, 27024 bytes, 28 tensors)

base_model.model.model.layers.0.mlp.down_proj.lora_A.weight f4 [8, 64]
000000 47 85 41 bd 50 28 de 3c e2 84 c1 3d 70 39 43 bc
       -0.047246244 0.027118832 0.094491735 -0.01191555
000010 1b e1 91 3c b4 e6 68 3c 0c 83 46 3b 2e 55 8f 3d
       0.017807534 0.01421516 0.0030290512 0.069986686
000020 67 b4 8a 3d 60 68 93 bd 1d f9 e9 3d 59 0b 9e 3d
       0.0677269 -0.07197642 0.11424468 0.07717008
000030 68 d9 6f bc 45 2c e9 3d 43 ce dd 3a ba e7 9a 3d
       -0.014639236 0.11385397 0.0016922433 0.075637296
000040 83 05 e4 bd 6f 22 e5 3d 4e a6 fb 3d e4 e4 c9 bd
       -0.11133864 0.11188208 0.122875795 -0.098581105
000050 cf 2d db bd 78 bf 10 bd 82 8c a7 bd 5b 1b 1d 3d
       -0.10702097 -0.03533885 -0.081810966 0.038356166
000060 6f 18 5a 3d 84 eb ad bc ed 87 bc 3d 99 e9 22 3c
       0.053245958 -0.021230467 0.09205613 0.009943389
000070 6a 57 08 bd f3 cb de bd e6 9d 36 3d 88 e9 fb bd
       -0.03328649 -0.10878744 0.044584177 -0.12300402
000080 60 34 37 3b da 91 bf 3c 4f 40 85 bd 93 fc 1e 3d
       0.0027954802 0.023384977 -0.065064065 0.038815092
000090 3b ed f1 3c 37 b5 a8 3d b7 42 a4 3d 65 92 d9 bd
       0.029532066 0.08237689 0.08020537 -0.10623626
0000a0 6b 77 c5 bd d1 4f 26 bd 8c 94 c2 bd 56 ca 0a 3d
       -0.09641918 -0.040603463 -0.09500989 0.03388437
0000b0 5e 98 b2 bd 9d 42 cb bd 9e 8d 1a 3d 48 cd a4 3d
       -0.08720468 -0.09924815 0.037732713 0.08046967
0000c0 22 d1 05 bd 1f ec f6 bd 14 46 ba 3c 50 27 8d 3d
       -0.032670148 -0.12056755 0.022738494 0.06892264
0000d0 d8 8e cc 3d c7 7a 0f 3c 64 03 a9 3d 45 c0 ef bd
       0.09988183 0.0087573 0.082526 -0.117065944
0000e0 05 42 eb 3d df 69 9a bd 28 16 a4 bd 14 fd c1 3d
       0.114872016 -0.075397246 -0.080120385 0.09472099
0000f0 35 3b 07 bd 81 83 95 3d 1d 13 bc bd 1f 8f cc 3d
       -0.03301545 0.07300473 -0.09183333 0.09988236
000100 15 77 fd 3d 31 48 2a 3d 31 00 c4 3d f7 68 ae bd
       0.12376229 0.041572753 0.09570349 -0.08516114
000110 bd 41 06 bd 3b 92 2e 3d c2 6f 9b 3d 45 5a 93 bd
       -0.032777537 0.042619925 0.075896755 -0.07194952
000120 53 25 ad 3d f4 23 36 bd 34 20 93 bd 4d 53 f3 3c
       0.08454385 -0.04446788 -0.07183877 0.029702807
000130 b3 2f cd bd c5 69 e0 bd 1d b2 3c 3d a3 a5 19 3d
       -0.100188635 -0.10957674 0.0460683 0.03751148
000140 85 f5 53 3d 90 79 42 bc fc 0c b1 bd c7 1f d8 bd
       0.051747818 -0.011869803 -0.08645055 -0.10552936
000150 61 61 fd 3d 41 59 d3 bd a2 52 1e 3d 55 f9 d9 3d
       0.12372089 -0.10319758 0.038653024 0.106432594
000160 19 d0 cd 3d 6a 44 ac bd ae cd 18 bd 24 80 c5 bd
       0.10049457 -0.084114864 -0.037305526 -0.096435815
000170 f0 88 aa 3d b8 cb f9 bd 97 23 e1 bd 85 73 b5 bd
       0.083269 -0.121970594 -0.10993116 -0.08859924
000180 7b db c7 3d 89 a0 b0 3d 9a 35 b6 3d d3 f7 ba 3d
       0.097586595 0.0862437 0.088969424 0.091293
000190 f3 58 59 bd f5 ba 8d bd 11 6f a4 bd ba 6e 39 3d
       -0.053063344 -0.06920425 -0.08028997 0.045271613
0001a0 5a 77 50 3d f9 ff fb 3c 9b d8 c2 bd 09 0d c4 3b
       0.050895073 0.030761706 -0.095139705 0.005982999
0001b0 da aa 92 bd d0 4b ee bc b9 b9 9a bc 42 f9 3b 3c
       -0.071614936 -0.029088885 -0.018887388 0.011473002
0001c0 cc 1b db bd cd c9 e4 3d f2 55 44 bd 5c 75 34 3d
       -0.10698661 0.11171303 -0.047933526 0.044057235
0001d0 de 6b b1 3d 89 04 40 3d e6 9b a8 3d 43 3b 87 3d
       0.08663152 0.046879325 0.0823286 0.066031
0001e0 09 75 c4 3d 9a ac 01 3d d5 d1 ad 3d 14 3c 49 bd
       0.09592635 0.031658746 0.08487288 -0.04912956
0001f0 78 bb 94 bd 4c 55 83 3d 51 48 ec 3c 6e c0 16 3a
       -0.07262319 0.064127535 0.028843077 0.000575072
000200 fc 98 e2 bd 51 38 19 3d d4 6a b0 3d 5e c0 79 bc
       -0.11064336 0.037407223 0.08614126 -0.015243618
000210 94 97 0a 3d 80 79 57 3d 15 d3 03 be 04 5b 7d bc
       0.033835962 0.052606106 -0.1287349 -0.015463594
000220 2a 8e 52 bd aa 8b 8d bd a8 cf a6 3d c2 13 f3 3d
       -0.05140511 -0.069114044 0.08145076 0.11869003
000230 20 f0 c9 3c 9e 0e 95 3d 7c 20 c8 bd b2 53 df 3c
       0.024650633 0.07278179 -0.09771821 0.027261589
000240 07 67 ab bc ed 6a a7 bd f1 6f aa 3c d5 bd 37 3d
       -0.02092315 -0.08174691 0.020805331 0.044858772
000250 b1 84 88 ba 60 89 46 3d e5 65 6b 3d 17 f4 f1 3d
       -0.0010415522 0.048470855 0.05747022 0.118141346
000260 7b 47 09 3b c9 7e 20 3c 50 fa 9b bb e7 35 b7 3c
       0.0020947147 0.009795853 -0.004760064 0.02236457
000270 93 66 af bd 05 b5 a5 bc 42 ba e2 bd 28 fd a8 bd
       -0.08564486 -0.020227918 -0.11070682 -0.08251411
000280 ec 66 d0 bd d7 38 b3 3d 39 dc 9d bd bd 16 ae bb
       -0.10175881 0.08751076 -0.0770802 -0.005312769
000290 cb c3 27 3c 19 15 e2 3d 0f 42 7b 3d 5a 55 bf bd
       0.010239552 0.1103918 0.061342295 -0.093424514
0002a0 6a 6d 00 3e 43 09 e8 bd 69 95 69 3c b3 96 df 3d
       0.12541738 -0.113298915 0.014256814 0.109174155
0002b0 d3 64 e6 3d 03 19 c3 bc 87 90 b4 bd c2 51 4b 3d
       0.112496994 -0.023815637 -0.08816629 0.049638517
0002c0 13 cc c0 3d c5 a6 92 bd 6c ce cc bc 4b a2 a5 bd
       0.09413924 -0.07160715 -0.025000773 -0.080875956
0002d0 c6 26 32 3d d6 4b 01 3d 85 99 89 3d 67 41 44 bd
       0.04349401 0.031566463 0.06718735 -0.047913935
0002e0 76 d3 00 be 5d 8a 4a bd 58 00 c9 bd e8 78 10 bd
       -0.12580666 -0.04944836 -0.09814519 -0.035271555
0002f0 84 a0 4f 3d d6 fd de bd d7 ca ce bb 20 2c f4 bd
       0.05069019 -0.10888259 -0.0063108015 -0.11922479
000300 57 ed b8 bd 5c 7a b4 bd 5d d8 3f bd 1c 20 8a bd
       -0.09029644 -0.08812401 -0.0468372 -0.067444056
000310 f0 d9 c6 3c 63 84 a6 3d 3e c7 c8 3d c4 db 31 3d
       0.024273843 0.081307195 0.098036274 0.043422475
000320 29 68 c6 bb 4a 7b 91 bc 52 2f ae 3d 35 61 9c bd
       -0.0060548973 -0.017758984 0.085051194 -0.07635728
000330 e0 b2 c3 3d fd ae ee bd 67 97 c9 bd 6f 0a f0 3c
       0.09555602 -0.1165447 -0.09843331 0.02930185
000340 0f 28 68 bd 2e 06 95 3c 26 ea e9 3d 46 19 7c 3d
       -0.056678828 0.018191423 0.114216134 0.06154754
000350 e7 a9 ff 3d 8f 88 63 bd ef 11 81 bd 76 c7 4e bc
       0.12483578 -0.055550154 -0.06302249 -0.012620797
000360 44 c7 d7 bc dc a8 76 bd 30 09 4c bc 9d a0 f1 3d
       -0.026340134 -0.06021963 -0.012453362 0.11798213
000370 33 b6 95 bd d6 3d 89 3d d6 d7 60 3d 03 90 89 3d
       -0.07310142 0.067012474 0.054893337 0.06716921
000380 a0 b3 1f 3d 50 31 28 bd c9 a4 4d 3d 11 e5 5b bd
       0.038989663 -0.041062653 0.05020598 -0.05368525
000390 47 3a 94 bd b2 67 e7 3d 06 ec c9 3d 33 d2 c3 bd
       -0.07237678 0.11299075 0.09859471 -0.09561577
0003a0 a7 6b c5 3d fd c7 fa 3c e4 95 db 3c 35 90 f8 3d
       0.09639674 0.03061294 0.026804872 0.1213688
0003b0 3f 4c f7 bb 4a 15 36 bd d3 6f 9b 3d 70 55 0c bd
       -0.007546931 -0.044453897 0.07589688 -0.034261167
0003c0 ee 5e 0b bd 34 94 39 bd 3c cd 02 3e 1e 69 7f 3d
       -0.03402608 -0.045307353 0.12773603 0.062356107
0003d0 b4 db 7a bc fa 42 97 bb 9c 72 45 3c d0 10 a2 bd
       -0.01531117 -0.0046161385 0.012051251 -0.07913363
0003e0 f6 37 0e 3d b2 75 bc bd ef 2d 87 bb 29 80 9d bc
       0.034721337 -0.09202136 -0.0041253488 -0.01922615
0003f0 04 3b 41 bd 80 98 ef 3d d6 eb 0c 3d 81 10 84 3d
       -0.047175422 0.11699009 0.0344046 0.0644846

base_model.model.model.layers.0.mlp.down_proj.lora_B.weight f4 [16, 8]
000000 0d 20 a2 3b 9f 97 ac 3b d8 21 ac bb 32 32 fe 3a
       0.0049476684 0.005267098 -0.005253058 0.0019393621
000010 31 41 a8 3b 0d dc 6f bb 14 2f 8a 3b 5c a3 a5 bb
       0.0051347245 -0.0036599666 0.004217038 -0.0050548743
000020 6b f0 a9 3b d2 13 1a 3b 94 94 ae 39 5c 95 aa 3b
       0.0051861308 0.002351035 0.00033298566 0.0052057933
000030 d1 ab 18 3b 27 db b1 3b 03 d1 a6 3b ff a2 a0 bb
       0.002329577 0.0054277363 0.005090834 -0.004902243
000040 ee 01 a4 bb 6e e4 9e bb ec 14 99 3b 02 d9 a1 bb
       -0.005005113 -0.0048490083 0.0046716835 -0.0049391994
000050 5e 27 a7 bb 3f 8b 43 bb 0c 27 ac 3b 06 a5 ad 3b
       -0.0051011285 -0.0029837636 0.005253678 0.0052992133
000060 3c 30 57 bb 08 48 a8 3b 82 93 a5 bb 28 5a 8e 3a
       -0.0032835146 0.00513554 -0.0050529847 0.0010860609
000070 e2 b3 97 3b 33 ef a8 3b e8 c4 86 bb 11 5c 9c bb
       0.004629598 0.005155468 -0.0041128285 -0.0047717174
000080 e6 e5 6e bb 31 9c a3 3b 65 4d 9a bb 14 95 a8 bb
       -0.0036452948 0.0049929847 -0.004708933 -0.0051447246
000090 d7 c5 aa bb dc e0 96 3b 84 35 ab bb 61 32 8f 3b
       -0.0052115726 0.004604442 -0.0052248854 0.0043700193
0000a0 c7 67 9c 3b 7d cb a4 3b 93 b2 96 bb 2d 4d a3 bb
       0.0047731134 0.0050291405 -0.0045989244 -0.0049835653
0000b0 14 0c a3 bb 7e 2f 73 3b 68 d7 ac 3b 62 16 aa 3b
       -0.004975805 0.0037107165 0.005274702 0.0051906565
0000c0 1d 76 99 bb ef b2 fc b8 63 7f 9b 3b ee 59 9b bb
       -0.0046832697 -0.000120496254 0.0047454103 -0.004740945
0000d0 55 88 70 3b 46 40 ae 3a 42 4e 19 3b 7b b2 98 3b
       0.0036702354 0.0013294301 0.0023392593 0.0046599484
0000e0 4c 27 9d 3b 44 4c a9 3b de c2 8f bb 3c 45 68 bb
       0.0047959443 0.0051665623 -0.0043872437 -0.0035441658
0000f0 89 f6 a9 bb 64 aa eb b9 d0 e2 89 bb aa c5 a4 3b
       -0.00518686 -0.00044949644 -0.0042079464 0.005028446
000100 65 2d 9f 3b af 7c b0 3b 3c be aa bb 8d c8 9c ba
       0.0048577064 0.005385957 -0.005210666 -0.0011961624
000110 8f 35 87 3b a1 26 a2 3b 21 f8 aa bb 68 7d 55 3a
       0.0041262577 0.0049484526 -0.0052175676 0.0008143992
000120 7e 18 03 3b 41 58 ad 3b 39 86 a5 bb 55 ed 8e 3b
       0.0020003612 0.0052900617 -0.005051401 0.0043617883
000130 91 4d af ba 8b 37 a4 3b 2f 16 aa bb c3 46 a9 bb
       -0.0013374557 0.005011504 -0.005190633 -0.005165906
000140 e0 c0 9c bb 2e a6 40 bb 57 f6 94 bb 6f 9b 1b bb
       -0.0047837347 -0.0029395926 -0.0045459676 -0.0023743769
000150 73 02 99 3b d6 38 a1 bb 0e d7 ab bb 01 a6 a3 bb
       0.0046694814 -0.0049201054 -0.0052441424 -0.0049941544
000160 7a 22 ae bb 07 37 82 bb 3f 27 7a 3b b9 46 ac bb
       -0.0053141685 -0.003973845 0.0038170365 -0.0052574542
000170 8f 00 b0 bb 53 d4 ac bb 37 80 ad bb d9 94 ab 3b
       -0.0053711603 -0.0052743345 -0.0052948254 0.00523625
000180 f2 19 a9 bb be 0c a8 bb f0 a0 9d 3b 81 27 93 bb
       -0.0051605636 -0.005128472 0.004810445 -0.004490793
000190 84 a1 0d bb 49 44 a8 bb 7b 1d 91 3b c3 09 ba 3a
       -0.0021611163 -0.0051350933 0.004428563 0.0014193583
0001a0 6b 5a 91 3b 52 68 8e 3b 86 2b 8a bb 54 33 ac 3b
       0.0044358275 0.004345932 -0.004216614 0.005255142
0001b0 6b e2 2d ba 82 e8 ab 3b 88 fb 77 3b e4 c4 aa bb
       -0.0006633165 0.005246223 0.0037839133 -0.0052114595
0001c0 73 76 0e 3b dc c6 9c 3b 15 56 43 bb ea f1 9e bb
       0.0021738082 0.004784448 -0.0029805948 -0.0048506157
0001d0 71 9b 91 bb 42 c9 aa 3b d8 20 9b 3b 08 36 92 3b
       -0.004443579 0.00521198 0.00473414 0.0044620074
0001e0 fd 83 99 3a da ea 89 3a 85 93 70 bb 3d 06 63 bb
       0.0011712309 0.0010522262 -0.0036709022 -0.003464117
0001f0 f0 2f 51 bb b0 60 ab 3b f0 cb ac bb fa ec 18 3a
       -0.0031919442 0.005230032 -0.0052733347 0.0005833652

base_model.model.model.layers.0.mlp.gate_proj.lora_A.weight f4 [8, 16]
000000 4b 21 fe 3d 4e 73 96 3d 6a f6 b9 bd 28 0f 21 3e
       0.12408694 0.073462114 -0.09080203 0.15728438
000010 43 4e af bd 90 92 c7 bb 11 40 b8 bd c5 2b 78 be
       -0.08559849 -0.0060904697 -0.08996595 -0.24235447
000020 b3 71 14 3d e4 b6 9d 3d 53 b0 fc bd c2 97 21 3e
       0.036241245 0.07700899 -0.12338319 0.15780547
000030 be fb 6a be 61 11 7c be a7 d2 18 be 1c 2f a6 bd
       -0.22947595 -0.24616005 -0.14924107 -0.08114454
000040 41 c7 06 bd fa 40 5b bd e0 f0 e1 3d be 6b 5c be
       -0.032904867 -0.053528763 0.110322714 -0.21525475
000050 17 b7 2b 3d 1d 57 64 ba 76 21 79 3d 18 e8 81 3e
       0.041922655 -0.00087104907 0.060822926 0.25372386
000060 e9 e8 22 3e 3e 21 13 be 75 1b 57 be 6d 7b 62 bd
       0.1590916 -0.1436815 -0.21006568 -0.05529349
000070 85 7d 05 be 15 9c b8 3d 24 75 f3 3b be 24 53 3e
       -0.13036163 0.09014145 0.0074297357 0.20619485
000080 4d 05 d3 3d 0a c2 51 bd 23 9f 5e 3b 9d 81 61 3d
       0.103037454 -0.05121044 0.0033969365 0.05505525
000090 d6 f5 d2 bc 17 45 49 3e 48 84 4d be b1 13 02 3e
       -0.02575199 0.19655262 -0.20069993 0.12702824
0000a0 cc e5 1d be a6 a8 65 be 1b 9a 67 bd 03 f6 01 3e
       -0.15419692 -0.22427616 -0.05654345 0.12691502
0000b0 6e 11 3a 3e 07 40 8b 3d d6 df cb bc 89 d1 9b bc
       0.18170711 0.067993216 -0.024887007 -0.019020813
0000c0 8f 51 c5 bd 72 c1 ce bc 5c d6 a2 bc c4 1d 55 3e
       -0.09634697 -0.025238726 -0.019877605 0.20812136
0000d0 98 3a 1b 3e 4b f4 51 be 66 7f 89 bb ae 10 19 be
       0.1515907 -0.20503347 -0.0041960953 -0.14947769
0000e0 30 70 36 bd f7 a9 4e be ef 83 8f 3d f8 37 3d be
       -0.044540584 -0.20182024 0.07007586 -0.18478382
0000f0 3e 0c 81 3e ef bb 46 3e 54 9a 35 be 40 69 76 be
       0.25204653 0.19407628 -0.17734653 -0.24063587
000100 8f 64 98 3b f1 8f 99 bd b9 b4 8e 3d 95 8f 28 be
       0.0046506594 -0.07498158 0.06968064 -0.16461022
000110 2f 41 d7 3d 7c 74 62 be 78 5e 0c be d2 71 01 be
       0.1051048 -0.22114748 -0.13707912 -0.12641075
000120 61 32 01 3e 8a 45 41 bc f5 5b 7b be 12 da 0c be
       0.12616874 -0.011796365 -0.24546798 -0.13755062
000130 99 74 f7 bd 9d a5 72 be af 4e 18 3d 36 f1 c0 3d
       -0.12082786 -0.23695989 0.037184414 0.09421007
000140 3f 2b 51 bd 7d 74 d6 bd f2 37 d8 bb db 58 48 be
       -0.051066633 -0.10471437 -0.006598466 -0.19565146
000150 a5 ef 17 be 19 25 59 bb 5b 03 5e 3e 76 df 92 bd
       -0.14837511 -0.0033133684 0.21680968 -0.07171528
000160 9c 46 04 3e 1a 51 d4 bd 0f c3 92 bd 85 43 76 be
       0.1291756 -0.103670314 -0.07166111 -0.24049194
000170 f7 3a 4f 3e 3f 80 7e 3e 98 c1 fe b8 b9 aa 27 3e
       0.20237337 0.2485361 -0.000121477235 0.1637372
000180 50 bb 56 3e fb 83 04 3e 29 29 09 3e 55 0f 79 be
       0.20969892 0.12940972 0.13394608 -0.24322255
000190 b4 ec 75 be b1 bc 45 be 91 6a aa 3d be cd 62 be
       -0.24016076 -0.19310261 0.08321107 -0.22148797
0001a0 f6 a8 48 be 58 a6 ed bd 66 51 6f be 04 7b a5 3b
       -0.19595703 -0.11603993 -0.23370895 0.005050065
0001b0 dc f3 25 3d ef c3 1a be 93 df 2b 3e 3b 37 cb bd
       0.040515766 -0.15113805 0.16784506 -0.09922644
0001c0 f1 cd 85 bd 66 af 47 3e 4b 2d 61 3e 43 6e d8 bc
       -0.06533421 0.19500503 0.21989934 -0.026419764
0001d0 47 04 3d be 8b b7 05 be 70 fa 15 3d 94 eb 10 3e
       -0.18458663 -0.13058297 0.03661579 0.14152366
0001e0 a6 a9 f6 3d 17 3a e3 bd 35 18 71 be 30 ba 5b be
       0.120440766 -0.11095064 -0.2354439 -0.21457744
0001f0 44 eb 9c bd 6d b0 02 3c 3e b9 f0 bd e4 c5 4f be
       -0.07662061 0.0079766335 -0.11754082 -0.20290333

base_model.model.model.layers.0.mlp.gate_proj.lora_B.weight f4 [64, 8]
000000 b4 cc 99 3b 52 34 a5 bb 0e 4a 93 bb 78 d9 7a 3b
       0.004693592 -0.0050416375 -0.004494912 0.0038276594
000010 fd 60 a7 bb 5b 81 98 bb 76 da 92 3b 02 47 77 3b
       -0.0051079975 -0.0046540922 0.004481609 0.0037731533
000020 18 7a 9d 3b 14 8a a4 3b 63 da a7 bb 20 87 4e ba
       0.0048058145 0.005021343 -0.0051224693 -0.00078784116
000030 ff 9a a9 3b b9 ca 39 bb 79 7a a8 3b 0e a8 4e 3b
       0.0051759477 -0.0028349592 0.005141553 0.0031533274
000040 2e ae 81 3b 7f fa af bb 58 e3 a5 bb 09 b1 54 bb
       0.0039575314 -0.0053704376 -0.005062502 -0.0032454154
000050 a5 1c ff 3a b0 c1 55 bb e5 39 a1 3b 8f 40 a0 bb
       0.0019463493 -0.0032616667 0.0049202316 -0.0048905085
000060 f5 01 a5 bb 02 d6 a8 3b 96 e6 a4 3b 42 56 a2 3b
       -0.0050356337 0.005152465 0.005032371 0.0049541304
000070 02 98 62 3a bf 35 9c 3b 30 3b a8 bb 4d 61 97 bb
       0.0008643867 0.004767149 -0.005134009 -0.0046197535
000080 54 c6 40 3b 8c dd 3f 3b 66 c8 a1 3b ea 28 97 3b
       0.0029415088 0.002927634 0.0049372194 0.0046130316
000090 48 ba 7a 3b 15 53 eb 3a f0 9c a0 3b 2a 9e 94 3b
       0.0038258005 0.0017953838 0.004901521 0.004535456
0000a0 bf a8 75 bb 27 8b 9d bb 00 7a 21 3b be 0e 95 3b
       -0.0037484614 -0.004807848 0.0024639368 0.0045488765
0000b0 fb b3 9f bb 7b 27 4b bb e8 32 2d bb a8 b8 9c 3b
       -0.0048737503 -0.0030998874 -0.0026428048 0.004782755
0000c0 9f ca 8a 3b 7f ef a9 3b 50 bf 37 bb ba e9 58 3b
       0.00423558 0.005186021 -0.0028037615 0.0033098296
0000d0 c7 b1 a4 3b 9c a9 35 3b c5 91 65 3b 5f 95 4c ba
       0.0050260755 0.0027719503 0.0035029512 -0.00078042404
0000e0 8a e5 48 3b 5a dc 9b 3b 65 d6 a8 3b 6c 35 83 3b
       0.0030654394 0.0047564926 0.005152511 0.004004171
0000f0 49 69 96 3b a6 99 8b 3b a6 0d a2 3b 1a 2c fa 3a
       0.0045901877 0.0042602597 0.0049454747 0.001908663
000100 7c 62 a0 bb a9 d5 a2 3b 8e 8c 6d 3b 8e 6d 7a bb
       -0.0048945528 0.004969318 0.0036247107 -0.0038212272
000110 1a 66 9f 3b 9b cc a7 3b f4 e7 ad bb 19 3e 97 3a
       0.0048644664 0.0051208264 -0.005307192 0.0011538892
000120 4c 50 81 3a 64 65 ad bb 24 84 a6 bb 10 15 aa b8
       0.0009865849 -0.0052916277 -0.0050816704 -8.110155e-05
000130 d0 06 ab bb 9a a0 3e bb 65 d2 90 bb cc 7f 72 bb
       -0.005219318 -0.0029087425 -0.004419612 -0.0037002442
000140 64 6f a4 bb 7a de a2 3b 07 b0 a6 3b 57 1f a1 3b
       -0.0050181616 0.004970369 0.005086902 0.004917066
000150 1a c8 40 bb f8 fa 8c 3b df bd 9c bb fa 6d 9a bb
       -0.0029416145 0.0043023787 -0.0047833766 -0.0047128173
000160 8f 63 33 3b dd 80 78 bb 9c 56 a8 bb b3 08 96 bb
       0.0027372574 -0.0037918605 -0.0051372778 -0.0045786737
000170 86 79 52 bb df f7 70 bb 73 a4 a9 bb 0c 1b 88 bb
       -0.003211589 -0.0036768836 -0.0051770746 -0.004153615
000180 c6 16 a9 3b ca 22 a8 bb 9c e6 a2 bb 43 da a9 bb
       0.0051601855 -0.0051311003 -0.0049713384 -0.0051834895
000190 4c 31 ca 3a 54 1f 95 bb 66 95 ac 3b bc c4 a3 3b
       0.0015426069 -0.0045508537 0.005266833 0.004997818
0001a0 e5 76 a2 bb f3 0a a1 bb 4a 50 a4 3b fe 43 a4 3b
       -0.004958021 -0.0049146353 0.005014454 0.005012988
0001b0 29 1f 9c bb ce bc 72 3b 9d 47 4e bb d8 01 92 b9
       -0.004764457 0.0037038806 -0.003147579 -0.00027848664
0001c0 1a 48 a7 bb 59 42 a4 3b 09 d9 a6 3b 95 e2 a5 3b
       -0.0051050307 0.005012792 0.0050917906 0.005062411
0001d0 99 71 84 3b 0d e0 2f 3b 78 b2 a5 bb dd 2e 87 bb
       0.004041862 0.0026836426 -0.0050566755 -0.0041254596
0001e0 51 85 a9 bb 1a 5c 87 bb 02 ae 48 3b f5 95 b3 3b
       -0.0051733633 -0.0041308524 0.0030621295 0.0054805228
0001f0 ba 32 af bb 9a 57 71 3b 17 ff a5 bb 4f d4 a4 3b
       -0.0053466232 0.0036825896 -0.0050658095 0.005030192
000200 49 10 35 bb 52 8e 8f bb a8 1b ab bb 11 b8 b3 bb
       -0.0027628115 -0.0043809796 -0.0052218027 -0.005484589
000210 bd 39 87 bb e7 ef 68 3a 19 de 66 bb bd 0a a7 bb
       -0.004126756 0.0008885846 -0.0035227595 -0.0050977156
000220 b4 2e 82 ba a6 ef a1 bb f7 a8 03 3b 63 6b 60 3b
       -0.0009932132 -0.0049418984 0.0020089725 0.0034243695
000230 44 98 9e bb a7 cd 9f bb c4 52 20 bb 54 7c 73 bb
       -0.004839929 -0.0048768106 -0.0024463395 -0.0037152963
000240 0f 11 63 3b 0b 66 96 3b 75 83 1f 3b 67 5d a1 bb
       0.003464762 0.004589801 0.002433983 -0.0049244645
000250 ed d6 8f 3b 7b e5 7b 3b 71 72 a6 3b d5 ff d8 ba
       0.004389635 0.0038436342 0.0050795604 -0.0016555736
000260 0e 38 77 3b 21 73 84 3b 98 e4 9e 3b 4b 0e 93 bb
       0.003772262 0.0040420447 0.004849028 -0.004487788
000270 e5 59 98 bb 81 05 3a bb 99 a1 9a 39 c6 ed 92 bb
       -0.004649388 -0.0028384628 0.0002949357 -0.004483911
000280 85 28 73 bb 63 cb a0 3b 30 1e 8d 3b ac ca 2d bb
       -0.003710301 0.004907058 0.004306577 -0.0026518507
000290 24 c4 a2 3b 6b 28 8e 3b 9b aa 90 bb 94 84 96 bb
       0.0049672294 0.0043383143 -0.004414869 -0.0045934413
0002a0 78 86 14 bb 73 69 a9 bb 25 8d 75 3b 2e 41 9d 3b
       -0.0022663157 -0.005170041 0.0037468162 0.00479903
0002b0 78 bb a0 bb 7e 6f 11 bb 67 b3 a7 3b f1 73 9b 3b
       -0.0049051605 -0.0022191699 0.005117822 0.004744046
0002c0 7d 50 ab bb bd 96 a9 3b d3 07 ab 3b bb a7 7a 3a
       -0.005228101 0.00517544 0.0052194386 0.0009561737
0002d0 d9 41 99 3b a2 86 54 3b b6 22 96 bb 07 6f c1 ba
       0.004677039 0.003242888 -0.0045817746 -0.001475782
0002e0 b0 41 77 bb 6c 31 a1 3b 96 2c 90 3a 79 c0 88 bb
       -0.0037728362 0.0049192216 0.0010999616 -0.004173335
0002f0 61 88 a5 3b 3d da 9b 3b 18 54 b5 ba b0 54 95 bb
       0.005051658 0.0047562406 -0.0013834266 -0.0045572147
000300 68 e7 99 3b 92 60 83 bb 69 2a 9d bb ee cd 90 bb
       0.004696775 -0.004009315 -0.0047963155 -0.00441908
000310 b3 dd 94 3b c9 28 9b 3a a6 d2 05 3b 2b 60 9d 3a
       0.00454303 0.0011837716 0.0020419746 0.001200681
000320 86 94 91 3b 49 16 c5 3a 2e c2 2c bb b1 e5 b0 bb
       0.004442754 0.0015036549 -0.0026360857 -0.005398475
000330 27 e8 1f 3b 64 1e f5 ba 6a 39 b1 3b 5b 93 28 bb
       0.0024399848 -0.0018701074 0.0054084556 -0.0025722596
000340 09 10 84 3b b2 c2 f6 3a 72 aa a0 bb 52 51 a8 bb
       0.004030232 0.0018826334 -0.004903131 -0.0051366473
000350 fa b5 00 bb 35 c6 8c bb ac b2 59 bb 90 bc 97 bb
       -0.0019639716 -0.004296089 -0.003321807 -0.0046306327
000360 ed 26 e0 3a f0 74 a4 3b bc 91 76 3b 3d e5 94 bb
       0.0017101445 0.005018823 0.0037623486 -0.004543929
000370 38 73 a3 3b 7b 88 7a 39 b2 95 a3 bb bc 2a 98 bb
       0.0049881004 0.00023892701 -0.0049922103 -0.004643766
000380 11 bf 97 3b 05 02 d9 b8 c2 98 b4 ba c1 c6 9f bb
       0.004630931 -0.000103477425 -0.0013778436 -0.0048759882
000390 fb dd 75 3b 72 60 f7 b9 9c a4 9d 3b 78 93 a0 bb
       0.0037516344 -0.0004718337 0.0048108827 -0.004900392
0003a0 86 89 2c 3a 6b e2 48 bb 38 85 a3 bb 6c bc 4b 3b
       0.0006581772 -0.0030652534 -0.004990246 0.003108765
0003b0 17 cd 88 3b 1a d7 39 3b 86 60 a8 bb 81 cf d7 3a
       0.0041748392 0.002835697 -0.0051384596 0.0016465039
0003c0 20 5f 98 3b 57 74 0a 39 a9 63 25 bb 2f 96 9f 3b
       0.0046500117 0.00013204046 -0.0025236404 0.004870198
0003d0 30 62 72 bb 0c 62 0f bb 09 8c 8d 3b 53 eb ab 3b
       -0.0036984794 -0.002187851 0.004319672 0.0052465587
0003e0 38 b8 4a bb 6a f8 96 3b d4 ac 97 bb 17 1e 83 38
       -0.0030932557 0.00460725 -0.004628757 6.2521714e-05
0003f0 96 ad 8b 3b b3 68 80 3b 29 0e aa bb ff 63 8a bb
       0.0042626364 0.003918731 -0.0051896763 -0.0042233462

base_model.model.model.layers.0.mlp.up_proj.lora_A.weight f4 [8, 16]
000000 a3 45 51 3e 9c 8a a3 3c 8f 55 7b bc 7b 4c 4c 3e
       0.2043672 0.019963555 -0.015340223 0.1995105
000010 da 2e d7 3d 28 27 74 3e ea 35 54 3e 51 1e 2d be
       0.10506983 0.23843062 0.20723692 -0.16906096
000020 e9 af 22 3e d4 18 02 3e 73 14 3b be eb 52 00 3e
       0.15887417 0.12704784 -0.1826952 0.1253163
000030 fb 55 0a be 31 e3 1d be 2b c6 22 3c ae 6e d0 bc
       -0.13509361 -0.15418698 0.009934942 -0.025443401
000040 c4 5a 80 bd 8c 99 22 be ee 01 11 3e 4c 19 7a 3e
       -0.06267312 -0.15878886 0.14160892 0.24423712
000050 d5 af 4d bd e1 c7 2f be 52 14 05 bc fa b4 63 be
       -0.050216515 -0.17166092 -0.0081225205 -0.22237006
000060 5e 3c 55 be e9 dc 9f bd c0 36 26 3e b7 86 49 be
       -0.2082381 -0.07805807 0.16231823 -0.19680296
000070 e2 43 0e bd 75 89 00 be 43 15 71 be d1 e4 7b bd
       -0.034732707 -0.12552436 -0.23543267 -0.061497513
000080 b2 40 27 bc f6 df 16 bd bc 16 40 3e b0 4c c2 3d
       -0.010208296 -0.03683468 0.18758672 0.09487283
000090 a1 7d 24 3e fe e5 d2 3d b4 50 00 3d 6c f6 05 3e
       0.16063549 0.10297774 0.031326964 0.13082284
0000a0 27 af 28 be 43 cf 07 3e 1b 9f fe 3d 87 13 e4 bd
       -0.16473065 0.13262658 0.12432691 -0.11136537
0000b0 da b8 5f bb 28 71 46 be d4 5b 65 be fb d0 90 bb
       -0.003413728 -0.19379103 -0.22398311 -0.0044194437
0000c0 05 8d 3b 3d a3 6a 47 bd ad c1 a8 3d 9b 07 4b be
       0.045788784 -0.04868568 0.08240066 -0.1982712
0000d0 b0 ca 11 be a3 07 36 3e 4b bf 7b be 0b 51 14 3d
       -0.14237475 0.1777635 -0.24584691 0.0362101
0000e0 f7 c0 3f 3e 60 46 45 3e 13 66 b9 3d 71 97 6e be
       0.18725954 0.19265127 0.09052672 -0.23299958
0000f0 8e 59 18 3d ad bb bd bd d0 3b 9a bd 8e 44 49 3e
       0.03719478 -0.09264312 -0.075309396 0.19655058
000100 19 bd b8 bd ae ac 33 be c3 c7 52 be 8b e6 26 3e
       -0.090204425 -0.17546341 -0.20584016 0.16298883
000110 ab ad de 3b ab f8 80 3e dc f6 66 3d 92 b9 73 be
       0.006795605 0.2518972 0.056387767 -0.23801258
000120 06 e6 83 3d eb 1e 6f 3e 0c c6 19 3e 78 d2 a2 3d
       0.06440358 0.23351638 0.15016955 0.079503
000130 08 ae 45 be c3 e4 1e be f0 32 33 3e 71 c9 25 be
       -0.19304669 -0.15516953 0.174999 -0.16190125
000140 a2 ae 7e 3d 95 35 dc bc b8 29 b6 3d f4 76 ad 3c
       0.06217826 -0.026881019 0.08894676 0.021174885
000150 40 df 47 be 86 48 d5 bd 41 2a 64 3e cf 65 c7 3c
       -0.19518757 -0.104142234 0.22281744 0.024340538
000160 11 2b 05 3e a6 ae ff bd 98 d9 4f 3e 69 3b 49 bd
       0.1300471 -0.124844834 0.20297849 -0.049128924
000170 14 b4 ab bd 92 24 65 3d 6c f2 c1 bd 31 73 d8 bd
       -0.083839566 0.05594308 -0.094700664 -0.10568846
000180 cb d6 27 bd ce 3e 9d bc 59 26 13 be a1 9b b9 3d
       -0.040976327 -0.019194987 -0.14370097 0.09062887
000190 a4 69 7d be b8 82 1b 3e 3a be 72 3e cb cc 37 3d
       -0.2474733 0.15186584 0.23705378 0.04487304
0001a0 17 00 5a bd b0 a1 6f be c9 b8 e5 3d 4f 29 57 3e
       -0.053222742 -0.23401523 0.112168856 0.21011852
0001b0 4d 7b 55 3e a6 e0 8b 3c dc f8 b4 3d bc b0 7a 3e
       0.20847817 0.017074894 0.08836529 0.24481481
0001c0 a5 2f 22 3d e7 b6 f8 bd b6 33 78 be 82 94 d5 3d
       0.03959622 -0.12144261 -0.24238476 0.10428716
0001d0 53 f7 d1 3d e1 80 68 3e f3 b9 07 be d5 83 e6 3d
       0.102522515 0.22705413 -0.13254528 0.11255614
0001e0 63 50 b3 bd b7 7f 6f bd 9d b4 1a 3e fb 11 70 be
       -0.08755567 -0.058471408 0.15107961 -0.23444359
0001f0 61 14 42 3e e0 c6 f8 3d 02 87 1d be 30 71 fa 3d
       0.18953086 0.121473074 -0.15383533 0.1222862

base_model.model.model.layers.0.mlp.up_proj.lora_B.weight f4 [64, 8]
000000 cd af bc 39 49 11 9c 3b 0d fe 49 3b c7 6c 89 bb
       0.00035989136 0.0047628027 0.0030821592 -0.0041938755
000010 d9 8f 25 3b 1e 8a 9a 3b 06 43 87 bb 16 f1 97 bb
       0.0025262742 0.004716172 -0.004127863 -0.004636894
000020 65 97 ac bb ef f7 9b bb 26 82 a4 bb e5 3d 61 bb
       -0.005267071 -0.0047597806 -0.0050203977 -0.0034369167
000030 98 15 60 3b 4f 58 06 3b 3a ca 9c 3b 96 d4 a5 3b
       0.0034192558 0.0020499413 0.0047848495 0.0050607426
000040 b7 94 a2 3b 1a 18 8a bb 06 68 a6 bb 4b 67 a8 bb
       0.004961576 -0.004214299 -0.0050783185 -0.0051392666
000050 49 49 17 3b 65 d2 3a bb ae 0a a6 3b 48 24 9a bb
       0.0023084453 -0.0028506753 0.005067191 -0.004704032
000060 d9 45 91 bb b8 26 9d 3b 12 d5 61 3b 3f 6a 3b 3b
       -0.0044333753 0.0047958754 0.0034459275 0.0028597263
000070 01 99 16 ba a7 3b 9c 3b d0 ee a6 bb 4f ef 06 bb
       -0.0005744845 0.0047678533 -0.0050943866 -0.0020589416
000080 b1 44 83 bb 2a c7 8a 3b 24 b3 a7 3b a6 df a9 3b
       -0.0040059914 0.004235168 0.005117791 0.0051841317
000090 47 72 a0 3b 39 40 a7 bb 16 08 8f bb 5e 9e 17 3b
       0.0048964354 -0.0051040915 -0.0043649776 0.0023135166
0000a0 90 0a 4a ba de 7a 8b bb ae 8b 9d bb 27 b7 20 3b
       -0.00077072624 -0.0042565903 -0.004807911 0.002452323
0000b0 ef 0d 42 b7 35 1b 8e bb 16 4d 92 3b a8 ae a0 3b
       -1.1566545e-05 -0.0043367394 0.0044647558 0.004903633
0000c0 ff 5f a0 3b 44 ba 1d bb fd ec a6 bb 9c e1 a9 bb
       0.004894256 -0.0024067322 -0.005094169 -0.0051843654
0000d0 97 c9 9b 3b 6a 77 a4 3b fa bd 40 3b e1 18 a3 bb
       0.004754256 0.005019118 0.002941011 -0.004977331
0000e0 d6 11 a5 bb 9f 2c 3e 3b ab e5 a1 3b cb 78 a3 3b
       -0.0050375266 0.0029018295 0.0049407086 0.004988765
0000f0 ae 5c 8d 3b 8f 44 aa bb 6f a1 48 bb 49 f8 a3 3b
       0.004314027 -0.005196161 -0.00306138 0.005003963
000100 4f c5 a8 3b 03 06 aa 3b 2b b5 ac 3b 24 83 a3 bb
       0.005150474 0.005188705 0.0052706203 -0.0049899984
000110 d4 8e a2 3b ab a5 a1 3b c1 db 5a 3b 05 c6 a5 bb
       0.004960874 0.0049330792 0.0033395144 -0.005059006
000120 c0 7b 51 bb 06 57 ab 3b 20 c0 ac 3b b1 4f a1 3b
       -0.003196463 0.00522888 0.0052719265 0.00492283
000130 d5 98 83 bb 97 9f a3 3b c8 75 af bb 85 40 aa 3b
       -0.0040160217 0.00499339 -0.005354617 0.0051956796
000140 c6 1f a2 3b c0 c6 96 39 be 49 a6 bb 6e e8 9b bb
       0.0049476353 0.0002875831 -0.0050747087 -0.0047579324
000150 00 f5 ab 3b 6a 55 a1 3b b0 e6 93 3b bc 8a 99 bb
       0.005247712 0.004923512 0.004513584 -0.004685728
000160 c3 c5 c2 ba 54 cb 9f bb 2b 57 90 bb 78 63 a4 3b
       -0.0014859963 -0.0048765335 -0.0044049225 0.0050167404
000170 62 cc a5 3b 8c 30 a7 bb dc 46 96 3b f0 88 7c 3b
       0.0050597647 -0.005102223 0.004586084 0.003853377
000180 27 3f ad 3b e7 1a 89 bb 4f 85 83 bb 63 2e a5 bb
       0.0052870694 -0.004184115 -0.0040136944 -0.00504093
000190 00 e1 a1 3b 5d ee 75 bb fa 8b a5 3b 5e d3 ad bb
       0.004940152 -0.0037526109 0.005052087 -0.005304738
0001a0 60 d3 9c bb e7 96 95 3b 1e 7b c4 ba 4b c9 91 bb
       -0.00478594 0.004565108 -0.0014990305 -0.004449045
0001b0 d9 0a 30 bb 3f 3a 9b bb 21 14 96 bb df 4f 86 3b
       -0.0026861934 -0.004737168 -0.0045800363 0.004098877
0001c0 14 ad 9f bb 88 4d a1 bb 88 34 98 bb 4c 83 53 3b
       -0.0048729274 -0.0049225725 -0.004644934 0.0032274304
0001d0 81 e9 1c bb 73 0c a2 bb ce ba 3b 3b a5 b1 8f ba
       -0.002394289 -0.0049453317 0.002864528 -0.0010962976
0001e0 97 c1 a6 3b e6 60 a2 bb 24 dc aa bb 39 3d a9 bb
       0.0050889957 -0.004955399 -0.005214231 -0.005164769
0001f0 cb b3 a6 3b 29 54 9f bb da 36 ab 3b 6a 6b a4 bb
       0.005087351 -0.0048623276 0.0052250447 -0.0050176876
000200 3b 64 98 3b 7b d6 9c 3b cb 45 ab 3b 1a 50 af 3b
       0.0046506203 0.0047863103 0.005226826 0.005350125
000210 2e dd a2 3b 8a 6a 98 bb c4 db 98 ba 1e ea 88 bb
       0.0049702143 -0.0046513723 -0.0011662175 -0.0041782996
000220 aa 52 30 3a 2b 87 9e 3b 3e d8 97 3b b7 b4 6b bb
       0.0006726185 0.0048378906 0.0046339324 -0.0035965869
000230 16 16 9e 3b 8f 1a 8d 3b 89 82 9b bb e7 bf a4 3b
       0.00482441 0.0043061445 -0.0047457856 0.0050277594
000240 16 b8 a6 3b 41 b6 5a bb 7e cc 92 bb 7d 09 9d bb
       0.0050878627 -0.0033372792 -0.004479944 -0.004792391
000250 6a b8 a0 3b 86 c5 91 3b a3 76 a0 3b 74 9c a4 bb
       0.0049047964 0.0044485955 0.004896955 -0.0050235335
000260 f0 ea a1 3b 79 c3 83 bb eb ee 7d 3b 5f 6a c5 3a
       0.004941337 -0.004021105 0.0038747143 0.0015061608
000270 dc 7f 9d 3b 60 e7 7a bb f7 1b a2 3b 05 e8 92 bb
       0.004806502 -0.0038284883 0.0049471813 -0.0044832253
000280 ae 71 94 3b e8 f0 19 3b 8e 3f 9b 3b dc 20 a1 3b
       0.0045301532 0.0023489539 0.004737801 0.004917247
000290 af 96 85 3b 02 4c 66 3b f9 22 86 bb 5d 7c 90 3b
       0.004076801 0.003514052 -0.0040935245 0.0044093565
0002a0 0a 84 a5 3b 8f 88 70 3a a0 3c 90 3b a7 29 a8 bb
       0.0050511407 0.0009175622 0.0044017583 -0.0051319185
0002b0 55 b1 8b bb 59 3c 9e 3b 7a dc 9a 3b d8 3c a1 bb
       -0.004263083 0.0048289713 0.00472599 -0.004920583
0002c0 93 a5 a6 3b ae d4 9b 3b ef 99 a0 3b 10 f1 a6 3b
       0.005085656 0.004755578 0.004901163 0.005094655
0002d0 db be a6 3b 2d fc 9d bb b8 6c b4 37 8e 74 9e bb
       0.0050886697 -0.0048213215 2.1508298e-05 -0.0048356717
0002e0 43 7a 87 bb 74 96 9f 3b c9 33 6e 3b ae b2 a1 3b
       -0.004134448 0.0048702303 0.0036346784 0.0049346304
0002f0 ab 75 79 3b 8f 19 2d ba 4d 02 a3 bb 71 73 a0 3b
       0.003806452 -0.0006603235 -0.0049746395 0.004896574
000300 25 72 85 bb 4c 15 6c 3b b0 a1 b2 3b f3 7b 99 bb
       -0.004072445 0.0036023436 0.0054514036 -0.0046839654
000310 81 74 cf 3a cd 92 89 3b ce a6 3c 3a a7 e2 66 3b
       0.0015827568 0.004198408 0.00071964867 0.003523031
000320 b2 fd a9 bb 17 76 09 3b 5e 63 a0 bb a5 30 9c bb
       -0.0051877135 0.0020974928 -0.004894658 -0.004766541
000330 c7 a7 32 ba 8e 50 9d bb ff 4f 8e 3b 66 bf 88 3b
       -0.0006815162 -0.0048008626 0.0043430324 0.004173207
000340 da 23 a6 3b 05 57 8e 3b ca a3 ae 3b 59 5f 89 b9
       0.005070192 0.0043438696 0.005329584 -0.00026201716
000350 98 40 96 3b 66 3e 3a 3b 8c fd 27 b9 4c e0 a2 bb
       0.004585337 0.002841854 -0.00016020815 -0.004970586
000360 7a d5 8e 3b 63 2e 98 3b 34 77 a1 3b 75 fb 9c bb
       0.0043589445 0.0046442016 0.00492754 -0.004790718
000370 bc 8e 9c bb 8c 8e a2 3b ab 2d 8e bb f0 bd 4d bb
       -0.0047777575 0.0049608406 -0.00433894 -0.003139373
000380 cc 33 a3 3b 4e 0c 9f bb fc 59 8a ba 60 26 a1 3b
       0.00498054 -0.0048537618 -0.0010555382 0.0049179047
000390 c1 28 90 3b 67 8f 83 3b b5 41 a1 3b c5 dd a5 bb
       0.0043993895 0.0040148976 0.004921163 -0.0050618374
0003a0 97 d2 aa 3b af 42 a0 bb fc 3d a9 bb 44 af ab bb
       0.0052130925 -0.004890762 -0.00516486 -0.005239399
0003b0 7d b6 aa 3b ac 57 97 bb 88 eb a7 3b aa 54 a8 bb
       0.0052097426 -0.0046186056 0.005124513 -0.005137046
0003c0 74 92 a7 3b 35 8d a6 bb 0e df af bb 9a 66 ae bb
       0.005113894 -0.005082751 -0.0053671664 -0.0053222897
0003d0 f7 ef 15 bb 36 ed 44 3b e8 0f a7 3b 00 53 9b bb
       -0.0022878626 0.0030048615 0.0050983317 -0.004740119
0003e0 3e 3d a7 3b ed 1a 8f ba a9 3d 91 bb 57 f4 9c bb
       0.005103736 -0.0010918059 -0.0044323993 -0.0047898698
0003f0 b4 25 8c 3b dd d4 a4 3b 46 d1 94 3b 75 25 a5 bb
       0.0042769555 0.005030258 0.004541549 -0.0050398656

base_model.model.model.layers.0.self_attn.k_proj.lora_A.weight f4 [8, 16]
000000 3c a0 3c 3d 35 0c 75 be c3 91 5a 3e f8 93 21 3e
       0.04605125 -0.23930438 0.21344666 0.15779102
000010 dc 07 76 be 5a 77 fe bd 2c 06 9d 3d 5d ec 66 bd
       -0.24026436 -0.12425108 0.07667193 -0.056377757
000020 32 23 b8 bc fb 8b f1 bd 7c a9 48 3e 2c 31 14 be
       -0.02247772 -0.11794277 0.19595903 -0.14471883
000030 14 3b 4f 3e 46 1d ae 3c f8 a0 62 3d 95 b3 42 3e
       0.2023738 0.021254193 0.055329293 0.19013818
000040 fb 3c 15 bd e0 8e 0c be 6d 8d 1b bd 0f fd 4b 3e
       -0.03643511 -0.13726377 -0.03797667 0.19920753
000050 e6 e1 42 be 6c 49 7d 3d 84 88 7e be 1c 0b 0b 3e
       -0.19031486 0.0618376 -0.24856764 0.13578457
000060 09 ae b5 3d af 50 7f 3c 2e a7 e5 3d a3 69 37 3b
       0.08871085 0.015583201 0.112135276 0.0027986548
000070 8a ac 12 3e 55 d1 4f be ef 5f 25 bd 76 6d ed 3d
       0.14323631 -0.20294698 -0.040374693 0.11593144
000080 58 64 81 3e a7 43 fa 3d 46 20 37 be 1d c7 49 3e
       0.2527187 0.12219935 -0.17883405 0.19704862
000090 81 96 51 bd 13 cd 63 bd 33 28 6d be e4 a3 12 bd
       -0.051168922 -0.055615496 -0.23159866 -0.03580083
0000a0 ff 47 3a 3e bc b7 f3 3c 18 5d 19 be c3 3f a7 3d
       0.18191527 0.029750697 -0.14976919 0.081664585
0000b0 21 91 ad bd 66 0d 6f 3e be 06 63 be 8d 2d ac bd
       -0.08474947 0.23344955 -0.2217054 -0.084071256
0000c0 c3 03 72 be 18 5f bf bd 93 a7 ab 3d 70 53 7b 3e
       -0.23634247 -0.093443096 0.083815716 0.24543548
0000d0 f6 87 1f 3d dc f2 7f 3e e3 f1 5c 3d 8e f0 18 3e
       0.03894802 0.24994987 0.05394162 0.14935514
0000e0 f4 b5 50 3e 17 20 5b 3e 8d 38 0a be 49 9a 70 3e
       0.2038191 0.2139896 -0.13498135 0.23496355
0000f0 f3 e2 1f 3e 10 64 f9 bd 69 dc fe bd 36 e1 52 be
       0.15613918 -0.121772885 -0.12444384 -0.20593724
000100 db c5 88 3d 92 23 54 be fb 94 e1 3d e8 de ab 3d
       0.06678363 -0.20716694 0.11014744 0.08392125
000110 f9 aa 59 be bc 2e 86 3d 86 3c ab bc de 58 f3 3d
       -0.21256627 0.065518826 -0.020902883 0.118821844
000120 6e 0d 18 3e f3 8e 81 be 1c fe 6a 3e 7e b9 5b 3e
       0.14848873 -0.25304374 0.22948498 0.21457478
000130 25 97 ca 3d 8a cf 64 be 4c 13 c1 bd d6 66 9e bd
       0.0989211 -0.22344795 -0.09427509 -0.07734458
000140 07 d7 8d bd 73 ed 0b 3e 3f d5 b0 3d 9b 94 47 3e
       -0.06925779 0.13664798 0.086344235 0.19490282
000150 ef 2c c8 bd 16 fd b0 3d c2 ee ad 3d ca 6a 5a be
       -0.097741954 0.08642022 0.08492805 -0.213298
000160 82 9f 78 be ce 81 09 be 1d 66 2b 3e ca 23 76 be
       -0.24279597 -0.13428423 0.16738172 -0.2403709
000170 e1 9f 63 be 65 e1 13 3e 76 5c 0f 3e 2d 93 55 3e
       -0.22228958 0.1444145 0.14000115 0.20856924
000180 cb 21 46 be 58 a0 40 be b9 ca fd 3d 0a 24 63 3e
       -0.19348828 -0.18811166 0.12392182 0.22181717
000190 28 44 1e 3e 09 ed 0b 3d be c7 9f 3d 74 29 6e 3e
       0.15455687 0.0341616 0.0780177 0.23258
0001a0 bb 00 20 be dc e0 f2 bd f2 1a 2e 3e 5b 22 33 be
       -0.15625279 -0.11859295 0.17002466 -0.17493574
0001b0 13 39 12 be eb 2f 40 3e 8d d1 aa 3d 13 0b 9b 3d
       -0.14279585 0.18768279 0.0834075 0.075704716
0001c0 97 30 e3 bd d0 29 0c bc 32 50 65 3e 69 78 1a be
       -0.11093252 -0.008554891 0.22393873 -0.15084995
0001d0 c4 00 d7 3b 6b 80 e9 3d c2 c9 35 be 47 c3 73 3e
       0.0065613706 0.11401447 -0.17752746 0.23804961
0001e0 4c 99 f5 bd 52 51 85 bd ea 8c 94 bd e8 e1 2b be
       -0.1199213 -0.06509651 -0.0725344 -0.16785395
0001f0 f2 1e 80 be d3 a2 15 3e 60 4f 92 3d 98 ed 74 be
       -0.2502361 0.14612894 0.07144046 -0.2391876

base_model.model.model.layers.0.self_attn.k_proj.lora_B.weight f4 [16, 8]
000000 fa 03 89 bb 11 ff 00 3b c7 b4 96 bb 55 d7 9e 3b
       -0.0041813822 0.0019683281 -0.004599187 0.004847447
000010 68 61 1b ba df ec f0 38 52 c5 aa bb 11 01 99 bb
       -0.00059272954 0.000114882125 -0.0052115107 -0.0046693166
000020 40 a5 83 3b 63 cf a4 bb 60 6b 95 3b 65 dd 9f bb
       0.004017502 -0.0050296052 0.0045599192 -0.004878687
000030 f3 b2 1c 3b a9 0a 70 bb fd 00 a0 3b 15 6e 9f 3b
       0.0023910373 -0.0036627448 0.0048829303 0.0048654177
000040 eb ba 8d 3b 83 7d a5 bb 3c 8c a9 3a 34 7d 9d bb
       0.004325261 -0.0050503626 0.001293547 -0.004806185
000050 13 b1 bc ba 78 0a 82 3b a6 94 a4 3b 66 92 a9 3b
       -0.0014396034 0.003968533 0.005022603 0.0051749228
000060 a3 12 88 bb 69 0d a5 3b d6 5a d6 ba 82 6d a2 3b
       -0.0041526123 0.005036999 -0.0016353976 0.004956902
000070 92 ab 90 ba 45 95 38 3b f8 38 9e bb 42 4e 9e bb
       -0.001103746 0.0028165143 -0.0048285685 -0.0048311064
000080 63 93 41 bb 16 90 9b 3b e7 e8 0f bb 53 4b 98 3b
       -0.0029537312 0.004747401 -0.002195889 0.004647651
000090 4d 33 97 3b 1f 1e 9c bb 22 e6 a4 bb c2 9f 9f bb
       0.00461427 -0.004764333 -0.005032317 -0.0048713395
0000a0 72 eb 39 39 4a a6 a5 ba 5f 5b 61 3b 9b 13 ff 3a
       0.00017730685 -0.0012638059 0.0034386737 0.0019460799
0000b0 80 a4 ad 3b 83 75 74 ba d1 e2 1e 3b c1 cb 44 ba
       0.005299151 -0.0009325372 0.002424408 -0.00075071683
0000c0 b7 c1 16 3b 0c a2 7c 3b 8e 13 9f bb e5 b7 9b bb
       0.0023003647 0.0038548736 -0.004854626 -0.0047521465
0000d0 d5 cb 9f bb 00 e4 a8 3b 91 fe 05 bb 00 9a e4 ba
       -0.0048765936 0.005154133 -0.0020445923 -0.0017440915
0000e0 5c c2 7d 3b 81 3f a8 bb 22 1a a3 3b 0a 8a a8 bb
       0.0038720584 -0.0051345234 0.0049774805 -0.0051434087
0000f0 26 7c e1 ba 47 b0 94 3b 0a 96 a2 3b a6 1e a8 3b
       -0.0017203137 0.0045376155 0.0049617337 0.0051306067
000100 b6 92 02 bb da 91 dc 3a de 5e ab bb 2b 8f 86 3b
       -0.0019923872 0.0016828135 -0.005229815 0.0041064224
000110 e2 60 1d bb bc 83 be 3a 48 66 a9 bb 81 43 a7 bb
       -0.0024014045 0.001453511 -0.0051696636 -0.0051044826
000120 f8 39 b4 39 b4 93 9b 3b ce fa 02 3b 23 2e 98 3b
       0.00034375465 0.004747832 0.0019985917 0.004644172
000130 56 ca 9f 3b 8e d9 92 bb 7d 6e 4b ba 02 0b 10 3b
       0.0048764152 -0.004481501 -0.00077602995 0.0021979217
000140 55 66 95 3b b0 aa aa bb 6b ec 52 bb 49 be a2 bb
       0.004559318 -0.005208336 -0.0032184373 -0.0049665314
000150 87 a9 44 bb 43 12 a6 3b a4 94 a7 3b cb 49 9f 3b
       -0.0030008273 0.005068095 0.005114155 0.0048610917
000160 4a 77 88 bb f8 0d d4 3a 55 7a a5 bb 99 28 5a 39
       -0.004164611 0.001617848 -0.0050499835 0.00020805224
000170 a9 e7 86 bb b8 32 2c 3b d2 3b 96 bb 7e 86 a5 bb
       -0.0041169715 0.0026275348 -0.004584768 -0.005051433
000180 8c 70 86 bb d6 fa 6a 3b b2 2b ae bb 8f 21 96 bb
       -0.004102772 0.0035855076 -0.0053152675 -0.004581637
000190 54 2c 92 bb c3 15 a1 bb 1c 72 ab bb 46 02 78 bb
       -0.0044608507 -0.0049159243 -0.0052321088 -0.0037843152
0001a0 ac da 42 bb 35 2f 8b 3b 45 60 a3 3b 1b 8a 95 3b
       -0.002973239 0.004247571 0.0049858415 0.0045635826
0001b0 01 6a 89 3b d1 b9 a1 bb f1 36 22 ba 16 e8 8b 3b
       0.004193545 -0.004935481 -0.00061879965 0.00426961
0001c0 bb fb 7c 3b d4 23 97 3b f9 94 4d bb 32 1b aa bb
       0.0038602191 0.0046124253 -0.0031369312 -0.00519123
0001d0 29 35 0f bb ff c8 90 3b a1 2e 0a bb 64 9b ed b9
       -0.0021851754 0.004418492 -0.0021084922 -0.00045319938
0001e0 95 c4 53 bb 3f 86 01 bb d0 77 b1 3b c4 10 b2 3b
       -0.0032313217 -0.0019763855 0.005415894 0.0054341275
0001f0 53 fc aa 3b 40 d5 b5 bb 75 9b 04 3b b8 94 95 bb
       0.0052180677 -0.005549103 0.0020234261 -0.004564848

base_model.model.model.layers.0.self_attn.o_proj.lora_A.weight f4 [8, 16]
000000 36 fa 07 be 22 51 88 3c 17 2b 25 bd 58 01 9d 3d
       -0.13279042 0.01664025 -0.040324297 0.07666272
000010 1a 2a 2b 3c 72 a5 04 be 5b 15 a8 bd be 79 05 3b
       0.0104470495 -0.12953737 -0.08207198 0.0020366753
000020 5c 14 24 be d5 8e ca 3c 5a f7 4a bc be 06 bc 3d
       -0.16023391 0.02472631 -0.012388075 0.091809735
000030 3c e6 83 3d c8 ec 44 3e e0 7a 5c bc e1 71 42 be
       0.06440398 0.1923095 -0.01345703 -0.18988754
000040 78 a6 ef 3d 62 e6 27 be 55 6d 22 bd cb 4e 9b bd
       0.11701673 -0.16396478 -0.03965505 -0.07583388
000050 7f 08 c8 bd c8 dd c7 bd 68 3f 6e 3e e5 75 17 3e
       -0.097672455 -0.09759098 0.23266375 0.14791067
000060 9b d5 87 3d ac b2 75 3e 37 92 62 be 23 ec 0f 3d
       0.06632539 0.23993939 -0.22126089 0.035137307
000070 bb 4c 29 3e 3b 6f 2f 3e 0b 2b 51 be 4d 9f ab 3d
       0.16533177 0.17132275 -0.20426576 0.083799936
000080 4e a0 0c be 3a 3a 56 bc f4 78 6a bd 51 7b 50 be
       -0.13733026 -0.013075406 -0.057244256 -0.20359541
000090 db 35 70 be 8d 18 24 be 00 37 f2 3d 29 48 f4 3d
       -0.23458044 -0.1602499 0.11826897 0.11927826
0000a0 e0 78 63 be 61 ae b5 bd 45 fa 18 3c c2 8f 62 be
       -0.22214079 -0.08871151 0.009337013 -0.22125152
0000b0 66 77 15 3e 53 2e 6d 3e 4e 23 2d 3d 91 7c 43 be
       0.14596328 0.23162203 0.042269997 -0.19090487
0000c0 dd 04 7b 3d b4 5f c0 3d 9e 58 48 3e c4 a0 04 be
       0.061283935 0.09393254 0.19565055 -0.12951952
0000d0 5f 8c 69 be b6 4f da 3d cf 38 5d 3c 24 df a0 bd
       -0.22807454 0.10659735 0.013502314 -0.07855061
0000e0 91 eb d0 bd 42 5d fd bd 84 8c 53 3e 17 19 43 bd
       -0.10201181 -0.12371303 0.20659071 -0.04763135
0000f0 e8 18 3e 3e 26 a8 69 3e ba 5c db 3c 3e 25 45 3d
       0.18564188 0.2281805 0.026777614 0.04813122
000100 df ee 41 bc 7d 1b 35 3e 80 23 6c be 52 4c d6 3d
       -0.011836736 0.17686267 -0.23060417 0.10463776
000110 36 f9 39 bd f6 17 df 3d 72 24 85 3b c3 77 b3 bd
       -0.04540368 0.10893242 0.0040631825 -0.08763077
000120 16 17 ed bc 48 27 0f 3e 09 7f 2c be be 3a 27 be
       -0.028941672 0.13979828 -0.16845335 -0.16331002
000130 5a c6 4f bd 4b 72 b6 bd dc be bf 3d 2e c3 30 3e
       -0.050726272 -0.089085184 0.093625754 0.17261955
000140 f3 db b8 bc a6 4c 77 3e 1a bb e0 bd 7f b7 14 be
       -0.022565817 0.24150333 -0.10973187 -0.14523123
000150 e8 eb ef bd c7 9a 35 be 6e 8d 38 be cc 0b 69 be
       -0.117149174 -0.17734824 -0.18022701 -0.22758406
000160 37 a2 5d be ff e8 8f 3d c8 59 21 3e 8f f5 71 3e
       -0.21643911 0.07026862 0.15756905 0.2362883
000170 b8 74 5e 3e 38 62 19 bc 3a 1d 31 3d bf 13 17 be
       0.21724212 -0.009361796 0.043240763 -0.14753626
000180 91 eb cf 3d 78 1d 79 be 89 e0 ec 3d b2 b6 50 3d
       0.101523526 -0.24327648 0.11566264 0.05095548
000190 29 88 a7 3d 36 f3 c2 3d 65 9e e1 bd 82 b2 60 3e
       0.08180267 0.09519045 -0.110165395 0.21943095
0001a0 40 c9 ea 3d da 1d 2d 3e 88 80 1b 3d 5d aa 1b 3e
       0.11464167 0.16905919 0.037964374 0.15201707
0001b0 23 40 31 3e 7c 6d f2 3d d8 0b 45 3e 6a bb 4e bd
       0.17309622 0.11837289 0.192428 -0.0504717
0001c0 46 99 2d 3e 9c 13 7b 3d 52 c2 14 3e b1 ad 7e 3e
       0.16953 0.061297998 0.14527252 0.24870946
0001d0 a8 93 77 3d 14 df bf bd 3e 74 a6 bc 8f 65 9a 3d
       0.06044355 -0.09368721 -0.0203191 0.07538902
0001e0 09 a5 19 3d df 6c 81 bd d6 f6 4d 3e 73 81 14 3e
       0.037510905 -0.06319594 0.20113692 0.14502506
0001f0 ac b9 19 be 7b f6 78 bc d9 62 ec bc 97 bc 25 be
       -0.15012234 -0.015195484 -0.028855728 -0.16185223

base_model.model.model.layers.0.self_attn.o_proj.lora_B.weight f4 [16, 8]
000000 05 d8 a3 3b b4 58 9b 3b cc 84 a9 3b 91 9a 9d 3b
       0.005000117 0.004740799 0.0051733013 0.0048096855
000010 92 0c 85 bb c4 50 31 bb e1 9a a1 3b ad 32 64 3b
       -0.0040603364 -0.0027056197 0.004931793 0.0034820244
000020 36 a5 80 ba 08 1e 36 bb 50 8b a1 ba 23 99 62 bb
       -0.0009814862 -0.0027788896 -0.0012324844 -0.003457614
000030 6b c6 65 3b 73 0a b4 3a d6 1a 3b ba 17 eb 88 3b
       0.0035060893 0.0013736024 -0.0007137483 0.0041784155
000040 6f 1b a1 bb bd 34 ca b8 6e 1b 9d bb 7d 4b 79 ba
       -0.0049166004 -9.641934e-05 -0.0047945296 -0.0009509845
000050 7f ea 9a 3b 59 6c a1 3b 58 31 a4 bb 55 c5 3f bb
       0.004727661 0.004926246 -0.005010765 -0.0029261906
000060 fc 3d 9e 3b 40 32 91 3b fe eb a0 3b 15 dc 79 3b
       0.0048291665 0.004431039 0.004910945 0.0038125564
000070 cc 3b 03 3b f0 6d 90 bb 12 80 93 3b 25 3b 85 3b
       0.0020024655 -0.004407637 0.004501351 0.0040658885
000080 5f da eb 3a b2 f1 d2 ba a4 58 6c 3b 44 92 72 bb
       0.0017994157 -0.0016093759 0.0036063576 -0.003701345
000090 33 d8 31 3b 92 8a 9f bb 80 df 93 3b 53 41 71 3b
       0.0027136921 -0.004868814 0.0045127273 0.0036812618
0000a0 d2 89 8b 3b dc 12 a5 3b 8b 17 8e 3b e3 8f 08 3b
       0.004258373 0.0050376486 0.0043363026 0.0020837716
0000b0 b6 c7 86 3b b1 20 a1 3b 76 93 6a 3b 65 27 45 3b
       0.004113163 0.004917227 0.003579346 0.0030083295
0000c0 a2 bc a3 bb 07 0d a3 bb b8 3c a7 bb ce 1c 36 bb
       -0.004996852 -0.004975918 -0.005103674 -0.0027788165
0000d0 e6 f3 87 bb 30 01 90 3a bd 89 9a bb d8 5e 9a bb
       -0.004148948 0.0010986682 -0.0047161267 -0.0047110133
0000e0 10 71 58 3b 3f c6 44 3a 36 22 a5 b9 ca 16 74 bb
       0.0033026375 0.00075063476 -0.00031496742 -0.0037245029
0000f0 8f 6a a6 3b a0 29 87 bb 98 80 70 bb 7f 1d 93 3b
       0.0050786207 -0.004124835 -0.0036697742 0.0044896
000100 85 ae 9a bb 66 6c ac bb 47 2a a9 bb 33 48 a0 bb
       -0.0047205114 -0.0052619455 -0.0051625106 -0.0048914193
000110 51 c7 8e bb d1 2f a8 bb 43 aa bf 3a d8 e0 20 bb
       -0.0043572565 -0.0051326533 0.0014622886 -0.002454808
000120 d5 e3 76 bb 6c 1e a7 bb 4d fb 21 3b 48 b3 a6 bb
       -0.003767242 -0.005100062 0.0024716437 -0.00508729
000130 98 21 90 3a 2d a3 a4 bb 3b d3 86 3b 40 de 4d 3b
       0.001099634 -0.005024335 0.004114536 0.003141299
000140 99 f6 97 3b 7c f0 3d 3b 02 46 9b 3b 9f 34 bc 38
       0.004637551 0.0028982451 0.00473857 8.97434e-05
000150 60 45 88 bb e0 44 9c bb 96 87 9f 3b de 90 8b 3b
       -0.004158661 -0.0047689527 0.004868458 0.004259213
000160 ad a2 9c 3b fe 45 95 3b 5c 20 1a 3b 8f ed ac 3a
       0.0047801347 0.004555463 0.0023517823 0.0013193357
000170 3d 78 7f 3a f7 aa 58 3b a9 c5 83 3b 5a 98 32 3b
       0.0009745395 0.0033060887 0.0040213657 0.0027251453
000180 b1 57 a0 3b 14 3f ae 3b ea 5e b0 3b 49 d0 48 3b
       0.004893266 0.005317578 0.0053824084 0.0030641726
000190 e9 ff 04 3b 01 22 4b 3b 92 33 93 3b 62 76 8c 3b
       0.0020294136 0.003099561 0.0044922316 0.0042865733
0001a0 58 89 9c bb db b7 a2 bb a7 a4 a5 bb b0 dc 7e bb
       -0.004777115 -0.004965765 -0.0050550285 -0.0038888864
0001b0 c0 93 8d 3b b9 5d 3b bb b7 55 a0 bb 70 66 63 bb
       0.0043205917 -0.0028589799 -0.0048930305 -0.0034698509
0001c0 e9 df 93 bb 54 23 60 bb b1 3b 9a bb ff 5f 04 3b
       -0.004512776 -0.0034200745 -0.004706823 0.002019882
0001d0 9f 86 12 bb 7c be 90 3b b8 f5 94 bb a8 72 9c bb
       -0.0022358072 0.0044172388 -0.0045458935 -0.0047744103
0001e0 a4 b7 99 bb 92 3a a7 bb 41 99 a5 bb 78 64 71 bb
       -0.004691081 -0.0051034177 -0.0050536697 -0.0036833566
0001f0 0f 75 a4 bb fe bb 9a bb 0c 5e b0 b9 c1 38 84 bb
       -0.0050188373 -0.0047221174 -0.00033639406 -0.004035086
